SRCNN-master/model_8.pth (torch, 36296 bytes, 5 tensors)

weight f4 [64, 1, 9, 9]
0	0xbb9f05cb	-0.0048529855
1	0x3d644e82	0.055738933
2	0xbdc2fba5	-0.09520654
3	0xbdaf226f	-0.085514896
4	0xbd3f1e8a	-0.046659984
5	0x3cd2cfd8	0.025733873
6	0xbbd048fc	-0.0063563567
7	0x3dac974a	0.084272936
8	0xbc5f77e0	-0.01363942
9	0x3cd05284	0.025429972
10	0xbd18f2cc	-0.037340924
11	0xbcd06925	-0.025440762
12	0xbde0b9a7	-0.109729104
13	0xbd9e6675	-0.07734386
14	0xbd4c2925	-0.049843926
15	0xb8922d24	-6.9702306e-05
16	0x3d2415ed	0.040059973
17	0x3d80bbe7	0.062858395
18	0xbda25a56	-0.079273865
19	0xbd5555a1	-0.052083615
20	0x3d16ff7d	0.036864746
21	0x3db5e6cc	0.08881912
22	0xbcd92048	-0.02650465
23	0x3da224ac	0.07917151
24	0xbcb4e1f4	-0.0220804
25	0x3c00fd37	0.007872871
26	0x3dc63316	0.096777126
27	0xbddb6941	-0.10713435
28	0xbd971687	-0.073773436
29	0xbd020ee8	-0.031752497
30	0xbd3ff38b	-0.04686312
31	0x3dbd0b1c	0.092306346
32	0xbd9bb185	-0.076022185
33	0xbd62c7ca	-0.055366315
34	0xbda71c15	-0.08159653
35	0xbddd3481	-0.1080103
36	0xbd8afad8	-0.06786126
37	0x3dbdb238	0.09262508
38	0x3d3fa7d6	0.04679092
39	0x3d515c88	0.051113635
40	0x3b4850d0	0.0030565746
41	0xbd756ea7	-0.05991998
42	0x3c80c3f7	0.015718443
43	0xbdda1fd6	-0.106506035
44	0xbda9dedd	-0.08294461
45	0xbd796cb3	-0.06089468
46	0x3d8829b1	0.06648577
47	0x3d7be852	0.061500855
48	0xbd58cee0	-0.052931666
49	0xbbfac892	-0.0076533044
50	0x3d8a057e	0.06739329
51	0x3ddab3df	0.10678839
52	0x3d271b3d	0.04079746
53	0x3c421657	0.011846147
54	0x3d904aee	0.07045542
55	0xbd8e7349	-0.06955583
56	0x3c86c67f	0.016452072
57	0xbdb946b3	-0.09046688
58	0xbda6888a	-0.081315115
59	0xbd7c88fc	-0.061654076
60	0x3d3cd6e2	0.046103366
61	0x3d27a5b3	0.040929507
62	0xbd8e2457	-0.06940525
63	0x3cf0efc6	0.029411208
64	0x3d685b86	0.05672791
65	0xbc9707cc	-0.018436335
66	0xb98922ec	-0.00026156695
67	0x3cae07cf	0.021243958
68	0x3d8411dc	0.06448719
69	0x3dd19dea	0.10235198
70	0xbdb75c98	-0.08953208
71	0xbd361607	-0.0444546
72	0x3d225450	0.039631188
73	0x3db4160b	0.08793267
74	0x3dbd52a5	0.09244279
75	0x3dbfec09	0.09371192
76	0x3c91a070	0.017776698
77	0xbdceb15e	-0.10092424
78	0x3bc4b77a	0.0060033174
79	0xbd962819	-0.07331867
80	0xbddb8f14	-0.10720649
81	0x3de5bfce	0.112182245
82	0x3dc983c1	0.09839583
83	0xbdc53ef1	-0.09631146
84	0x3d11920b	0.035539668
85	0xbb83bab9	-0.004020062
86	0xbb86e8c7	-0.0041171047
87	0xbd17c40d	-0.037052203
88	0x3d663f5e	0.056212775
89	0xbd5752d1	-0.052569214
90	0x3d60739f	0.054797765
91	0x3d911a35	0.07085077
92	0x3dc27de9	0.09496672
93	0x3d6a910e	0.05726724
94	0xbdc12d8c	-0.094325155
95	0xbd69af41	-0.0570519
96	0x3d8f6fee	0.07003771
97	0x3d192829	0.037391815
98	0xbd953a8a	-0.07286556
99	0xbd4912af	-0.049090084
100	0x3df61abd	0.12016819
101	0x3dbb4912	0.091447964
102	0xbd00d946	-0.031457208
103	0xbc35114a	-0.011051485
104	0xbdb79500	-0.08963966
105	0x3c5ed802	0.013601305
106	0xbd8c8bbf	-0.06862592
107	0xbd9193e6	-0.071082875
108	0x3c1ce128	0.009575166
109	0x3d081fef	0.03323358
110	0xbce47470	-0.027887553
111	0x3dac2cf5	0.084070124
112	0xbd4aca12	-0.049509116
113	0x3df20613	0.11817565
114	0x3dbe0155	0.09277598
115	0xbd9f35b2	-0.077739134
116	0xbc47e73e	-0.0122011285
117	0x3cae130f	0.021249322
118	0x3d087fef	0.033325132
119	0x3d368c74	0.04456754
120	0x3d7f9154	0.062394455
121	0x3cd09c3d	0.025465125
122	0xbd140555	-0.036137898
123	0x3d8f1b8d	0.06987677
124	0xbdb85ed8	-0.09002465
125	0xbd4c2ac5	-0.049845476
126	0xbc4621fe	-0.012093065
127	0xbd19e515	-0.037571985
128	0xbcae4373	-0.021272397
129	0xbd9558cd	-0.07292328
130	0xbbb27659	-0.005446237
131	0x3d28f535	0.041249473
132	0xbd63e030	-0.055633724
133	0x3c28fb52	0.010313826
134	0x3dc29804	0.09501651
135	0x3b6c5f30	0.0036067478
136	0x3c9a42b5	0.018830637
137	0x3be7a9b1	0.0070697893
138	0x3d223008	0.039596587
139	0x3db3d1ae	0.087802276
140	0x3df96d93	0.12179103
141	0x3db11333	0.0864624
142	0x3df74a02	0.12074663
143	0x3bdcf1c9	0.00674269
144	0xbdaf1931	-0.08549727
145	0xbd1aca97	-0.03779086
146	0x3dbaf65c	0.091290206
147	0x3c79ee03	0.0152545
148	0xbd20a444	-0.039219156
149	0xbd8ec76b	-0.0697163
150	0xbdb65e2c	-0.089046806
151	0xbda2a49f	-0.07941555
152	0xbc0c18ef	-0.0085508665
153	0x3d9925f0	0.07477939
154	0x3d9847da	0.074355796
155	0xbdbcf614	-0.09226623
156	0x3dacf25a	0.084446624
157	0xbd9306a4	-0.07179001
158	0xbc113302	-0.008862259
159	0xbcfc6ae2	-0.030812684
160	0xbbf9a1b5	-0.007618154
161	0xbc085722	-0.008321555
162	0xbdbbf34c	-0.091772646
163	0xbdb4018c	-0.087893575
164	0xbc165ed4	-0.009177882
165	0x3c1ff082	0.009761931
166	0xbd2c7713	-0.042105746
167	0x3d4d2c66	0.05009117
168	0xbdbc6bf3	-0.09200277
169	0x3a0ac460	0.00052935444
170	0x3dd88fbb	0.105742894
171	0xbd184f82	-0.0371852
172	0x3dde772e	0.108625755
173	0x3d47a1a7	0.048738148
174	0xbdbbadbb	-0.09163996
175	0x3da1b676	0.0789613
176	0xbb8e05db	-0.004334194
177	0xbd298963	-0.041390788
178	0x3dc6c17d	0.09704874
179	0xbda720b9	-0.08160538
180	0x3ca68453	0.020326769
181	0xbc70292c	-0.014658254
182	0x3db4a1ee	0.08819948
183	0x3d23efe3	0.040023696
184	0x3d7f9d36	0.062405787
185	0x3d44b7fd	0.048027027
186	0xbc95b030	-0.01827249
187	0xbc754863	-0.014970872
188	0xbdaa5fb5	-0.08319036
189	0x3d8ccbd8	0.068748176
190	0x3dc69da6	0.09698038
191	0x3dae3124	0.085054666
192	0xbd8da95a	-0.06917067
193	0x3c682853	0.01416977
194	0xbd8e189a	-0.06938286
195	0xbd578d4d	-0.05262499
196	0xbd669076	-0.056290112
197	0x3d3e1941	0.046410803
198	0xbd6ce44f	-0.05783492
199	0x3bc97bde	0.0061487993
200	0x3c5d4efa	0.013507599
201	0x3da52d97	0.08065336
202	0xbd99727c	-0.07492539
203	0xbd8a3971	-0.06749237
204	0xbd661875	-0.056175668
205	0x3db02456	0.086006805
206	0xbd01de55	-0.031706173
207	0x3dd0c81e	0.10194419
208	0x3d46e50b	0.048558276
209	0x3cb9ccf5	0.022680739
210	0x3c02b8af	0.007978602
211	0xbc56aad3	-0.013102251
212	0x3cb8a475	0.022539357
213	0xbc8d026b	-0.017213067
214	0x3bee99f5	0.0072815367
215	0x3cb65491	0.022257121
216	0xbda18d53	-0.078882836
217	0xbd4d2170	-0.050080717
218	0x3dc8da5e	0.09807275
219	0xbda73e45	-0.08166174
220	0x3a1529f2	0.0005690149
221	0x3df21917	0.11821192
222	0x3d44bf89	0.048034225
223	0x3c340722	0.010988029
224	0xbdb50e14	-0.08840576
225	0x3d812bc8	0.06307179
226	0xbd916b64	-0.07100561
227	0xbcbe6b36	-0.023244482
228	0xbcec8496	-0.028871816
229	0xbc03b421	-0.008038552
230	0x3c1a0556	0.009400686
231	0x3dcbc2c8	0.09949261
232	0x3cb1e168	0.021713927
233	0x3ddc009a	0.10742302
234	0x3d9ba905	0.07600597
235	0xbd7e7058	-0.062118858
236	0x3d6df293	0.058092665
237	0xbd8fc687	-0.07020288
238	0xbd1eb9fb	-0.038751584
239	0x3d2734a2	0.04082168
240	0x3d36770b	0.044547122
241	0x3dbae071	0.0912484
242	0xbce3e2e4	-0.02781815
243	0x3d112d45	0.035443563
244	0x3dbe2d82	0.09286024
245	0xbd928960	-0.071551085
246	0x3dea5317	0.114416294
247	0xbd75272b	-0.059851807
248	0x3d124eca	0.03571967
249	0x3c938b97	0.018010898
250	0xbc9e919b	-0.01935654
251	0x3d61a522	0.055089124
252	0x3dff34e8	0.12461263
253	0xb9588edc	-0.00020652584
254	0xbd0f2da5	-0.03495564
255	0xbc80e03d	-0.015731925

bias f4 [64]
0	0x3d723a80	0.05913782
1	0xbd1371d0	-0.035997212
2	0x3d8f2669	0.06989748
3	0x3cce4dbc	0.025183551
4	0x3d832278	0.06403059
5	0x3deea53b	0.11652609
6	0xbd8669ce	-0.065631494
7	0x3de879a6	0.113513276
8	0x3dafbd9b	0.08581086
9	0xbd9c94f3	-0.07645597
10	0x3ce1bd30	0.027556032
11	0xbdba8ac2	-0.09108497
12	0x3d3664e9	0.04452983
13	0x3cfd58b9	0.030926095
14	0xbdd85b02	-0.10564233
15	0x3d0365d1	0.03207952
16	0xbcb313a2	-0.021859948
17	0x3dddb047	0.10824638
18	0x3dd3b6ba	0.10337587
19	0x3d50ac09	0.050945316
20	0x3dcbf287	0.09958368
21	0x3d1fafcf	0.038986024
22	0x3ddfc31d	0.10925887
23	0x3a178a23	0.0005780777
24	0x3d09ec31	0.033672515
25	0xbcb722b9	-0.022355424
26	0xbb877a83	-0.0041344776
27	0xbcbed73c	-0.023295991
28	0xbd2f4496	-0.042790018
29	0x3da06588	0.078318655
30	0x3d56f3ec	0.052478716
31	0xbd0b2df2	-0.033979364
32	0xbdd24fc7	-0.102691226
33	0x3db774ab	0.089577995
34	0xbdbb6eed	-0.09152017
35	0x3be8e437	0.0071072835
36	0xbdb36e90	-0.087613225
37	0x3db2f4c0	0.087380886
38	0x3dd00894	0.10157886
39	0xbda76955	-0.08174387
40	0xbdba4b89	-0.090964384
41	0xbd713037	-0.058883872
42	0x3d164bca	0.03669337
43	0xbd737dc2	-0.059446104
44	0x3c836c79	0.016042935
45	0xbcbf2e73	-0.023337578
46	0x3cf314cf	0.029673008
47	0xbd29a705	-0.041419048
48	0x3d424e20	0.047437787
49	0xbd888793	-0.06666484
50	0x3786fb42	1.6091046e-05
51	0x3dba4ded	0.090968944
52	0xbd492380	-0.04910612
53	0x3da5ba1e	0.0809214
54	0x3d8d31b7	0.06894248
55	0xbd250de1	-0.04029644
56	0x3d3d02f9	0.046145413
57	0xbd85ec79	-0.06539244
58	0x3ca257b2	0.019817207
59	0x3cea9977	0.02863763
60	0x3dc22762	0.09480168
61	0xbca00546	-0.019533765
62	0xbd606bcc	-0.054790303
63	0xbd55ba6a	-0.05217973

weight f4 [32, 64, 1, 1]
0	0xbdf6368c	-0.12022123
1	0x3d0269d2	0.0318392
2	0xbdbad5aa	-0.091227844
3	0xbda215d9	-0.07914323
4	0xbd44aba8	-0.048015267
5	0x3cb4c9ec	0.02206894
6	0x3cf063d4	0.029344477
7	0xbda5da8e	-0.080983266
8	0xbced00cb	-0.028931042
9	0x3affa3c2	0.001950376
10	0xbd894c62	-0.06704022
11	0x3c97084e	0.018436577
12	0x3c884e40	0.016638875
13	0xbd9ea4b2	-0.07746257
14	0x3dc97702	0.09837152
15	0x3dc2ce8c	0.09512052
16	0xbcd6fd9c	-0.026243977
17	0x3c4d7996	0.012541195
18	0x3ca629c9	0.020283597
19	0xbb100ef4	-0.002198157
20	0xbd96982b	-0.073532425
21	0x3de0f634	0.109844595
22	0x3d91a7be	0.071120724
23	0xbe11180d	-0.14169331
24	0xbdcd938f	-0.1003791
25	0x3e014e4f	0.12627529
26	0x3c8fc1c0	0.017548442
27	0xbc77bbea	-0.015120486
28	0x3dc3c8b5	0.09559766
29	0x3d47cab6	0.048777305
30	0x3d444ba9	0.047923718
31	0x3e0350c5	0.1282378
32	0xbb22a40c	-0.0024817018
33	0x3dbfcc37	0.09365123
34	0xbd98a212	-0.074527875
35	0xbd7ea405	-0.06216814
36	0x3cfe8c38	0.03107272
37	0xbc0b57be	-0.008504806
38	0x3daaa439	0.08332104
39	0xbcab8bba	-0.02094065
40	0x3d4af064	0.04954566
41	0xbcfd66bb	-0.030932775
42	0x3dc9af5e	0.09847902
43	0xbc025911	-0.007955805
44	0x3d3a2046	0.045440935
45	0x3dd1e01d	0.10247824
46	0x3e06db8e	0.13169691
47	0x3e05ea94	0.13077766
48	0xbdf37cc5	-0.11889032
49	0xbd617533	-0.05504341
50	0xbc6e864f	-0.014558389
51	0xbcc90be4	-0.024541803
52	0x3db0940b	0.08621987
53	0x3d7a8f9a	0.061172105
54	0xbcb08ec9	-0.02155246
55	0x3c3e8cf8	0.011630289
56	0xbc8b8f36	-0.017036062
57	0x3df81f62	0.12115361
58	0x3d9fecc4	0.07808831
59	0xbd75ae43	-0.059980642
60	0xbdc70a22	-0.097187296
61	0x3d9547ab	0.0728906
62	0xba3458d9	-0.00068796944
63	0xbd8ed08b	-0.0697337
64	0xbe04e8d1	-0.12979437
65	0x3a9f5bda	0.0012158111
66	0xbd421947	-0.047387388
67	0xbda60699	-0.08106727
68	0x3c731db8	0.0148386285
69	0x3ddb84b1	0.10718668
70	0x3dc82956	0.09773509
71	0x3d7ac488	0.061222583
72	0xbdd93ba7	-0.10607081
73	0x3d765f89	0.060149703
74	0x3d66c27c	0.05633782
75	0x3d06abe7	0.032878783
76	0xbd353a41	-0.04424501
77	0xbc822e82	-0.015891317
78	0xbd8af209	-0.06784446
79	0xbd119995	-0.035546858
80	0xbcfc6368	-0.03080912
81	0xbcc54d5d	-0.024084741
82	0xbe070670	-0.1318605
83	0x3cf5b4f1	0.029993506
84	0xbde63d49	-0.11242158
85	0xbdd6c5ca	-0.10486944
86	0x3d2633eb	0.040576857
87	0xbde8598b	-0.11345204
88	0x3de90156	0.11377208
89	0x3de60a02	0.112323776
90	0xbd4cdc49	-0.050014768
91	0xbd0597a6	-0.032615326
92	0xbdd6c71c	-0.10487196
93	0xbbe53320	-0.00699462
94	0x3c05160e	0.008122934
95	0xbd9c3447	-0.076271586
96	0x3cf9588a	0.030437727
97	0xbc87cab0	-0.016576141
98	0xbd41ecae	-0.047344856
99	0xbc430bf3	-0.011904704
100	0xbe079375	-0.13239844
101	0xbdc609da	-0.09669848
102	0x3bbac889	0.005700175
103	0x3de1caca	0.11025007
104	0xbdc383ac	-0.09546599
105	0x3d8f423e	0.069950566
106	0x3b8f9443	0.004381688
107	0xbd5c4748	-0.053778917
108	0xbccdfda1	-0.025145354
109	0x3d4e77fd	0.0504074
110	0x3ba239bb	0.0049507297
111	0x3dcde7fa	0.10054012
112	0xbd069b68	-0.03286305
113	0xbdc4448d	-0.095833875
114	0x3dd10e21	0.10207773
115	0xbd269b91	-0.040675703
116	0x3d8b1a4c	0.06792125
117	0x3d957c5a	0.07299109
118	0x3c91e4dc	0.017809324
119	0xbde55415	-0.11197678
120	0xbe02f045	-0.12786968
121	0x3d471436	0.04860326
122	0x3c9a6e43	0.018851405
123	0x3d806066	0.062683865
124	0xbdf3d85b	-0.11906501
125	0xbd2a7c41	-0.041622404
126	0x3dc8679c	0.09785387
127	0x3d6471b0	0.055772483
128	0x3dd30e7a	0.103054956
129	0x3dedf1fb	0.1161842
130	0xbc8ca876	-0.017170172
131	0xbe068f50	-0.13140607
132	0xbd82be34	-0.063839346
133	0x3d69da48	0.057092935
134	0xbbd06af5	-0.0063604065
135	0x3c55cb8b	0.013049017
136	0x3d01c5c7	0.031682756
137	0x3dbcb108	0.092134535
138	0x3d9e8b65	0.07741431
139	0x3db6b8fb	0.08922001
140	0xbd01712c	-0.03160207
141	0x3db73b87	0.08946901
142	0xbd701eae	-0.05862301
143	0xbd2c3dbd	-0.042051066
144	0xbbe1a719	-0.0068863747
145	0xbd8cda5b	-0.068775855
146	0x3df697e4	0.120406896
147	0xbb86045f	-0.0040898765
148	0x3d47afd0	0.048751652
149	0x3c06b802	0.008222582
150	0x3c25fd65	0.010131215
151	0xbdddc565	-0.10828666
152	0xbcad21fe	-0.021134373
153	0xbdd0464b	-0.10169657
154	0xbd5c80c7	-0.05383375
155	0x3de25411	0.11051191
156	0xbdd54f11	-0.10415471
157	0x3d15cfb6	0.03657504
158	0x3cf43295	0.029809276
159	0xbdc070dc	-0.09396526
160	0x3d0f609c	0.035004243
161	0x3da79534	0.08182755
162	0x3dd80185	0.10547165
163	0x3d1b65ff	0.037939068
164	0x3de2f88d	0.110825635
165	0x3c67436f	0.0141151985
166	0x3d7baafa	0.061442353
167	0x3d50db0f	0.05099016
168	0xbda88863	-0.08229139
169	0xbd8e9a2d	-0.069630004
170	0xbd9fa7fb	-0.077957116
171	0x3dc6fa71	0.09715737
172	0x3dea2241	0.11432315
173	0xbd1fcef7	-0.039015736
174	0xbc24b58e	-0.010053052
175	0x3d3f1566	0.046651267
176	0xbdd18342	-0.102301136
177	0x3ca2aaf8	0.019856915
178	0x3d976621	0.073925264
179	0x3c8d7f3a	0.01727258
180	0x3b618be1	0.003441565
181	0x3db6eab4	0.08931485
182	0x3d271623	0.040792596
183	0xbdcbb7de	-0.09947179
184	0x3cf918cd	0.030407334
185	0xbda957ff	-0.08268737
186	0x3dabd694	0.08390537
187	0x3de3ed8d	0.111292936
188	0xbcc98302	-0.024598602
189	0x3c03c8d6	0.0080434885
190	0xbd4d9194	-0.050187662
191	0xbd2bd4cb	-0.041950982
192	0xbcd2e320	-0.025743067
193	0xbd0b5330	-0.03401488
194	0x3e0c0622	0.13674214
195	0xbdcedb02	-0.10100366
196	0x3d742dbb	0.059613924
197	0xbdcef5eb	-0.10105499
198	0x3dcc9bd2	0.09990658
199	0x3deea638	0.116527975
200	0xbda6cecb	-0.081449114
201	0xbc906a79	-0.017628895
202	0x3d102fbc	0.035201773
203	0xbde378fb	-0.111070596
204	0xbdf08a93	-0.11745181
205	0x3d7d618f	0.061860617
206	0x3df12405	0.11774448
207	0xbd009771	-0.031394426
208	0x3c1eafbd	0.009685454
209	0xbdef60f8	-0.11688417
210	0xbde9a1f7	-0.114078455
211	0x3dfd6e00	0.123744965
212	0x3dee42c8	0.11633831
213	0xbcf9ecdd	-0.030508453
214	0xbd235b50	-0.039882004
215	0xbd4d6a5b	-0.050150257
216	0x3d41cb57	0.04731306
217	0xbde7a577	-0.11310857
218	0xbd89f420	-0.06736016
219	0xbce48af9	-0.027898299
220	0xbd325b59	-0.043544147
221	0x3c4a1d65	0.01233611
222	0x3dc7b63c	0.09751555
223	0x3ba86c47	0.005139861
224	0xbdd84b8f	-0.10561287
225	0x3e102771	0.14077546
226	0x3dea3256	0.11435382
227	0x3d593f6d	0.053039003
228	0x3d922ca5	0.071374215
229	0x3d5b07ce	0.05347424
230	0x3deb36a9	0.11485035
231	0xbddc6c0c	-0.10762796
232	0xbd911797	-0.070845775
233	0xbd6fef8e	-0.058578067
234	0xbc3c17d8	-0.011480294
235	0xbdaa3947	-0.08311706
236	0xbdbd6fad	-0.09249816
237	0xbdac6ca6	-0.084191605
238	0xbc14b0aa	-0.009075323
239	0x3def0422	0.1167071
240	0x3db4410f	0.088014714
241	0x3d55e531	0.052220527
242	0xbd82fd94	-0.063960224
243	0xbd48ae52	-0.04899437
244	0x3cdb7167	0.026787473
245	0xbde1cdba	-0.11025567
246	0xbcabaa99	-0.02095537
247	0x3d0a187b	0.033714753
248	0x3d8c5495	0.0685207
249	0xbc9121e6	-0.01771636
250	0x3e0b24ea	0.135883
251	0x3c587b13	0.013212937
252	0xbdfa0fe2	-0.12210061
253	0x3e2c38a1	0.16818477
254	0x3df6ab96	0.12044446
255	0xbdb5325c	-0.08847496

bias f4 [32]
0	0x3da2deb9	0.07952637
1	0xbd6c52c8	-0.057696134
2	0x3dad9739	0.08476109
3	0x3df1320a	0.11777122
4	0x3d75a0a0	0.059967637
5	0x3db5df1e	0.08880447
6	0xbd834c3b	-0.06411024
7	0x3ddf1b3f	0.10893869
8	0xbda4712a	-0.08029397
9	0x3da06671	0.07832039
10	0x3d364552	0.044499703
11	0x3b965ad7	0.0045884657
12	0x3cd5e21d	0.026108796
13	0xbe01e969	-0.12686695
14	0x3df12c3d	0.11776016
15	0xbc8c8c13	-0.017156636
16	0x3dd8f11e	0.105928645
17	0xbba81fb9	-0.0051307348
18	0xbd121b4f	-0.035670575
19	0x3db8aa4e	0.09016858
20	0xbb0fc6b1	-0.0021938498
21	0xbd8e4371	-0.06946457
22	0x3cd66beb	0.026174506
23	0xbe06f492	-0.13179234
24	0xbd8a1ce9	-0.067437954
25	0xbd608f40	-0.054824114
26	0x3c77ce21	0.015124829
27	0xbda13a7e	-0.078724846
28	0xbbad5dea	-0.0052907364
29	0xbda8b7ad	-0.082381584
30	0xbde85efa	-0.1134624
31	0xbcb12d04	-0.02162791

weight f4 [1, 32, 5, 5]
0	0x3ba643bb	0.005073992
1	0x3cd80a71	0.026372166
2	0xbc3641ec	-0.011124115
3	0x3d0d9e19	0.0345746
4	0xbcc7a647	-0.02437128
5	0x3c57daad	0.013174695
6	0xbcfcb8ae	-0.03084978
7	0x3d06ce1f	0.032911416
8	0xbc4ae2b0	-0.012383148
9	0x3ca877a8	0.020564869
10	0x3b2fac9e	0.0026805769
11	0xbc588916	-0.013216278
12	0xbbf27265	-0.007398891
13	0xbc4806dc	-0.012208667
14	0x3cb8ff0e	0.022582557
15	0x3cdb7ff3	0.02679441
16	0x3d0de83b	0.0346453
17	0xbbf204bb	-0.007385818
18	0xbc1e68fe	-0.009668587
19	0xbc89982b	-0.016796192
20	0xbabd3784	-0.0014436101
21	0x3c1c782c	0.009550136
22	0xbaf738f4	-0.0018861578
23	0xbcb30a32	-0.021855447
24	0x3b693be9	0.0035588688
25	0xb90bd114	-0.0001333396
26	0xbce02109	-0.027359502
27	0xbc0e0526	-0.00866822
28	0xba0476fc	-0.00050531304
29	0xbd08c173	-0.033387613
30	0x3bbf4e44	0.0058381874
31	0x3c2e323d	0.010632095
32	0xbb1ae539	-0.0023635163
33	0xbb8123ae	-0.003941021
34	0x3aec0e41	0.0018009619
35	0x3c23322e	0.009960694
36	0xbc83013c	-0.0159918
37	0xbb18024e	-0.0023194733
38	0x3cae37bb	0.021266809
39	0xbc19e70c	-0.009393465
40	0x3a6f3745	0.0009125362
41	0xbd0202f3	-0.031741094
42	0xbcd46ab6	-0.02592979
43	0xbb1f1122	-0.0024271687
44	0xbc380c9b	-0.011233474
45	0x3d104466	0.03522148
46	0xbbdc001c	-0.00671388
47	0xbcea575c	-0.02860611
48	0x3cfe390f	0.031033067
49	0xbcb3e4eb	-0.021959743
50	0x3cfa10f2	0.030525658
51	0xbb16168c	-0.0022901623
52	0x3c081bed	0.008307439
53	0xbd0886d8	-0.033331722
54	0x3d08c14f	0.03338748
55	0x3a72fa9f	0.0009268913
56	0xbc861000	-0.016365051
57	0xbcc2ffa9	-0.023803549
58	0x3c00412c	0.007828038
59	0xbd0327cc	-0.032020375
60	0x3ce21b52	0.027600918
61	0x3caa6ce8	0.020803884
62	0x3d039e96	0.03213366
63	0x3d06e9b0	0.032937706
64	0xbc9f0289	-0.019410389
65	0xbc0679b4	-0.008207727
66	0x3cbce812	0.023059878
67	0x3cc5545a	0.024088074
68	0x3d139b09	0.036036525
69	0xbc588aa4	-0.013216648
70	0x3bd25052	0.0064182663
71	0x39302433	0.00016798153
72	0x3cb28239	0.02179061
73	0xbc8278bc	-0.015926711
74	0x3d08a8a5	0.033363957
75	0xbc1ad1e2	-0.009449454
76	0x3c985abe	0.018597957
77	0x3ce337e4	0.027736612
78	0xbd0c53fe	-0.03425979
79	0x3bfa0149	0.0076295477
80	0xbcbe2d4c	-0.023214959
81	0x3c94087a	0.018070448
82	0x3d006c8f	0.03135353
83	0xbc269014	-0.010166187
84	0xbcbb924c	-0.022896908
85	0xbc8ab14f	-0.01693025
86	0x3cea4b85	0.028600464
87	0xbb97dd67	-0.0046345475
88	0xbcceaa8d	-0.02522781
89	0x3cf5e180	0.030014753
90	0x3cc64286	0.024201643
91	0xbb362884	-0.0027795145
92	0x3ba8ba40	0.005149156
93	0x3bb172fc	0.0054153185
94	0x3d104e8e	0.035231166
95	0x3cb05309	0.02152397
96	0x3bf2f3b5	0.007414306
97	0x3af43380	0.0018631071
98	0x3c4c05dc	0.012452569
99	0xbccd5fda	-0.02507012
100	0x3ca5e147	0.020249022
101	0x3c82b9aa	0.015957672
102	0x3bab1860	0.0052214116
103	0x3cb143a1	0.021638693
104	0xbbbb372a	-0.005713363
105	0xbcffc9e4	-0.031224199
106	0xbce7eb95	-0.028310576
107	0x3d0d3393	0.034473013
108	0xbc2c932b	-0.010533134
109	0xbcca48e7	-0.024692966
110	0x3d1243eb	0.035709303
111	0xbcc3713c	-0.023857705
112	0x3cf4dfa3	0.029891795
113	0x3d05b29f	0.03264105
114	0xbb5b7362	-0.0033485522
115	0x3cb1ab20	0.021688044
116	0x3ce6de1b	0.02818208
117	0xbd038f1f	-0.032118913
118	0xbc91b32a	-0.017785627
119	0x3bbbc53b	0.005730299
120	0x3c478bbf	0.012179314
121	0xbcbc9565	-0.023020456
122	0xbce52a7d	-0.027974362
123	0x3d0f6b7e	0.035014622
124	0xbc7e8efc	-0.01553702
125	0xbd09200b	-0.033477824
126	0x3c87a65c	0.016558819
127	0xbc8c55cc	-0.017130755
128	0xbc395427	-0.011311567
129	0xbc3a3e85	-0.011367445
130	0x3d09e3cc	0.03366451
131	0x3c6db1f3	0.014507758
132	0x3d12537d	0.035724152
133	0xbc3b51e1	-0.011433096
134	0x3cdaac0d	0.026693368
135	0xbce26ebd	-0.027640695
136	0x3cb837e8	0.022487596
137	0x3b2782a4	0.0025560046
138	0x3b1e2e0c	0.0024136333
139	0x3cffac1f	0.031210003
140	0x3b7386ba	0.003715916
141	0xbc6562d8	-0.014000617
142	0xbc96fac1	-0.018430116
143	0x3bde5746	0.006785306
144	0xbc305e64	-0.010764692
145	0x3c9a6e9c	0.01885157
146	0xbce9b687	-0.028529419
147	0xbcba2f0f	-0.022727517
148	0x3d027983	0.031854164
149	0xbc4f5f9f	-0.012657075
150	0xbd0851f0	-0.033281267
151	0x3cd774a7	0.026300741
152	0xbc1581b4	-0.009125162
153	0xbb38aded	-0.002817984
154	0x3c9b16ce	0.018931773
155	0x3c835abf	0.016034482
156	0xbcf2ed46	-0.029654156
157	0x3c2d77c5	0.010587637
158	0x3d126adf	0.03574645
159	0xba28c4a7	-0.0006437995
160	0x3cf9f1d3	0.030510819
161	0x3d12ec25	0.035869736
162	0x3c9379e8	0.018002465
163	0xbceb6c41	-0.028738143
164	0x3d0b7b57	0.034053173
165	0x3d053c8f	0.032528456
166	0x3c7b7dd6	0.015349826
167	0x3b007008	0.0019598026
168	0xbca81d92	-0.020521913
169	0x3c396558	0.011315666
170	0xbc03e37a	-0.00804984
171	0x3d13d7d9	0.03609452
172	0xbcfb483c	-0.030674092
173	0x3c32f717	0.010923169
174	0x3b12d935	0.0022407298
175	0x3a419392	0.00073843554
176	0xbb74d69c	-0.0037359362
177	0x3c80050b	0.015627405
178	0xbcf3621a	-0.029709864
179	0x3c077fac	0.008270185
180	0xbcbb7b7b	-0.022886029
181	0x3c4347b8	0.011918955
182	0xbb186682	-0.0023254459
183	0x3ba8978e	0.00514502
184	0x3ca8cdc4	0.02060593
185	0xbc5adf87	-0.013358957
186	0xbce33bac	-0.027738415
187	0xbc8132b8	-0.015771255
188	0x3cf1d3c1	0.029519917
189	0xbce5fd0b	-0.028074762
190	0x3cbd7bda	0.023130346
191	0xbc409000	-0.011753082
192	0x3b2a393d	0.0025974058
193	0x3c78eba5	0.015192901
194	0xbc40a678	-0.011758439
195	0xbcc1dc1a	-0.023664523
196	0x3c4fbcf8	0.012679331
197	0x3cb4cf62	0.022071544
198	0x3c632172	0.013862954
199	0xba112744	-0.0005537162
200	0x3b4d9450	0.0031368919
201	0x3c6c1175	0.014408459
202	0x3c37604d	0.0111923935
203	0xbc8fa12e	-0.017532911
204	0x3ccebe8c	0.025237344
205	0xbbaca560	-0.0052687377
206	0xbc6c15bd	-0.01440948
207	0xbc31a950	-0.01084359
208	0x3b955428	0.0045571513
209	0xbc993d5c	-0.018706016
210	0xbcc11666	-0.02357025
211	0x3cb386aa	0.021914799
212	0x3cfd6507	0.030931963
213	0xbd0764a0	-0.033054948
214	0x3cf765e6	0.030199956
215	0xbc9cf437	-0.01915942
216	0x3c230899	0.00995078
217	0x3d0c2c34	0.034221843
218	0xbca8cd31	-0.020605655
219	0xbc565108	-0.013080843
220	0x3c33c64c	0.010972571
221	0xbcaea17d	-0.021317238
222	0xbc54c7a4	-0.012987051
223	0xbcec41fb	-0.028840056
224	0x3b9f4166	0.004860091
225	0x3cbd24db	0.023088863
226	0x3c2bdc16	0.010489484
227	0xbbac3c8b	-0.0052562407
228	0x3d0d7c44	0.034542337
229	0x3cea7602	0.028620724
230	0xbc953090	-0.018211633
231	0x3cae1d90	0.02125433
232	0xbbe77888	-0.007063929
233	0x3c4bdcc4	0.012442771
234	0x3b9fe495	0.004879544
235	0x3c873c81	0.016508343
236	0xbc8ac918	-0.016941592
237	0xbc82e3e8	-0.015977815
238	0xbc9c8389	-0.01910569
239	0xbcb2e1d1	-0.021836193
240	0xbc690b9e	-0.014223961
241	0x3c1bf1f0	0.009518132
242	0x3c36242c	0.0111170225
243	0x3bfde328	0.0077480264
244	0x3ce01b6e	0.02735683
245	0x3ce49819	0.027904557
246	0x3cf224d1	0.029558571
247	0x3cbcdb66	0.023053836
248	0x3a491c10	0.0007671723
249	0x3c246baa	0.010035435
250	0xbc87757a	-0.01653551
251	0x3afe3240	0.0019393638
252	0x3b866af7	0.0041021067
253	0xbce1938c	-0.027536176
254	0x3cf71a59	0.03016393
255	0xbbd513d0	-0.006502606
