SRCNN-master/model_6.pth (torch, 36296 bytes, 5 tensors)

weight f4 [64, 1, 9, 9]
0	0xbb975823	-0.004618661
1	0x3d6519ef	0.055932935
2	0xbdc2a9fe	-0.0950508
3	0xbdaeda0d	-0.08537684
4	0xbd3e7cd8	-0.04650578
5	0x3cd46010	0.025924712
6	0xbbc9ce4c	-0.0061586257
7	0x3dacd50f	0.08439075
8	0xbc5dec90	-0.01354517
9	0x3cd234f1	0.02566001
10	0xbd183f56	-0.037169777
11	0xbccf7b9f	-0.025327502
12	0xbde08aa8	-0.109639466
13	0xbd9e26f5	-0.07722274
14	0xbd4b6704	-0.04965879
15	0x3911bc10	0.00013898336
16	0x3d24a1d2	0.040193386
17	0x3d80f48c	0.062966436
18	0xbda1e58a	-0.07905109
19	0xbd54bb63	-0.05193652
20	0x3d1748fc	0.036934838
21	0x3db5f8a9	0.08885319
22	0xbcd890b0	-0.02643618
23	0x3da2748a	0.07932384
24	0xbcb34177	-0.021881802
25	0x3c034bbf	0.008013665
26	0x3dc672e2	0.09689881
27	0xbddaecf9	-0.1068973
28	0xbd96c23b	-0.07361265
29	0xbd01b996	-0.03167113
30	0xbd3fcf18	-0.04682836
31	0x3dbd266b	0.09235843
32	0xbd9b6c80	-0.07589054
33	0xbd61fd2c	-0.055173084
34	0xbda6c909	-0.08143813
35	0xbddce166	-0.10785179
36	0xbd8c03f3	-0.06836691
37	0x3dbc9659	0.09208364
38	0x3d3d437b	0.046206933
39	0x3d4ed154	0.0504926
40	0x3b1eeec9	0.0024251214
41	0xbd77dbc3	-0.060512315
42	0x3c7869bb	0.015161927
43	0xbddb6985	-0.10713486
44	0xbdab3dc4	-0.0836139
45	0xbd7aa808	-0.061195403
46	0x3d878eaf	0.066190116
47	0x3d7ab54e	0.061208062
48	0xbd5a0e75	-0.053236444
49	0xbc02ce04	-0.007983688
50	0x3d89543e	0.06705521
51	0x3dd9ff85	0.106444396
52	0x3d25528e	0.040361933
53	0x3c3a1d8d	0.0113595845
54	0x3d8ff5a3	0.07029273
55	0xbd8eb656	-0.069683716
56	0x3c8609ea	0.01636215
57	0xbdb96ddd	-0.09054158
58	0xbda6ba1e	-0.08140968
59	0xbd7d0975	-0.061776597
60	0x3d3c329f	0.045946714
61	0x3d268e54	0.04066308
62	0xbd8ed0ba	-0.06973405
63	0x3cefd283	0.029275184
64	0x3d67f93d	0.056634177
65	0xbc976811	-0.01848224
66	0xb992fb9f	-0.00028034762
67	0x3cadcd1b	0.021215966
68	0x3d83f5f4	0.06443396
69	0x3dd16d21	0.10225893
70	0xbdb7c9e5	-0.08974055
71	0xbd37350c	-0.044728324
72	0x3d2192d3	0.039446663
73	0x3db3c759	0.08778257
74	0x3dbd187a	0.09233184
75	0x3dbfbeb7	0.09362548
76	0x3c90e651	0.017687948
77	0xbdcee6c8	-0.10102612
78	0x3bc05d5a	0.0058705034
79	0xbd96a74f	-0.0735613
80	0xbddc2d3d	-0.10750816
81	0x3de6e4cb	0.112741075
82	0x3dca7779	0.09886069
83	0xbdc4b42c	-0.096046776
84	0x3d1272a2	0.035753854
85	0xbb77209e	-0.003770865
86	0xbb6ef6eb	-0.0036463093
87	0xbd154b29	-0.03644863
88	0x3d693326	0.056933545
89	0xbd542ee3	-0.051802527
90	0x3d621874	0.0551991
91	0x3d919eb2	0.07110347
92	0x3dc27a91	0.09496034
93	0x3d6a34f4	0.057179406
94	0xbdc1427f	-0.09436511
95	0xbd68c945	-0.05683257
96	0x3d903e50	0.07043135
97	0x3d1b64de	0.03793799
98	0xbd93f4fc	-0.072244614
99	0xbd487bef	-0.048946317
100	0x3df5f78c	0.120101064
101	0x3dba77cf	0.09104883
102	0xbd03051c	-0.031987295
103	0xbc3cfb5e	-0.01153454
104	0xbdb7f5d5	-0.089824356
105	0x3c5f9de7	0.013648487
106	0xbd8c0743	-0.068373226
107	0xbd90d354	-0.07071558
108	0x3c1a9c69	0.009436705
109	0x3d068268	0.03283921
110	0xbceaddaf	-0.02867016
111	0x3daa3368	0.08310586
112	0xbd4ea07f	-0.05044603
113	0x3df0c1b0	0.11755693
114	0x3dbd521b	0.09244176
115	0xbd9f5d11	-0.07781423
116	0xbc46a103	-0.012123349
117	0x3cab4db6	0.020911079
118	0x3d0601b0	0.032716453
119	0x3d32639e	0.043552034
120	0x3d7a9121	0.061173562
121	0x3cc6aa80	0.024251223
122	0xbd17b348	-0.03703621
123	0x3d8de6e7	0.06928807
124	0xbdb8fa9c	-0.09032175
125	0xbd4caa78	-0.04996726
126	0xbc48c61c	-0.012254264
127	0xbd1b99d7	-0.03798851
128	0xbcb4d769	-0.022075372
129	0xbd976245	-0.0739179
130	0xbbd3045e	-0.0064397296
131	0x3d26214c	0.040559098
132	0xbd657708	-0.05602172
133	0x3c276cd3	0.010218817
134	0x3dc2c273	0.095097445
135	0x3b7125e7	0.0036796273
136	0x3c99219f	0.01869279
137	0x3bd851a7	0.0066015306
138	0x3d1faa45	0.03898074
139	0x3db292bd	0.08719394
140	0x3df8c069	0.12146074
141	0x3db0ef5b	0.086394034
142	0x3df7ae6c	0.12093815
143	0x3be83939	0.0070868996
144	0xbdae7e4a	-0.085201815
145	0xbd1a35bb	-0.037648898
146	0x3dbab7af	0.09117066
147	0x3c766ae4	0.015040133
148	0xbd217124	-0.03941454
149	0xbd8ea96a	-0.06965907
150	0xbdb5d07f	-0.08877658
151	0xbda1a744	-0.078932315
152	0xbc0240fa	-0.007950062
153	0x3d9a0418	0.07520312
154	0x3d98f02e	0.07467686
155	0xbdbcb7cd	-0.09214745
156	0x3dad1574	0.084513575
157	0xbd92d442	-0.07169391
158	0xbc0bcab9	-0.00853222
159	0xbcf849aa	-0.030308563
160	0xbbe37c1d	-0.0069422857
161	0xbbf7c299	-0.0075610396
162	0xbdbba581	-0.09162427
163	0xbdb3beae	-0.08776604
164	0xbc150b91	-0.009096996
165	0x3c20cc50	0.009814337
166	0xbd2c4b5b	-0.042064052
167	0x3d4d8180	0.05017233
168	0xbdbc1889	-0.09184367
169	0x3a2d5c03	0.0006613137
170	0x3dd8cbe2	0.105857626
171	0xbd17ea87	-0.037088897
172	0x3dde96eb	0.10868629
173	0x3d47a04c	0.048736855
174	0xbdbbc13c	-0.09167716
175	0x3da1a04a	0.07891901
176	0xbb8d965e	-0.0043209037
177	0xbd29172c	-0.041281864
178	0x3dc6f2ae	0.09714256
179	0xbda6f68f	-0.08152496
180	0x3ca6ca89	0.020360248
181	0xbc70752c	-0.014676373
182	0x3db46f2b	0.08810266
183	0x3d235a10	0.039880812
184	0x3d7f0766	0.062262915
185	0x3d44729d	0.047960866
186	0xbc953d98	-0.018217847
187	0xbc746437	-0.014916471
188	0xbdaa4950	-0.083147645
189	0x3d8cc334	0.068731695
190	0x3dc6769b	0.09690591
191	0x3daddb6d	0.08489118
192	0xbd8e1dd5	-0.06939284
193	0x3c6472b5	0.013943364
194	0xbd8e5f77	-0.06951802
195	0xbd578287	-0.052614715
196	0xbd66767a	-0.05626533
197	0x3d3e2620	0.046423078
198	0xbd6cbf95	-0.057799894
199	0x3bc8f322	0.0061324993
200	0x3c5b9763	0.013402793
201	0x3da4d254	0.080479294
202	0xbd99d6b1	-0.07511652
203	0xbd8a6d42	-0.067591205
204	0xbd65d7d3	-0.05611403
205	0x3db05150	0.08609259
206	0xbd019401	-0.03163529
207	0x3dd0ea9c	0.10200998
208	0x3d4700aa	0.048584618
209	0x3cb95ef5	0.022628287
210	0x3c00c14e	0.007858587
211	0xbc590139	-0.01324492
212	0x3cb82d14	0.022482432
213	0xbc8c3181	-0.017113449
214	0x3bf2896b	0.0074016354
215	0x3cb725ec	0.02235695
216	0xbda150bd	-0.07876728
217	0xbd4cc88b	-0.04999594
218	0x3dc8e51f	0.098093264
219	0xbda74d82	-0.0816908
220	0x3a0a9b27	0.0005287402
221	0x3df22e65	0.11825255
222	0x3d457b41	0.048213247
223	0x3c370338	0.011170201
224	0xbdb4bd8a	-0.08825214
225	0x3d815947	0.063158564
226	0xbd914a96	-0.07094304
227	0xbcbe4ef6	-0.02323101
228	0xbceca3c3	-0.028886681
229	0xbc03e7df	-0.008050888
230	0x3c1b02f6	0.009461155
231	0x3dcc1dcb	0.0996662
232	0x3cb32a8b	0.021870872
233	0x3ddc4113	0.107545994
234	0x3d9bd03d	0.07608078
235	0xbd7e34cd	-0.062062073
236	0x3d6e0663	0.05811156
237	0xbd8fc51a	-0.07020016
238	0xbd1eb0dc	-0.038742885
239	0x3d277d45	0.04089095
240	0x3d372080	0.04470873
241	0x3dbb2604	0.0913811
242	0xbce312a9	-0.027718859
243	0x3cf68cf3	0.030096507
244	0x3db26852	0.08711304
245	0xbd9e88e8	-0.077409565
246	0x3ddfa231	0.109196074
247	0xbd82c41e	-0.06385063
248	0x3cfa10d8	0.03052561
249	0x3c3e3a37	0.011610559
250	0xbcda83ea	-0.02667423
251	0x3d422ba7	0.04740491
252	0x3df5f373	0.12009325
253	0xbb9f3155	-0.0048581758
254	0xbd20593a	-0.039147593
255	0xbc9246eb	-0.017856082

bias f4 [64]
0	0x3d71266f	0.058874544
1	0xbd18cc6f	-0.037304338
2	0x3d8f53c6	0.069984004
3	0x3cea89d5	0.028630177
4	0x3d8358c3	0.06413414
5	0x3deebba5	0.11656884
6	0xbd9f0723	-0.07765033
7	0x3de8903e	0.11355637
8	0x3dae5570	0.0851239
9	0xbd9d55db	-0.07682391
10	0x3ce1241f	0.027483044
11	0xbdbbf175	-0.09176914
12	0x3d4065a8	0.046971947
13	0x3cf7be68	0.03024216
14	0xbdd83cce	-0.105584726
15	0x3d003e26	0.03130927
16	0xbcb666b7	-0.022265775
17	0x3ddcfc3a	0.10790296
18	0x3dd2f814	0.103012234
19	0x3d4f9cbc	0.050686583
20	0x3dcba423	0.09943416
21	0x3d1d0a6d	0.03834002
22	0x3de02c2d	0.10945926
23	0x3b847638	0.004042413
24	0x3cf481fb	0.029847136
25	0xbcb4da1b	-0.022076657
26	0xbb89f8ba	-0.0042105587
27	0xbcc06b51	-0.023488672
28	0xbd2f9d78	-0.042874783
29	0x3d9f857e	0.077891335
30	0x3d5a568d	0.053305198
31	0xbd385b89	-0.04500917
32	0xbdd54354	-0.104132324
33	0x3d9af977	0.07567113
34	0xbdbbc57f	-0.09168529
35	0x3bd89120	0.006609097
36	0xbdb41ef4	-0.08794966
37	0x3db29e9f	0.08721661
38	0x3dcf4157	0.101198845
39	0xbda7fe63	-0.08202817
40	0xbdc1a3b4	-0.09455052
41	0xbd763e4e	-0.060118012
42	0x3d060005	0.032714862
43	0xbd70aadb	-0.05875669
44	0x39a57b0e	0.00031562935
45	0xbcbef026	-0.023307871
46	0x3cf19621	0.029490532
47	0xbd2c2045	-0.042022962
48	0x3d4190dc	0.04725729
49	0xbd89b1b7	-0.067233495
50	0xba1b426b	-0.0005922678
51	0x3db8ba65	0.09019927
52	0xbd4a944f	-0.049457844
53	0x3da541c4	0.080691844
54	0x3d836671	0.064160235
55	0xbd23ebef	-0.040019926
56	0x3d67b14e	0.056565575
57	0xbd87705c	-0.06613228
58	0x3ca060f4	0.01957748
59	0x3ce89851	0.028392943
60	0x3ddb6bfc	0.10713956
61	0xbd04dc24	-0.032436505
62	0xbd628326	-0.055300854
63	0xbd5a15e3	-0.05324353

weight f4 [32, 64, 1, 1]
0	0xbdf3dc15	-0.11907212
1	0x3d00d5d8	0.031453937
2	0xbdba8c9f	-0.091088526
3	0xbd90fe65	-0.07079772
4	0xbd446391	-0.047946516
5	0x3cb19a27	0.02167995
6	0x3d1f91d0	0.038957417
7	0xbda5a98b	-0.080889784
8	0xbcecb42a	-0.028894503
9	0x3b082225	0.0020772305
10	0xbd8985f8	-0.06715006
11	0x3cb85382	0.022500757
12	0x3cb4c9db	0.022068908
13	0xbd9d0c94	-0.07668415
14	0x3dc96a67	0.09834748
15	0x3dc2b467	0.09507065
16	0xbcd7cb77	-0.026342137
17	0x3c7be2c1	0.015373887
18	0x3ca5e473	0.020250535
19	0xbb1ad9ba	-0.002362831
20	0xbd966622	-0.07343699
21	0x3de0ad2f	0.10970532
22	0x3d91e165	0.07123069
23	0xbe044164	-0.1291557
24	0xbdcaa926	-0.09895544
25	0x3e01523e	0.12629029
26	0x3c9cdf88	0.019149557
27	0xbc7b539a	-0.015339756
28	0x3dc401e4	0.09570673
29	0x3d4a39e7	0.049371626
30	0x3d4982cb	0.049197
31	0x3de936ba	0.113873914
32	0xbb3670ed	-0.0027838305
33	0x3dc28b80	0.09499264
34	0xbd9878b6	-0.07444899
35	0xbd7f33bc	-0.062305197
36	0x3d000d0a	0.031262435
37	0xbc0bb078	-0.00852596
38	0x3daaa17a	0.083315805
39	0xbcac3b41	-0.021024348
40	0x3d341c41	0.043972258
41	0xbcd47eb0	-0.025939316
42	0x3dcacd34	0.09902421
43	0xbc022e0b	-0.007945548
44	0x3cf7fbe9	0.030271487
45	0x3dd1c72d	0.10243068
46	0x3e06f8b2	0.13180807
47	0x3e05c6df	0.13064145
48	0xbdf43455	-0.11924044
49	0xbd62cfa7	-0.055373814
50	0xbc7015dc	-0.014653649
51	0xbcc0d844	-0.023540623
52	0x3db12820	0.08650231
53	0x3d7a3609	0.06108669
54	0xbc8e7b10	-0.017392665
55	0x3c3d9976	0.0115722325
56	0xbb674277	-0.003528742
57	0x3df84277	0.12122052
58	0x3da04617	0.078258686
59	0xbd762341	-0.060092214
60	0xbdb20217	-0.08691805
61	0x3d86fff8	0.06591791
62	0xba556d78	-0.0008141617
63	0xbd8f21e7	-0.06988888
64	0xbe04e528	-0.12978041
65	0x3a9fe832	0.0012199937
66	0xbd421806	-0.04738619
67	0xbda6066a	-0.08106692
68	0x3c731db8	0.0148386285
69	0x3ddb8637	0.10718959
70	0x3dc82956	0.09773509
71	0x3d7ac54c	0.061223313
72	0xbdd93ace	-0.10606919
73	0x3d76605f	0.0601505
74	0x3d66c4d9	0.056340072
75	0x3d06abe7	0.032878783
76	0xbd33fcd7	-0.0439423
77	0xbc822c62	-0.015890304
78	0xbd8af209	-0.06784446
79	0xbd119995	-0.035546858
80	0xbcfc614c	-0.030808114
81	0xbcc54d5d	-0.024084741
82	0xbe070670	-0.1318605
83	0x3cf5b8af	0.02999529
84	0xbde63cdb	-0.11242076
85	0xbdd6c42e	-0.10486637
86	0x3d263506	0.04057791
87	0xbde78162	-0.11303975
88	0x3de909bf	0.11378812
89	0x3de60a02	0.112323776
90	0xbd4cdc49	-0.050014768
91	0xbd05959d	-0.032613385
92	0xbdd6c71c	-0.10487196
93	0xbbe52d1b	-0.0069939024
94	0x3c051d9d	0.008124736
95	0xbd9bf213	-0.07614531
96	0x3cf96473	0.030443406
97	0xbc871d2b	-0.0164934
98	0xbd41ebfe	-0.0473442
99	0xbc430435	-0.0119028585
100	0xbe079328	-0.1323973
101	0xbdc609da	-0.09669848
102	0x3bbad0a8	0.0057011433
103	0x3de1cb75	0.110251345
104	0xbdc35db1	-0.095393546
105	0x3d978552	0.07398476
106	0x3b8f9443	0.004381688
107	0xbd5c4748	-0.053778917
108	0xbc3cd089	-0.011524328
109	0x3d4e789f	0.050408002
110	0x3ba23dfb	0.0049512363
111	0x3dcde8a8	0.10054141
112	0xbd069b68	-0.03286305
113	0xbdc4435f	-0.095831625
114	0x3dd10eff	0.102079384
115	0xbd269b91	-0.040675703
116	0x3d8b1ac8	0.067922175
117	0x3d957e88	0.072995245
118	0x3c930f5f	0.017951665
119	0xbde553d7	-0.11197632
120	0xbe02eb93	-0.12785177
121	0x3d471436	0.04860326
122	0x3c9a70ea	0.01885267
123	0x3d806138	0.06268543
124	0xbde8c986	-0.113665625
125	0xbd293920	-0.041314244
126	0x3dc86846	0.097855136
127	0x3d647367	0.05577412
128	0x3dd588fb	0.104265176
129	0x3dec736c	0.115454525
130	0xbc8cebb5	-0.017202238
131	0xbdf9eb7d	-0.12203119
132	0xbd82d481	-0.06388188
133	0x3d694640	0.05695176
134	0xbcb0371a	-0.02151065
135	0x3c532ac7	0.012888617
136	0x3d009eb9	0.03140137
137	0x3dbcd3a3	0.09220054
138	0x3d9d5fc0	0.076842785
139	0x3db05209	0.08609397
140	0xbcad1de6	-0.02113242
141	0x3db47398	0.0881111
142	0xbd700340	-0.05859685
143	0xbd2c621b	-0.04208575
144	0xbbe04909	-0.006844644
145	0xbd8c68da	-0.06855936
146	0x3df4a0b1	0.11944712
147	0xbb8ba596	-0.0042616827
148	0x3d47e863	0.048805606
149	0x3bef1b9f	0.007296994
150	0x3c264df8	0.010150425
151	0xbdc45c5f	-0.09587931
152	0xbc788db6	-0.015170505
153	0xbdd0a574	-0.10187808
154	0xbd5eb119	-0.054368112
155	0x3de21f6b	0.11041149
156	0xbdd53e12	-0.104122296
157	0x3d146333	0.036227416
158	0x3cf45e40	0.029830098
159	0xbdd34d30	-0.10317457
160	0x3d07c5c8	0.033147603
161	0x3d903200	0.07040787
162	0x3dd7c15c	0.10534927
163	0x3d1aecbb	0.03782342
164	0x3de29a16	0.11064546
165	0x3c63f8a1	0.013914258
166	0x3d7aacbc	0.06119989
167	0x3d510b4f	0.051036175
168	0xbdab21b8	-0.08356041
169	0xbd41294b	-0.04715852
170	0xbda21386	-0.0791388
171	0x3dc70d83	0.09719374
172	0x3dc64182	0.096804634
173	0xbd21366b	-0.039358538
174	0xbc258c4b	-0.010104249
175	0x3d3ede6d	0.04659884
176	0xbdd31a3f	-0.103077404
177	0x3c9ed87e	0.01939034
178	0x3d96f721	0.07371355
179	0x3c939b4e	0.018018391
180	0x3b6339d8	0.0034671929
181	0x3db4ab19	0.08821697
182	0x3d324d24	0.0435306
183	0xbdcbcd09	-0.09951217
184	0x3d2c21e1	0.042024497
185	0xbdaa68e3	-0.08320787
186	0x3dac20ad	0.0840467
187	0x3de29740	0.11064005
188	0xbc1be89a	-0.009515906
189	0xbb0d0f7c	-0.0021524122
190	0xbd4eb055	-0.050461132
191	0xbd2cd2d6	-0.042193256
192	0xbcc3dffe	-0.023910519
193	0xbd0e347c	-0.03471802
194	0x3e0bfa1e	0.13669631
195	0xbdbabfa7	-0.09118586
196	0x3d7430a3	0.059616696
197	0xbdcf6fa5	-0.101287164
198	0x3daefc68	0.085442364
199	0x3dee772c	0.11643824
200	0xbda71f8e	-0.081603155
201	0xbc903a46	-0.017605912
202	0x3d0f67b3	0.035011005
203	0xbde53a19	-0.11192722
204	0xbdda97ee	-0.106735095
205	0x3d789770	0.060691297
206	0x3df11f34	0.1177353
207	0xbd00a95b	-0.03141151
208	0x3c1ea480	0.009682775
209	0xbdeecdcf	-0.116603486
210	0xbdea4bcb	-0.114402376
211	0x3dfd1800	0.12358093
212	0x3dee6430	0.11640203
213	0xbcfdff05	-0.031005392
214	0xbd2338ce	-0.039849095
215	0xbd193bbb	-0.03741048
216	0x3d5aca4f	0.053415593
217	0xbde7d018	-0.113189876
218	0xbd895b41	-0.067068584
219	0xbce5d69d	-0.028056437
220	0xbd3226c7	-0.043494012
221	0x3c47d13b	0.0121958805
222	0x3dc8176e	0.09770094
223	0x3c62efe9	0.013851144
224	0xbdd9d2ec	-0.10635933
225	0x3e04725b	0.12934248
226	0x3dea06c8	0.11427075
227	0x3d58dade	0.052943103
228	0x3d921d40	0.07134485
229	0x3d5a8de8	0.05335799
230	0x3dead7a9	0.11466915
231	0xbddc6660	-0.10761714
232	0xbd906d03	-0.07052042
233	0xbd14f448	-0.036365777
234	0xbc6b0be3	-0.014346096
235	0xbdaa0b9b	-0.08302995
236	0xbddf37c8	-0.10899311
237	0xbdace6e4	-0.084424764
238	0xbc14cb24	-0.009081636
239	0x3deef61b	0.11668035
240	0x3db3364d	0.087505914
241	0x3d53d698	0.051718324
242	0xbd835546	-0.06412749
243	0xbd44e947	-0.048074033
244	0x3cdc4ff4	0.026893593
245	0xbde2a484	-0.11066535
246	0xbc8f1909	-0.017467992
247	0x3d0a094a	0.033700265
248	0x3da55486	0.08072762
249	0xbc94f6a3	-0.018184012
250	0x3e0b4b2d	0.13602896
251	0x3c55ccfe	0.013049362
252	0xbddc23b0	-0.10748994
253	0x3e2192dd	0.1577868
254	0x3df62e06	0.12020497
255	0xbdb59205	-0.08865742

bias f4 [32]
0	0x3da2d14f	0.07950079
1	0xbd6c51e1	-0.057695273
2	0x3dad47ea	0.08460982
3	0x3df10212	0.11767973
4	0x3d750cda	0.05982671
5	0x3db52bae	0.08846222
6	0xbd93b5b4	-0.072123915
7	0x3ddf02af	0.10889184
8	0xbda62686	-0.081128165
9	0x3da05ebc	0.07830569
10	0x3d335074	0.043777898
11	0x3b92d602	0.004481078
12	0x3cd64b5e	0.026158985
13	0xbe01dbbd	-0.1268148
14	0x3defb7a5	0.11704949
15	0xbc4e15ed	-0.01257847
16	0x3dd8ea71	0.10591591
17	0xbba30ce7	-0.0049759033
18	0xbd1b0a98	-0.0378519
19	0x3db872bc	0.09006259
20	0xba73e15c	-0.00093032955
21	0xbd8ecfaf	-0.06973206
22	0x3cd5fb6e	0.026120868
23	0xbe06ebb3	-0.1317585
24	0xbd8ab7ec	-0.067733616
25	0xbd8575e3	-0.06516626
26	0x3c7506c2	0.0149552245
27	0xbd9fe097	-0.07806509
28	0xbbad7890	-0.005293913
29	0xbda9ab92	-0.082846776
30	0xbde85efa	-0.1134624
31	0xbcb13ebc	-0.02163636

weight f4 [1, 32, 5, 5]
0	0x3ba64d2b	0.005075117
1	0x3cd7f4f1	0.026361914
2	0xbc36aea6	-0.011150038
3	0x3d0d8c8f	0.034557875
4	0xbcc7aba6	-0.02437384
5	0x3c57b18f	0.013164892
6	0xbcfce5b4	-0.03087125
7	0x3d06a850	0.03287536
8	0xbc4b4d77	-0.012408606
9	0x3ca86261	0.020554723
10	0x3b2dfb30	0.0026547424
11	0xbc5927ef	-0.01325415
12	0xbbf42190	-0.00745029
13	0xbc48ad4b	-0.0122483475
14	0x3cb8cda9	0.022559004
15	0x3cdb55a4	0.026774235
16	0x3d0dc67a	0.03461311
17	0xbbf37afa	-0.0074304314
18	0xbc1eedcf	-0.009700253
19	0xbc89b702	-0.016810898
20	0xbabf8863	-0.001461279
21	0x3c1bfe7d	0.009521124
22	0xbafc86c0	-0.0019266233
23	0xbcb3434a	-0.021882672
24	0x3b6888d2	0.0035481942
25	0xb90bee4b	-0.00013344844
26	0xbce02114	-0.027359523
27	0xbc0e0545	-0.008668249
28	0xba0477ea	-0.0005053269
29	0xbd08c173	-0.033387613
30	0x3bbf4d33	0.0058380603
31	0x3c2e31f6	0.010632029
32	0xbb1ae612	-0.0023635668
33	0xbb8123ef	-0.003941051
34	0x3aec0cac	0.0018009148
35	0x3c233149	0.009960481
36	0xbc8301a0	-0.015991986
37	0xbb180488	-0.002319606
38	0x3cae3780	0.021266699
39	0xbc19e7a0	-0.009393603
40	0x3a6f23c4	0.0009122456
41	0xbd020337	-0.031741347
42	0xbcd46b2b	-0.025930008
43	0xbb1f14bf	-0.002427384
44	0xbc380d83	-0.01123369
45	0x3d104466	0.03522148
46	0xbbdc001c	-0.00671388
47	0xbcea575c	-0.02860611
48	0x3cfe390f	0.031033067
49	0xbcb3e4eb	-0.021959743
50	0x3cfa1caf	0.030531256
51	0xbb16b9b5	-0.0022998874
52	0x3c07836f	0.008271082
53	0xbd089e25	-0.033353943
54	0x3d08be20	0.033384442
55	0x3a6e1390	0.00090818945
56	0xbc8659d4	-0.016400255
57	0xbcc37faf	-0.023864595
58	0x3bff0745	0.007782849
59	0xbd034130	-0.03204459
60	0x3ce1bfb1	0.027557226
61	0x3ca9ef68	0.02074404
62	0x3d034591	0.032048766
63	0x3d06a1fc	0.032869324
64	0xbc9f64f6	-0.019457322
65	0xbc070af3	-0.008242357
66	0x3cbc805b	0.023010423
67	0x3cc4b8ae	0.024013843
68	0x3d135edb	0.035979133
69	0xbc5920bb	-0.013252432
70	0x3bd19463	0.006395863
71	0x390b6d06	0.00013296687
72	0x3cb205ff	0.021731375
73	0xbc82d14a	-0.015968937
74	0x3d0892f2	0.033343263
75	0xbc1ac874	-0.009447206
76	0x3c985065	0.018593023
77	0x3ce31a92	0.02772263
78	0xbd0c5e7c	-0.034269795
79	0x3bf9d33b	0.0076240576
80	0xbcbe30a5	-0.023216555
81	0x3c93f3d5	0.018060604
82	0x3d005728	0.03133312
83	0xbc26d854	-0.010183413
84	0xbcbbac37	-0.022909267
85	0xbc8abf00	-0.016936779
86	0x3cea2aa2	0.028584782
87	0xbb98c47c	-0.0046620946
88	0xbccede8f	-0.025252609
89	0x3cf5b972	0.029995654
90	0x3cc64204	0.0242014
91	0xbb36d17b	-0.0027895856
92	0x3ba7fc8d	0.005126542
93	0x3bb0ce78	0.0053957067
94	0x3d10414c	0.035218522
95	0x3cb05486	0.021524679
96	0x3bf2a6ab	0.0074051223
97	0x3af1681c	0.0018417868
98	0x3c4bbd19	0.012435221
99	0xbccd72dd	-0.025079185
100	0x3ca5e4dc	0.02025073
101	0x3c82aa57	0.015950365
102	0x3baa8f7d	0.0052050934
103	0x3cb12dc3	0.021628266
104	0xbbbb5744	-0.00571719
105	0xbcffcf5a	-0.031226803
106	0xbce8045e	-0.028322395
107	0x3d0d1dec	0.034452364
108	0xbc2cd065	-0.010547732
109	0xbcca5a64	-0.024701305
110	0x3d123864	0.03569831
111	0xbcc39a38	-0.023877248
112	0x3cf4a4f4	0.029863812
113	0x3d059b57	0.032618847
114	0xbb5c90f1	-0.0033655728
115	0x3cb19db9	0.021681653
116	0x3ce6c0c9	0.028168099
117	0xbd03a66b	-0.03214113
118	0xbc91d736	-0.017802816
119	0x3bbb5706	0.005717161
120	0x3c47782e	0.012174649
121	0xbcbcacc6	-0.023031604
122	0xbce552bc	-0.027993552
123	0x3d0f5c08	0.034999877
124	0xbc7ebf17	-0.015548489
125	0xbd092be4	-0.033489123
126	0x3c8783e8	0.01654239
127	0xbc8c8444	-0.017152913
128	0xbc3986ed	-0.011323673
129	0xbc3a7368	-0.011380054
130	0x3d09d00c	0.033645675
131	0x3c6d4264	0.014481161
132	0x3d122f33	0.035689544
133	0xbc3bbd2d	-0.011458677
134	0x3cda76d5	0.026667992
135	0xbce2a5c6	-0.027666938
136	0x3cb7ec80	0.02245164
137	0x3b247fd6	0.002510061
138	0x3b1bb31e	0.0023757885
139	0x3cff5e75	0.03117297
140	0x3b72f5e5	0.0037072834
141	0xbc65b1d9	-0.014019453
142	0xbc9739a4	-0.018460102
143	0x3bdd9934	0.006762648
144	0xbc30bc0b	-0.01078702
145	0x3c9a795a	0.018856693
146	0xbce9bd92	-0.028532777
147	0xbcba4c69	-0.022741513
148	0x3d027204	0.031847015
149	0xbc4f8221	-0.0126653025
150	0xbd08c9b2	-0.033395477
151	0x3cd76929	0.026295261
152	0xbc154616	-0.009110948
153	0xbb0c371f	-0.002139516
154	0x3ca0c3b3	0.019624567
155	0x3c7681ed	0.015045625
156	0xbcfbc7e7	-0.03073497
157	0x3c197f1e	0.009368686
158	0x3d0f8190	0.03503567
159	0xbaa44a84	-0.0012534414
160	0x3cf0e64b	0.029406687
161	0x3d0e1f24	0.034697667
162	0x3c8924c5	0.016741166
163	0xbcf62900	-0.030048847
164	0x3d066c5f	0.032818194
165	0x3d0166af	0.031592067
166	0x3c6aa0fb	0.014320607
167	0x3a5892b1	0.0008261605
168	0xbcb11b5f	-0.021619497
169	0x3c298082	0.01034558
170	0xbc0e9392	-0.008702176
171	0x3d10aaa4	0.035318986
172	0xbd015f97	-0.031585302
173	0x3c281e62	0.01026115
174	0x3ae6acc3	0.0017599094
175	0x3a427397	0.0007417737
176	0xbb750c0a	-0.003739121
177	0x3c7fead1	0.015619949
178	0xbcf36eb0	-0.029715866
179	0x3c074b50	0.008257702
180	0xbcbb764f	-0.022883562
181	0x3c4336af	0.011914893
182	0xbb18f080	-0.0023336709
183	0x3ba865e0	0.0051390976
184	0x3ca8b59c	0.02059441
185	0xbc5b0c26	-0.013369596
186	0xbce36104	-0.027756222
187	0xbc816068	-0.01579304
188	0x3cf1aec1	0.029502274
189	0xbce627bb	-0.028095117
190	0x3cbd59d0	0.023114115
191	0xbc40f869	-0.011777976
192	0x3b2858c5	0.0025687676
193	0x3c788f72	0.015170919
194	0xbc40fe30	-0.011779353
195	0xbcc1f7f7	-0.02367781
196	0x3c4f5ca0	0.012656361
197	0x3cb499c0	0.02204597
198	0x3c62dc94	0.013846535
199	0xba14885d	-0.00056660717
200	0x3b802fab	0.0039119325
201	0x3c76982f	0.015050932
202	0x3c3c39c1	0.011488379
203	0xbc8d9450	-0.017282635
204	0x3cd18490	0.025575906
205	0xbb95345d	-0.0045533613
206	0xbc610955	-0.013735135
207	0xbc2b3030	-0.0104485005
208	0x3ba1938b	0.0049309186
209	0xbc953f5d	-0.01821869
210	0xbcccc2db	-0.024995258
211	0x3ca80be0	0.020513475
212	0x3cf27e14	0.029601134
213	0xbd0cd642	-0.03438402
214	0x3cec443a	0.028841127
215	0xbca4a844	-0.020099767
216	0x3c13f6be	0.009030996
217	0x3d08ab59	0.033366535
218	0xbcafc540	-0.02145636
219	0xbc6457ca	-0.013936946
220	0x3c2fb922	0.010725291
221	0xbcb0b627	-0.021571232
222	0xbc58cc34	-0.01323228
223	0xbcee5d72	-0.029097293
224	0x3b9763df	0.00462006
225	0x3cbd2a2a	0.023091394
226	0x3c2be50a	0.010491619
227	0xbbac54d0	-0.005259134
228	0x3d0d7c73	0.034542512
229	0x3cea7685	0.028620968
230	0xbc952d71	-0.018210145
231	0x3cae1ea0	0.021254838
232	0xbbe7a4c0	-0.0070692003
233	0x3c4bd115	0.012439986
234	0x3b9fccb4	0.0048766974
235	0x3c87387a	0.016506422
236	0xbc8ad069	-0.01694508
237	0xbc82f8fd	-0.015987867
238	0xbc9c947b	-0.01911377
239	0xbcb2f2f2	-0.021844361
240	0xbc68fff4	-0.01422118
241	0x3c1bf534	0.00951891
242	0x3c3609a5	0.011110698
243	0x3bfdbd1a	0.00774349
244	0x3ce01229	0.02735241
245	0x3ce49f7a	0.027908076
246	0x3cf227a6	0.029559921
247	0x3cbccf35	0.023048023
248	0x3a481d59	0.00076337677
249	0x3c245dfc	0.010032173
250	0xbc87517b	-0.016518345
251	0x3afb82e4	0.0019188789
252	0x3b847a0f	0.004042871
253	0xbce1f2e0	-0.027581632
254	0x3cf72777	0.030170185
255	0xbbd50657	-0.006501
