SRCNN-master/model_3.pth (torch, 36296 bytes, 5 tensors)

weight f4 [64, 1, 9, 9]
00000000: 7d3f 8fbb d2e6 653d 1657 c2bd 0788 aebd
00000010: bca6 3dbd d496 d63c 163e c0bb 1821 ad3d
00000020: fd57 5cbc 2f06 d43c 29a5 17bd ffc2 cebc
00000030: e65d e0bd 97d2 9dbd 864d 4abd 26d7 ed39
00000040: 9a58 253d e134 813d 3f79 a1bd 9144 54bd
00000050: 416d 173d e804 b63d 21a9 d7bc 9bf5 a23d
00000060: 82a4 b0bc 1c80 063c 3ec0 c63d a56f dabd
00000070: a573 96bd f06c 01bd c495 3fbd 8468 bd3d
00000080: bfe6 9abd e799 60bd 114e a6bd 5877 dcbd
00000090: 2ec9 8cbd 58bd bb3d ce70 3b3d 12f6 4c3d
000000a0: a06f 033b a247 79bd 2279 733c 9951 dcbd
000000b0: 524b acbd a032 7bbd ec50 873d 4252 7a3d
000000c0: 085f 5abd 6aec 03bc 3536 893d dadd d93d
000000d0: d063 243d 8703 353c 5c05 903d ae8b 8ebd
000000e0: a739 873c 280b b9bd bd54 a6bd ec54 7cbd
000000f0: 07ba 3c3d 6456 263d 191e 8fbd e848 f03c
00000100: f373 683d ccd8 95bc 886a 1cb8 92e0 af3c
00000110: 416e 843d 84ca d13d 5ace b7bd a3a0 37bd
00000120: 6682 213d 84d9 b33d e64a bd3d b009 c03d
00000130: 1a31 923c 899a cebd b9cd c33b 61cd 96bd
00000140: 247f dcbd d5df e93d 55db cc3d 1f06 c3bd
00000150: 804b 153d d54c 48bb bc1e 2dbb 1e48 10bd
00000160: 1a0c 6f3d 88e1 4dbd ef81 663d 3a13 933d
00000170: a60f c33d 82b1 6a3d b7f1 c0bd 10c5 66bd
00000180: a2d0 913d a394 1f3d d28b 91bd 380d 46bd
00000190: e043 f63d e3b5 b93d 4572 05bd 4e18 46bc
000001a0: 1b50 b8bd 046c 623c d805 8bbd 3365 8fbd
000001b0: bcb9 1c3c fefc 043d 31a5 f2bc f4af a73d
000001c0: e097 53bd 9219 ef3d df7a bc3d 486e 9fbd
000001d0: 1f0f 43bc 4eee a93c 4339 033d 132b 2d3d
000001e0: 481a 743d c5a4 b93c b098 1cbd ef4f 8c3d
000001f0: d3bb b9bd 6a10 4dbd f6fb 46bc 8325 1dbd
00000200: 9894 bcbc c2e9 99bd ad58 fcbb f27a 223d
00000210: 8077 67bd 8cff 253c f61f c33d 18c6 883b
00000220: ddaf 993c 4422 ca3b 9ae2 1c3d 2e1f b13d
00000230: 19fa f73d 23df b03d dd58 f83d 6375 fa3b
00000240: 22ab acbd 3302 18bd eef4 ba3d 3534 753c
00000250: 11da 21bd c344 8ebd 7bd7 b4bd a913 a0bd
00000260: 5b42 e5bb 5970 9c3d 94c5 9a3d ba99 bbbd
00000270: 5ae8 ad3d 850b 92bd c131 01bc bb1a f1bc
00000280: 9ee7 bebb 30a6 cebb 1142 bbbd 6f7d b3bd
00000290: 376e 14bc a565 203c a374 2cbd c4a1 4d3d
000002a0: 57c9 bbbd 0282 523a e218 d93d 309e 17bd
000002b0: 458f de3d 5521 473d fc24 bcbd 9b39 a13d
000002c0: f10b 91bb 7cf0 28bd 910a c73d 0fd7 a6bd
000002d0: 6129 a63c 9c7e 73bc a7cc b33d f5c5 213d
000002e0: 6179 7d3d ea5e 433d 83fd 95bc c574 75bc
000002f0: 2162 aabd 407a 8c3d 44f1 c53d 0411 ad3d
00000300: 4113 8fbd 59e7 5c3c 5409 8fbd be04 58bd
00000310: cbcd 66bd c5dc 3d3d e7ff 6cbd e08f c33b
00000320: d0d5 563c c10a a43d efa0 9abd 66ee 8abd
00000330: c0f5 65bd e45b b03d 8179 01bd daf6 d03d
00000340: 2cc2 463d 5cf7 b73c 1fe3 f83b e297 5dbc
00000350: 58f3 b63c 85a8 8bbc 4318 f63b a0fe b73c
00000360: 0010 a1bd 008e 4cbd 58d0 c83d 3b8b a7bd
00000370: 6357 d139 7b2a f23d 2640 463d 0179 3a3c
00000380: b357 b4bd 949e 813d 2d23 91bd e657 bebc
00000390: 6727 edbc 07f2 04bc dac6 1b3c dd8c cc3d
000003a0: 2ee5 b43c 94a2 dc3d 8314 9c3d bdde 7dbd
000003b0: 4c16 6e3d 16d5 8fbd 5cce 1ebd 58c2 273d
000003c0: def5 373d 2c87 bb3d ccc5 e1bc f0a3 233c
000003d0: 0bad 893d 77b5 c6bd f5a8 ba3d 5abf a5bd
000003e0: 73d5 4a3c b101 05bc 39f5 42bd f328 d33c
000003f0: f9ee cf3d af94 b9bc f178 64bd b1df fabc
-0.004371582 0.05612833 -0.094892666 -0.08522039 -0.04630159 0.026194967 -0.005866776 0.08453578
-0.013448712 0.025881855 -0.037022743 -0.025239466 -0.1095541 -0.077061825 -0.04939034 0.0004536446
0.0403677 0.06308914 -0.07884454 -0.051823203 0.036969427 0.088876545 -0.026325764 0.07957002
-0.021562818 0.008209255 0.09704636 -0.10665826 -0.07346276 -0.03159803 -0.046773687 0.092484504
-0.075635426 -0.054834273 -0.08120359 -0.107649505 -0.068743095 0.09166974 0.045761876 0.05003936
0.0020055547 -0.06085933 0.014860423 -0.10757751 -0.08412804 -0.061327577 0.066072315 0.061113603
-0.053313285 -0.008051971 0.06699792 0.10638018 0.04013425 0.011048204 0.07032272 -0.069602355
0.016506983 -0.09035331 -0.08121631 -0.061604425 0.046075847 0.040609732 -0.069881625 0.02933164
0.056751203 -0.018291853 -3.7292513e-05 0.021469388 0.06466342 0.10243705 -0.08974905 -0.04483093
0.039431 0.08781722 0.09242801 0.09376848 0.01784568 -0.10088069 0.005975452 -0.07363392
-0.10766438 0.11419646 0.10002772 -0.09522652 0.036448956 -0.0030563374 -0.0026416024 -0.035225026
0.05836115 -0.05026391 0.056276258 0.071814016 0.09524469 0.05729819 -0.094211034 -0.056340277
0.07119872 0.03896011 -0.07106747 -0.04835245 0.12024665 0.09067895 -0.03257968 -0.012090756
-0.08999654 0.013819698 -0.06788224 -0.07001724 0.009565767 0.032467835 -0.029619785 0.08187857
-0.05165851 0.11674799 0.09203123 -0.07784706 -0.011905461 0.020743515 0.03203703 0.042277407
0.059595376 0.022661576 -0.03823155 0.068511836 -0.09069028 -0.05006448 -0.012145033 -0.038365852
-0.023020074 -0.07515289 -0.0077010007 0.03966803 -0.05651045 0.010131728 0.095275804 0.0041740052
0.018760616 0.0061686356 0.03830204 0.08648525 0.12108249 0.0863631 0.12126324 0.007643388
-0.084310785 -0.037111472 0.09128748 0.01496606 -0.039514605 -0.06946709 -0.08830162 -0.0781625
-0.0069964356 0.07638616 0.07557216 -0.091601804 0.08491583 -0.071311034 -0.007885397 -0.029431691
-0.0058259508 -0.006306432 -0.091434605 -0.08764159 -0.00905948 0.009789859 -0.04210342 0.0502031
-0.09169262 0.0008030237 0.10600449 -0.037016094 0.1086717 0.048615772 -0.09186742 0.078723155
-0.0044264724 -0.04124497 0.09718812 -0.08146488 0.020283403 -0.014861729 0.08779269 0.039495427
0.061883334 0.04769794 -0.01830936 -0.014981453 -0.08319498 0.06859255 0.096651584 0.08450511
-0.06986094 0.013482892 -0.06984201 -0.052738898 -0.056348603 0.04635312 -0.057861235 0.005968079
0.0131125 0.08009864 -0.07550227 -0.06783752 -0.05614257 0.08611277 -0.031610016 0.10203333
0.04852502 0.022456817 0.0075954343 -0.013524981 0.022332832 -0.01704813 0.0075102164 0.022460282
-0.0786438 -0.04994011 0.098053634 -0.08180853 0.00039928695 0.11824509 0.04840102 0.011381389
-0.0880579 0.063290745 -0.070867874 -0.023235273 -0.028949453 -0.008114344 0.009507859 0.09987805
0.022081938 0.10773197 0.076211 -0.061979998 0.058126733 -0.07023065 -0.03877102 0.040956825
0.04491221 0.09156641 -0.027560137 0.009987816 0.067224585 -0.097025804 0.09114257 -0.08093138
0.012379992 -0.008118079 -0.047597144 0.025776362 0.10153002 -0.022653906 -0.0557794 -0.030624242

bias f4 [64]
00000000: 4537 6f3d af02 17bd ca31 903d 60d6 853c
00000010: ee70 823d 0ac9 f23d f7e2 b3bd fc11 ea3d
00000020: 05c5 ad3d b2d3 9cbd 76f4 df3c 93aa bcbd
00000030: 459c 143d 6793 033d 9a7e d8bd 79ed f83c
00000040: 4ccb b4bc 5c13 db3d ff0a d23d 2cff 503d
00000050: ec86 cc3d 4d90 1b3d a8d7 df3d 4abe 41bc
00000060: 5df9 cc3c 2628 b0bc bfcb 8dbb b635 bbbc
00000070: 7a3c 30bd d33c a13d a8bf 663d eed2 57bd
00000080: bc2f d6bd 02d5 6c3d 1c28 bbbd 062d e73b
00000090: cbe1 b3bd 8e19 b23d 57d5 cf3d fd78 a7bd
000000a0: ab88 c7bd 4a95 8dbd 57bd df3c f805 68bd
000000b0: 624c dabc 059d bbbc e3db f23c d4b0 2bbd
000000c0: dfb6 3d3d f521 89bd a45c 27b8 6222 b63d
000000d0: 7961 49bd c699 a43d 3953 673d 8689 24bd
000000e0: fcdf 303d e0ba 86bd 4b1e a43c 2fe5 e23c
000000f0: eaad b73d a9c1 60bd 19fb 61bd ca4d 5abd
0.05840232 -0.036867794 0.070407465 0.016337574 0.06369196 0.118547514 -0.087835245 0.114292115
0.08484844 -0.07657565 0.027338248 -0.09212222 0.036281843 0.032122996 -0.10571022 0.030386673
-0.022069596 0.10697052 0.102560036 0.0510246 0.09986672 0.037979413 0.10929805 -0.011825154
0.02502125 -0.02150352 -0.004327267 -0.02285276 -0.043026425 0.078729294 0.05633512 -0.052691393
-0.10458323 0.057820328 -0.0913851 0.0070549278 -0.08783301 0.086962804 0.10148113 -0.081773736
-0.09742864 -0.0691324 0.027311964 -0.056646317 -0.02664775 -0.022902021 0.029645866 -0.041916683
0.046316978 -0.0669593 -3.990218e-05 0.08893277 -0.049165223 0.080371425 0.05647585 -0.040170215
0.04318236 -0.06578612 0.020033976 0.027697174 0.08968718 -0.05487219 -0.055171106 -0.05329684

weight f4 [32, 64, 1, 1]
00000000: 1e2c f0bd 045c 073d e86a b9bd e89f 39bd
00000010: cd7d 43bd 42dd b53c 789f 2e3d 9c9e a4bd
00000020: 78ba e9bc aecb 163b 9294 89bd dffb fa3c
00000030: 2dbb 2d3d ca66 94bd 1553 c93d d28d c23d
00000040: 8092 d7bc 178c b03c a4e2 a63c 332a 0bbb
00000050: 1582 95bd 4b93 e03d 30e1 923d 80e0 d2bd
00000060: 207f c2bd 5c5c 013e ea81 ae3c f122 7dbc
00000070: f02d c43d 7f1d 533d 48d1 563d a630 d93d
00000080: dc44 72bb bdea e03d e84c 98bd b969 7fbd
00000090: 78b0 013d f795 08bc 2992 ab3d 3438 aebc
000000a0: 6b5b 043d 784d babc ab55 cb3d ee5b 02bc
000000b0: 1cec 093c b1b2 d13d 286c 073e d39e 053e
000000c0: cc8b f3bd 5999 64bd d36b 69bc cd37 b2bc
000000d0: 6c7c b23d 46c0 793d 5570 14bc 39f3 3d3c
000000e0: 6985 bb3c 802f f83d 1355 a13d 4ec5 74bd
000000f0: 7fca 8ebd 72d1 413d af76 8aba 8f71 8fbd
00000100: 0acb 04be 4185 073b ab12 41bd 146e 95bd
00000110: 85df 733c 1384 dc3d 402c c83d d082 7b3d
00000120: 665f d8bd a566 773d 1273 673d cb20 093d
00000130: a14d 09bd 2e6c 79bc 09f2 8abd 3b96 11bd
00000140: 0bd8 fabc b53d c5bc 35fc 06be 7e6b f93c
00000150: 1ce1 e5bd 86e5 d5bd 320c 273d 45b2 d8bd
00000160: a0dd e93d 4214 e63d a221 49bd 9653 04bd
00000170: fa9c d6bd 3b78 d5bb 96d6 123c beef 9bbd
00000180: 99d6 fe3c a48c c7bb c927 41bd 84cc 3dbc
00000190: 4f42 07be 40e9 c5bd 06d5 c13b 9242 e23d
000001a0: befe b6bd bf5e 983d f255 903b 4847 5cbd
000001b0: 009c 0f39 34f4 4e3d 396a a73b 125f ce3d
000001c0: 87a7 05bd 2174 c3bd 09b7 d13d 1e9a 26bd
000001d0: e5a6 8b3d 4dfd 953d 3cd9 943c c511 e5bd
000001e0: fdd2 02be dcc2 473d b0f9 9c3c 500c 813d
000001f0: f00b e8bd c088 eabc 9de8 c83d e37d 653d
00000200: fa5e db3d 192d ec3d 7b5d 8abc 14fd c5bd
00000210: d699 82bd 61e1 6b3d 62fd 1cbd 0b6b 553c
00000220: 0ccb 003d 7b09 bd3d 5855 9c3d 7657 a73d
00000230: 925f 0b3b 79f6 b23d 4bcc 6fbd f779 2cbd
00000240: 43a9 d7bb 3f78 89bd f095 f23d 4e5c 83bb
00000250: 817b 493d 2a1b ce3b bf23 2d3c 16a3 89bd
00000260: c8b6 06bc 3d53 d1bd d3fb 61bd a554 e23d
00000270: 2b49 d5bd 596d 153d f9e7 fe3c 59cd e4bd
00000280: 5900 003d 0b6c 4f3d d129 d73d c618 1b3d
00000290: 7f3e e23d fb13 663c e9c0 7a3d 9b32 513d
000002a0: 7623 a6bd b542 fbbc f8b1 a4bd 0168 c73d
000002b0: 6360 8e3d 166a 23bd 7a11 23bc 2d10 3f3d
000002c0: 9944 d4bd ba93 983c 3c32 973d 9867 a13c
000002d0: 6009 643b e69b b13d 477a 5c3d b4c2 cbbd
000002e0: 855a 8b3d 43d1 acbd ad6f ad3d b113 e23d
000002f0: ac90 0a3c 58d3 dcbc b97c 50bd 4431 2ebd
00000300: ee30 a6bc d024 0ebd 4b3e 0c3e dc2d 86bd
00000310: 5489 743d 486a cebd 4642 933d 91b7 ee3d
00000320: 310a a7bd c300 90bc 56a9 0e3d f2d1 e7bd
00000330: a395 a9bd 7f36 763d e619 f13d efba 00bd
00000340: 6417 213c 3069 ecbd 4afb eabd 9495 fd3d
00000350: d303 ef3d 7d65 01bd a0eb 21bd ac69 0abc
00000360: da0c 733d 9918 e8bd 73c3 88bd 8ce5 e5bc
00000370: 0521 32bd 3357 503c 6f8c ca3d 3373 013d
00000380: 27d6 dbbd 26b6 dd3d 4789 e93d ed0b 593d
00000390: 171b 923d 8396 5a3d aee4 ea3d 786f dcbd
000003a0: cf75 87bd 5454 a3bc f133 88bc 6eb0 a9bd
000003b0: 1b6e ffbd 34b1 adbd 7575 12bc 080a ef3d
000003c0: 4b57 b23d c761 503d 0d15 83bd daeb 3dbd
000003d0: 2c09 dd3c e1ce e3bd 0888 d9bb 671e 0a3d
000003e0: 5ae9 da3d ced9 9dbc 71eb 0b3e 9ff6 553c
000003f0: 065a b8bd 174a 083e 7164 f53d 2816 b6bd
-0.11727165 0.033046737 -0.09053594 -0.045318514 -0.047727395 0.02220023 0.04263255 -0.08038065
-0.028531298 0.0023009586 -0.06717791 0.03063768 0.042414833 -0.07246168 0.098303 0.09499706
-0.026314974 0.021551175 0.020371743 -0.002123487 -0.07300202 0.10965594 0.07171857 -0.10296726
-0.094969034 0.12632889 0.021302182 -0.015450225 0.095790744 0.0515418 0.05244568 0.10604982
-0.0036967313 0.10982273 -0.07436544 -0.062356684 0.031662434 -0.008336536 0.08377487 -0.021267034
0.032313745 -0.022742018 0.09928449 -0.007956488 0.008418109 0.10239161 0.13224852 0.13048868
-0.118918985 -0.055810306 -0.014246899 -0.021755124 0.08715138 0.060974382 -0.009059985 0.011593633
0.022890763 0.12118435 0.07877555 -0.059758477 -0.06972217 0.047318883 -0.0010563935 -0.070040815
-0.12968078 0.002067879 -0.047136944 -0.07296386 0.014884834 0.10767379 0.09774065 0.06140405
-0.10565071 0.060400624 0.056506224 0.03347854 -0.0335213 -0.015223546 -0.06784446 -0.03554366
-0.030620595 -0.024077276 -0.13182147 0.030446764 -0.11224577 -0.10444169 0.040783115 -0.10580877
0.11419225 0.112343326 -0.04910434 -0.032306276 -0.1047916 -0.0065145767 0.008962294 -0.076140866
0.031108188 -0.0060897637 -0.047157083 -0.011584405 -0.13208888 -0.096636295 0.005915287 0.110478535
-0.08935307 0.074399464 0.0044047767 -0.053778917 0.00013695657 0.05052586 0.0051090983 0.10076727
-0.03263047 -0.09543634 0.10239989 -0.04067432 0.06818942 0.07323704 0.018169992 -0.1118503
-0.12775798 0.048769817 0.019162029 0.063011765 -0.11330402 -0.02862966 0.098099925 0.056028258
0.10711475 0.11532039 -0.016890278 -0.096674114 -0.06376998 0.057587985 -0.038327582 0.013026009
0.03144364 0.09230324 0.076334655 0.08170979 0.002126668 0.08738417 -0.05854444 -0.042108502
-0.006581457 -0.06712388 0.118450046 -0.0040088063 0.049190048 0.0062898593 0.010567605 -0.06720559
-0.008222289 -0.102209546 -0.0551718 0.11051301 -0.10414346 0.036481235 0.031116473 -0.111719795
0.03125033 0.050640147 0.10506023 0.037865423 0.110470764 0.01404285 0.06121913 0.05107365
-0.081122324 -0.030671457 -0.08041757 0.09736634 0.06951978 -0.039896093 -0.009952897 0.046646286
-0.103646465 0.018625129 0.07382628 0.019702718 0.0034795627 0.086723134 0.05382755 -0.09949246
0.068043746 -0.08438351 0.08468566 0.11038912 0.008457344 -0.026956245 -0.050900195 -0.042527452
-0.020287003 -0.034703076 0.13695638 -0.06551716 0.05970128 -0.10078865 0.07190375 0.11656106
-0.08156241 -0.017578488 0.03482946 -0.11319341 -0.08280494 0.060110565 0.11772518 -0.031428274
0.009832237 -0.115435004 -0.11473711 0.123820454 0.11670651 -0.031590927 -0.03953135 -0.008448046
0.059338428 -0.11332817 -0.06677904 -0.028063558 -0.04348852 0.012716102 0.09890067 0.031604003
-0.10734206 0.10825758 0.11403137 0.05298989 0.07134073 0.053366195 0.114693984 -0.107634485
-0.06614267 -0.019937672 -0.01662633 -0.082856044 -0.12472173 -0.084810644 -0.008939137 0.11671835
0.08708056 0.050874498 -0.064004995 -0.046367504 0.026981913 -0.111234434 -0.0066385306 0.0337204
0.106890395 -0.019268896 0.13664033 0.013059287 -0.090015456 0.13309513 0.11982048 -0.08890945

bias f4 [32]
00000000: a8ad a33d cca3 6bbd 5130 ae3d cf92 f13d
00000010: 0771 763d dac5 b53d dcf4 a9bd 0ec1 de3d
00000020: e6e0 a3bd 4a18 a13d ecc5 383d addd 893b
00000030: d3c4 d33c d1c5 01be 45c9 ed3d cf9b 22bc
00000040: 9c93 d83d 8cbb adbb f92b 13bd d746 ba3d
00000050: b9af 373b d5a4 8ebd cbeb da3c 029b 06be
00000060: 139a 8abd 56ea b1bd efd2 783c 0514 a4bd
00000070: d55c b3bb 6327 a9bd 575e e8bd 286b b4bc
0.07992107 -0.057529256 0.085053094 0.1179558 0.060166385 0.08875628 -0.08298656 0.10876666
-0.0800188 0.07865961 0.045110628 0.004207334 0.025850689 -0.12673117 0.11610655 -0.009924843
0.10575029 -0.0053018983 -0.035930607 0.09095543 0.0028028323 -0.06965033 0.026723763 -0.13145068
-0.067676686 -0.08687274 0.015187009 -0.08011631 -0.005473713 -0.082594655 -0.11346119 -0.022023752

weight f4 [1, 32, 5, 5]
00000000: 49a1 a73b bf37 d83c 7764 36bc 62ad 0d3d
00000010: 064a c7bc e025 583c eabd fcbc f7ae 063d
00000020: 37f1 4abc 36b4 a83c 575a 2e3b 6437 59bc
00000030: a3a1 f4bb 48a6 48bc 75f7 b83c 6961 db3c
00000040: 11c2 0d3d 8bf7 f3bb a4df 1ebc e786 89bc
00000050: 6f54 bfba 7fdb 1b3c 6bf0 feba 2a43 b3bc
00000060: 7fd2 693b f9ae 15b9 3e34 e0bc 2c47 0ebc
00000070: 7650 08ba 9bd3 08bd e9e1 be3b 63fe 2d3c
00000080: 071d 1cbb 58b7 81bb 1565 e93a 38c2 223c
00000090: 8236 83bc fcff 19bb 78f9 ad3c 3a6e 1abc
000000a0: aa37 663a 3225 02bd cab8 d4bc 5a78 21bb
000000b0: 66b0 38bc 2642 103d 7d12 dcbb 8e6c eabc
000000c0: 8627 fe3c 53fc b3bc 1508 fb3c aa98 10bb
000000d0: 557f 083c f752 08bd 8616 093d bf82 813a
000000e0: b9da 85bc 0444 c3bc 5f34 003c 1406 03bd
000000f0: 5e20 e23c ab28 aa3c 6141 033d eaac 063d
00000100: 7330 9fbc 6e1c 06bc 54d2 bc3c 27c9 c43c
00000110: a376 133d c882 58bc 3af7 d33b 9ac1 4639
00000120: c63b b23c 567b 82bc 7cce 083d 842e 1abc
00000130: dd87 983c 3937 e33c 0e4d 0cbd 8e7e fa3b
00000140: 48ee bdbc 3c1e 943c fd5c 003d 26b9 26bc
00000150: 0094 bbbc 3a87 8abc 7148 ea3c 31d4 98bb
00000160: bfdf cebc 93c2 f53c 858d c63c 1350 35bb
00000170: 6b30 a83b 7a0f b13b f44f 103d 87a5 b03c
00000180: 9b7c f33b d79c f23a 05ef 4b3c bc49 cdbc
00000190: e04f a63c b3fa 823c b05b ab3b a369 b13c
000001a0: bf3d babb 4570 ffbc 94c0 e7bc 1f31 0d3d
000001b0: 5372 2cbc ea21 cabc e15b 123d 8e6d c3bc
000001c0: 57b4 f43c d1a6 053d d9a0 5bbb 7bef b13c
000001d0: fdf9 e63c 8398 03bd 8bb5 91bc 07f0 bb3b
000001e0: 3a26 483c 0c6c bcbc ce2e e5bc 6f70 0f3d
000001f0: 0167 7ebc 19f9 08bd 28d2 873c 9a51 8cbc
00000200: 33f7 38bc 7af5 39bc 55f8 093d f1a9 6d3c
00000210: 5138 123d 1576 3bbc 9691 da3c c66b e2bc
00000220: fb06 b83c 0223 243b 50c3 1b3b 3157 ff3c
00000230: b913 763b 9227 65bc a61c 97bc b737 de3b
00000240: 0285 30bc 35fc 9a3c ca53 e9bc 1509 babc
00000250: 2a98 023d f209 4fbc fed6 09bd 1804 d93c
00000260: f015 0abc 61ac 1eba 77dc ac3c 2c2f 5b3c
00000270: a080 04bd 4332 013c 7fe3 0f3d d02e 9fba
00000280: 868e e03c d5de 053d a352 713c 4c82 01bd
00000290: 675a 003d e9e4 f23c a121 4a3c 6f73 9aba
000002a0: 777d bebc 3abd 103c e5a7 2cbc 1af5 083d
000002b0: 7d35 09bd a43d 0f3c ae78 ab39 148c 4e3a
000002c0: 7f60 72bb fe46 803c 0508 f3bc 1106 083c
000002d0: c623 bbbc efc2 433c 5de0 16bb d4c9 a93b
000002e0: 0908 a93c 12c0 5abc 6c49 e3bc 694d 81bc
000002f0: 7adb f13c 92fb e5bc d677 bd3c 12e1 40bc
00000300: 978a 283b d6d7 783c cfa6 40bc fac1 c1bc
00000310: 639e 4f3c d3b5 b43c ba58 633c c82a 0bba
00000320: ab00 873b 8f96 783c c5a9 3c3c 4e8f 8dbc
00000330: ab43 d23c fe83 8fbb 99ef 5ebc 2c72 2abc
00000340: 464d a23b 084d 94bc 9b96 cfbc 1e3e a53c
00000350: 8aea ef3c 8526 0ebd 53df e93c 8195 a6bc
00000360: 0d17 103c 05c4 073d 27a1 b1bc 5980 67bc
00000370: 2fe2 2d3c feaf b1bc 96bc 5abc 786e efbc
00000380: 1a17 943b f670 bd3c 2a62 2c3c aca3 abbb
00000390: ad96 0d3d 47ae ea3c 09f1 94bc b750 ae3c
000003a0: f42e e7bb d218 4c3c fa67 a03b e366 873c
000003b0: 17ae 8abc b7ed 82bc 7a84 9cbc 44e0 b2bc
000003c0: 9988 68bc d951 1c3c e534 363c 1423 fe3b
000003d0: 7e2e e03c cfe0 e43c 475b f23c dce9 bc3c
000003e0: e2f5 4b3a b7a2 243c 030a 86bc 69b5 053b
000003f0: f66b 873b 48f3 e0bc 17ce f83c e01e d1bb
0.0051156622 0.02639377 -0.011132351 0.03458918 -0.02432729 0.013192624 -0.030852277 0.032881703
-0.012386612 0.020593744 0.002660414 -0.013257835 -0.0074655577 -0.012246676 0.022578934 0.026779847
0.034608904 -0.007445281 -0.009696875 -0.01678796 -0.0014597307 0.009512781 -0.0019450312 -0.021882612
0.0035678444 -0.0001427493 -0.027368661 -0.008683961 -0.0005199978 -0.033404928 0.0058252704 0.010619733
-0.0023821013 -0.003958624 0.0017806614 0.009934001 -0.016017202 -0.0023498526 0.02123712 -0.009425694
0.00087820983 -0.031773753 -0.02596702 -0.0024638386 -0.011272525 0.035219334 -0.006716071 -0.028616216
0.031024706 -0.021970904 0.030643502 -0.002206365 0.00833114 -0.033282246 0.033468746 0.0009880884
-0.016339647 -0.023836143 0.007824986 -0.03198822 0.027603325 0.020771345 0.032044772 0.032879747
-0.019432282 -0.008185489 0.023049511 0.024021698 0.036001813 -0.013214774 0.0064686807 0.00018954874
0.021757018 -0.015927952 0.033400044 -0.009410504 0.018619472 0.027736293 -0.034253173 0.007644481
-0.02318491 0.018080823 0.03133868 -0.010175979 -0.02289772 -0.016910184 0.028598996 -0.004663967
-0.025253175 0.030000007 0.024237404 -0.0027666136 0.005132725 0.0054034563 0.0352325 0.021563305
0.0074306256 0.0018509877 0.012447123 -0.025059573 0.02030176 0.015988683 0.005229436 0.021656817
-0.0056836302 -0.031181464 -0.02829007 0.034470674 -0.010525304 -0.024674375 0.035732154 -0.02385595
0.029871149 0.03262979 -0.003351262 0.021720638 0.028195376 -0.03212787 -0.017786762 0.0057354006
0.012216145 -0.02300074 -0.02797642 0.035019334 -0.015527488 -0.033440683 0.016579702 -0.017128754
-0.011289406 -0.01135003 0.033684094 0.014505849 0.03569824 -0.011441727 0.026680749 -0.027639281
0.022464266 0.002504528 0.0023767538 0.031169506 0.0037548377 -0.013986485 -0.018446278 0.006781544
-0.010773899 0.01891909 -0.028482337 -0.022709409 0.031883396 -0.0126366485 -0.0336523 0.02649121
-0.008428082 -0.0006052908 0.02110122 0.013377946 -0.03234923 0.0078855185 0.035129067 -0.0012144689
0.02741171 0.032683212 0.014729175 -0.0316184 0.031336214 0.029650168 0.012337119 -0.001178367
-0.023253186 0.008834178 -0.010538076 0.033436872 -0.033498276 0.008742724 0.00032705575 0.00078791496
-0.0036983786 0.015658852 -0.02966691 0.008302228 -0.022844207 0.011948331 -0.0023021915 0.0051815305
0.020633714 -0.013351457 -0.027744971 -0.015783982 0.0295236 -0.02807406 0.023128431 -0.011772411
0.0025717372 0.015188178 -0.01175852 -0.023652066 0.01267204 0.022059357 0.0138761345 -0.0005308804
0.0041199527 0.015172615 0.011515086 -0.017280247 0.025667032 -0.0043797484 -0.013606929 -0.010403197
0.0049530594 -0.018103138 -0.025340369 0.020171221 0.029286642 -0.034704704 0.028548872 -0.02033496
0.008794558 0.033145923 -0.021683289 -0.014129722 0.010613008 -0.021690365 -0.013350626 -0.02922748
0.0045193555 0.023125153 0.010521451 -0.005238017 0.034567524 0.028647555 -0.01818134 0.021278722
-0.007055158 0.0124570895 0.0048952075 0.016528552 -0.016928716 -0.015982492 -0.019106138 -0.021835454
-0.014192724 0.009540998 0.0111210095 0.0077556465 0.02736592 0.027939228 0.02958454 0.023060732
0.0007780475 0.01004856 -0.016362196 0.0020402318 0.004132743 -0.027459756 0.030371709 -0.0063818544
