SRCNN-master/model_4.pth (torch, 36296 bytes, 5 tensors)

weight f4 [64, 1, 9, 9]
000000 e0 0f 90 bb 02 db 65 3d 3f 59 c2 bd fa 8c ae bd
       -0.0043964237 0.056117065 -0.094896786 -0.08522983
000010 15 c6 3d bd 11 27 d6 3c 15 47 c2 bb e8 1a ad 3d
       -0.046331484 0.026141675 -0.005928884 0.084523976
000020 ae 3c 5c bc 38 e5 d3 3c 72 a0 17 bd 06 9f ce bc
       -0.013442202 0.025866136 -0.037018247 -0.025222313
000030 70 58 e0 bd 24 dd 9d bd f2 88 4a bd 0b 8e c7 39
       -0.10954368 -0.07708195 -0.049447007 0.00038062068
000040 5a 3f 25 3d 8c 32 81 3d 31 80 a1 bd 0d 38 54 bd
       0.04034362 0.06308469 -0.07885779 -0.051811267
000050 53 8c 17 3d 77 11 b6 3d 4b c1 d7 bc cc d7 a2 3d
       0.036999058 0.0889005 -0.026337286 0.07951316
000060 8b 4c b1 bc 9d ee 05 3c 6c b8 c6 3d ae 7c da bd
       -0.021642944 0.008174566 0.097031444 -0.10668312
000070 73 74 96 bd 52 5d 01 bd 04 8b 3f bd 0f 5d bd 3d
       -0.0734643 -0.031583138 -0.046763435 0.09246265
000080 03 09 9b bd 10 f9 60 bd 01 68 a6 bd 8e 88 dc bd
       -0.07570078 -0.054925025 -0.08125306 -0.10768233
000090 b9 8e 8c bd f2 fb bb 3d 79 f1 3b 3d 59 6f 4d 3d
       -0.0686316 0.09178914 0.045884583 0.050155018
0000a0 94 ae 09 3b 17 ff 78 bd 68 63 74 3c a7 19 dc bd
       0.0021008598 -0.060790148 0.014916278 -0.1074708
0000b0 71 05 ac bd f4 06 7b bd ba 62 87 3d e5 68 7a 3d
       -0.08399475 -0.061285928 0.066106275 0.06113519
0000c0 a2 56 5a bd 28 fd 03 bc 03 30 89 3d 9e d8 d9 3d
       -0.053305276 -0.008055963 0.06698611 0.106370196
0000d0 fb 94 24 3d 9b 45 36 3c de 03 90 3d db 96 8e bd
       0.04018114 0.011124994 0.070319876 -0.06962367
0000e0 a2 db 86 3c fd 2c b9 bd 6d 7b a6 bd d5 9f 7c bd
       0.016462151 -0.09041784 -0.0812901 -0.061675865
0000f0 ba 7b 3c 3d 99 58 26 3d 20 0c 8f bd d5 3a f0 3c
       0.046016432 0.040611837 -0.069847345 0.029324928
000100 27 57 68 3d 60 48 96 bc d9 28 ea b8 f7 30 af 3c
       0.05672374 -0.018345058 -0.00011165598 0.021385653
000110 62 44 84 3d 09 a8 d1 3d 72 d0 b7 bd 0c 84 37 bd
       0.064583555 0.10237128 -0.08975305 -0.044803664
000120 0b 96 21 3d 5b da b3 3d 71 40 bd 3d 87 f5 bf 3d
       0.039449733 0.087818824 0.09240807 0.093730025
000130 4a cc 91 3c 39 b3 ce bd b2 9b c2 3b e5 c1 96 bd
       0.017797608 -0.10092778 0.0059389705 -0.07361201
000140 54 65 dc bd 50 8c e8 3d 18 bd cb 3d 05 ea c3 bd
       -0.10761514 0.113548875 0.09948176 -0.0956612
000150 4e b0 13 3d f6 43 62 bb 04 4f 4c bb b7 81 12 bd
       0.03605681 -0.003452537 -0.0031175027 -0.035768237
000160 a9 93 6c 3d 4b 7f 50 bd a6 5b 64 3d 6d 41 92 3d
       0.057758007 -0.050902646 0.055751465 0.07141385
000170 1f 84 c2 3d e5 d2 69 3d a9 65 c1 bd e2 0e 68 bd
       0.09497856 0.05708589 -0.09443218 -0.05665482
000180 31 00 91 3d 12 a6 1d 3d 4d 9c 92 bd 8f 9d 47 bd
       0.07080115 0.038488455 -0.07158718 -0.048734244
000190 1f c9 f5 3d 64 8e b9 3d d4 78 05 bd 2e 5b 46 bc
       0.120012514 0.09060362 -0.032585934 -0.0121067
0001a0 19 90 b8 bd 45 c3 5e 3c d1 aa 8b bd c1 2a 90 bd
       -0.090118594 0.013596361 -0.0681969 -0.07039405
0001b0 4f 96 18 3c 69 9d 04 3d 12 f4 f1 bc 27 08 a8 3d
       0.00931318 0.03237668 -0.029535327 0.0820468
0001c0 cc eb 52 bd 43 35 ef 3d 1f 5a bc 3d 96 c6 9f bd
       -0.051494405 0.11680081 0.09196877 -0.07801549
0001d0 f3 03 47 bc cf 89 a8 3c 2c 32 03 3d 51 e0 2d 3d
       -0.012146938 0.020573525 0.03203027 0.042450253
0001e0 ff 2e 75 3d 0d d6 bb 3c 38 f1 1b bd e5 64 8c 3d
       0.059859272 0.022929216 -0.03807184 0.068551816
0001f0 03 e2 b9 bd e4 ad 4d bd 93 2e 4b bc 37 90 1d bd
       -0.090763114 -0.050214663 -0.012401241 -0.038467612
000200 60 03 bc bc 55 97 99 bd 6a e2 f6 bb 7c c1 22 3d
       -0.022950828 -0.074995674 -0.007534315 0.039735302
000210 45 a8 67 bd ae 6f 23 3c e1 a6 c2 3d 36 39 79 3b
       -0.05655696 0.009975357 0.09504486 0.0038028485
000220 71 c3 97 3c 3e 6c c7 3b 65 dc 1c 3d ad 22 b1 3d
       0.01852581 0.0060859015 0.038296122 0.08649192
000230 56 d0 f7 3d 5d 82 b0 3d 7a c9 f7 3d 5e 61 ef 3b
       0.12100284 0.08618615 0.120989755 0.0073053082
000240 08 aa ad bd e3 86 19 bd bd 76 ba 3d b4 49 72 3c
       -0.084796965 -0.037482154 0.09104679 0.01478808
000250 de 86 22 bd f3 c1 8e bd f3 7d b5 bd c1 e3 a0 bd
       -0.0396794 -0.06970587 -0.088619135 -0.078559406
000260 85 f3 f3 bb 0b 43 9b 3d 25 cb 99 3d 37 5a bc bd
       -0.0074448013 0.07581147 0.0750945 -0.091968946
000270 28 42 ad 3d 4f ab 92 bd fa 41 07 bc 5b a8 f4 bc
       0.08459884 -0.07161581 -0.008255476 -0.029865434
000280 34 38 cf bb 19 3f e0 bb d2 81 bb bd 17 b0 b3 bd
       -0.0063238386 -0.0068434593 -0.09155621 -0.08773821
000290 07 8b 15 bc 9b 98 1f 3c ee a2 2c bd a0 5b 4d 3d
       -0.009127385 0.009740974 -0.04214757 0.05013621
0002a0 67 00 bc bd 21 63 36 3a 96 db d8 3d a6 f4 17 bd
       -0.09179764 0.00069575204 0.10588758 -0.03709855
0002b0 d8 74 de 3d c4 10 47 3d 5d 22 bc bd 3e 3d a1 3d
       0.1086213 0.048599973 -0.09186242 0.07873009
0002c0 75 bd 91 bb f8 34 29 bd 2d e4 c6 3d 7c 04 a7 bd
       -0.004447634 -0.04131028 0.0971149 -0.08155152
0002d0 b4 e9 a5 3c 23 5c 73 bc ac e5 b3 3d b5 0e 22 3d
       0.02025304 -0.01485351 0.08784041 0.039564807
0002e0 fd bf 7d 3d 6a 80 43 3d 60 27 96 bc 82 ff 75 bc
       0.061950672 0.047729887 -0.018329322 -0.015014531
0002f0 3c 7b aa bd 90 73 8c 3d b9 ff c5 3d d5 34 ad 3d
       -0.08324286 0.06857979 0.09667916 0.084573425
000300 cd e3 8e bd 68 54 5e 3c 47 f1 8e bd 35 13 58 bd
       -0.06977043 0.013569929 -0.06979614 -0.052752692
000310 ca ed 66 bd fc ae 3d 3d 7b 2a 6d bd 27 6a c3 3b
       -0.056379117 0.046309456 -0.05790184 0.005963582
000320 06 63 57 3c 04 29 a4 3d 9b 82 9a bd 15 e6 8a bd
       0.013146168 0.080156356 -0.07544442 -0.06782166
000330 ef 28 66 bd b1 38 b0 3d 55 ca 01 bd 13 d0 d0 3d
       -0.05619138 0.08604563 -0.0316871 0.10195937
000340 22 93 46 3d 27 e0 b7 3c 4c 5b f9 3b 84 47 5d bc
       0.04848016 0.022445751 0.0076097604 -0.01350582
000350 c1 c9 b6 3c ad 58 8c bc 74 cc f2 3b 71 1e b7 3c
       0.022313 -0.017132128 0.0074096266 0.022353383
000360 b1 48 a1 bd 73 e6 4c bd 8d b3 c8 3d d6 9b a7 bd
       -0.07875193 -0.05002446 0.097998716 -0.0818402
000370 ac 67 c3 39 99 09 f2 3d 79 c0 45 3d c8 4b 38 3c
       0.0003727054 0.11818237 0.04827926 0.011248536
000380 b7 9e b4 bd c9 5f 81 3d 56 57 91 bd 54 f3 be bc
       -0.08819335 0.06317098 -0.07096736 -0.023309387
000390 48 9b ed bc 3f ce 05 bc 07 61 1a 3c 86 45 cc 3d
       -0.029004708 -0.008166849 0.009422547 0.09974198
0003a0 2f bf b3 3c 32 59 dc 3d aa d3 9b 3d 16 4e 7e bd
       0.02194175 0.107592 0.07608731 -0.062086187
0003b0 01 be 6d 3d 26 f9 8f bd ac 14 1f bd 3a 5e 27 3d
       0.05804253 -0.07029943 -0.038838074 0.040861346
0003c0 e2 64 37 3d 6c 3f bb 3d 03 e2 e2 bc bd ac a0 3c
       0.044773944 0.09142956 -0.027695661 0.019613618
0003d0 44 54 9d 3d 51 2c b3 bd 65 ac cd 3d d4 0d 93 bd
       0.07682088 -0.08748687 0.10042647 -0.07180372
0003e0 2b 2d b1 3c df f4 b8 3a 41 e8 1a bd 04 41 12 3d
       0.021627983 0.0014111063 -0.03781915 0.035706535
0003f0 a5 ee e2 3d b0 1e 5d bc e0 cc 3f bd 8d 09 b6 bc
       0.11080674 -0.013496086 -0.046826243 -0.022221351

bias f4 [64]
000000 0c 37 70 3d 63 a0 1a bd 9b 90 8f 3d 31 b9 d0 3c
       0.058646247 -0.037750613 0.07010003 0.025478931
000010 86 13 83 3d 13 2d f0 3d 1a 7c b1 bd f7 1c e9 3d
       0.06400208 0.11727347 -0.086662486 0.11382478
000020 78 85 ad 3d 32 95 9d bd d7 5d e0 3c 4b c8 bc bd
       0.08472723 -0.076944724 0.027388496 -0.0921789
000030 3d 5a 30 3d 94 30 f9 3c af 57 d8 bd 5d cb fa 3c
       0.043054808 0.030418672 -0.10563599 0.03061455
000040 9e 47 b7 bc 61 d8 db 3d 6c 69 d2 3d e4 8c 4f 3d
       -0.022373017 0.107346304 0.10274014 0.050671473
000050 cc bc cb 3d eb 6f 1b 3d d1 15 e0 3d 69 2e e5 bb
       0.099481195 0.03794853 0.10941661 -0.006994058
000060 b6 99 d9 3c 5c cb b1 bc b4 88 8b bb 0d 2b bf bc
       0.026562553 -0.021703415 -0.0042582396 -0.023335958
000070 9e 4c 2f bd d6 c0 9f 3d c9 90 5f 3d 9b e4 50 bd
       -0.042797677 0.078004524 0.054581437 -0.050999265
000080 e5 63 d6 bd 5f 90 77 3d a9 d7 bb bd ff 91 d6 3b
       -0.10468272 0.060440417 -0.09171993 0.006548166
000090 ae 5f b4 bd 14 5e b2 3d 99 17 cf 3d f7 0d a8 bd
       -0.08807312 0.0870935 0.10111923 -0.082057886
0000a0 4c 16 c9 bd 9f 5a 8e bd c9 e6 ee 3c a6 c1 6c bd
       -0.09818706 -0.06950878 0.029162781 -0.057801865
0000b0 57 84 bb bc d0 a5 bd bc 0f 2d f1 3c bb 3d 2d bd
       -0.022890253 -0.023150355 0.02944043 -0.0422952
0000c0 6b a8 3f 3d 17 03 8a bd ad 38 2d ba 20 18 b7 3d
       0.046791475 -0.067388706 -0.00066078716 0.08940148
0000d0 3d e1 4a bd 9c d8 a4 3d 2f 1a 73 3d 0b b3 23 bd
       -0.04953121 0.080491275 0.059351142 -0.03996567
0000e0 55 5d 53 3d 60 d7 87 bd 3a c0 a0 3c 68 5a e5 3c
       0.05160268 -0.066328764 0.01962291 0.02799721
0000f0 84 04 c4 3d 26 92 3d bd 50 05 63 bd b7 cd 5b bd
       0.09571174 -0.046281956 -0.05542499 -0.05366298

weight f4 [32, 64, 1, 1]
000000 75 bc f1 bd f8 c0 02 3d 6d 15 ba bd c0 46 66 bd
       -0.118035235 0.03192231 -0.09086118 -0.056219816
000010 f7 ea 43 bd 30 5c b1 3c 6a ad 2f 3d eb 32 a5 bd
       -0.0478315 0.021650404 0.04288999 -0.080663525
000020 72 f8 eb bc 34 a5 0c 3b 57 a5 89 bd 24 ca e1 3c
       -0.028804991 0.0021460773 -0.06720989 0.027562208
000030 8c 2f 0c 3d 61 23 99 bd da 5b c9 3d 44 98 c2 3d
       0.03422503 -0.07477451 0.098319724 0.095016986
000040 12 56 d8 bc 5d 47 9c 3c f7 11 a6 3c 55 4b 1f bb
       -0.026408229 0.019076997 0.020272238 -0.0024306376
000050 76 05 96 bd 71 69 e0 3d ed 54 92 3d 23 b3 de bd
       -0.0732526 0.10957611 0.071451046 -0.10874011
000060 73 3c c5 bd f3 57 01 3e 97 fb a8 3c dd 7f 7e bc
       -0.096306704 0.12631206 0.02062778 -0.015533415
000070 11 1b c4 3d 07 75 4e 3d 11 87 50 3d 12 e1 db 3d
       0.09575475 0.050404575 0.05091006 0.10736288
000080 47 bc 5d bb 30 67 d1 3d 6e 77 98 bd 6c e0 7f bd
       -0.0033834146 0.102247596 -0.074446544 -0.062469885
000090 79 d1 00 3d df ad 0a bc 0a eb aa 3d fb ec ad bc
       0.03144977 -0.008464306 0.083456114 -0.021231165
0000a0 e8 29 11 3d 22 a7 c3 bc 47 2a cb 3d 83 53 02 bc
       0.035440356 -0.023883406 0.09920173 -0.007954481
0000b0 96 3d 30 3c f5 a2 d1 3d 63 2e 07 3e f7 98 05 3e
       0.010756871 0.1023616 0.13201289 0.13046633
0000c0 19 1d f4 bd 6b 77 64 bd b3 6c 6e bc c5 57 b8 bc
       -0.119196124 -0.05577795 -0.014552283 -0.02250279
0000d0 4e d1 b1 3d 09 b2 79 3d 1b 8a 44 bc f3 15 3d 3c
       0.086825 0.060960803 -0.011995818 0.011540878
0000e0 bc 76 80 3c e4 22 f8 3d af b1 a0 3d 6e 9b 75 bd
       0.015681617 0.1211603 0.078463905 -0.059962682
0000f0 a2 51 99 bd 73 7b 68 3d e7 99 86 ba 45 80 8f bd
       -0.07486273 0.056758355 -0.0010269255 -0.07006887
000100 ef dd 04 be 91 15 b3 3a ef e6 41 bd 7b 08 a2 bd
       -0.12975286 0.0013663044 -0.047339376 -0.07911774
000110 1a 33 73 3c 30 af db 3d 5c 29 c8 3d a1 e4 7a 3d
       0.0148437265 0.10726774 0.09773514 0.061253194
000120 65 0d d9 bd 3c 8d 76 3d eb e3 66 3d ed ee 06 3d
       -0.10598258 0.060193285 0.056369703 0.0329427
000130 4d a4 20 bd 89 c8 81 bc 09 f2 8a bd 83 99 11 bd
       -0.03921919 -0.015842693 -0.06784446 -0.03554679
000140 73 1b fc bc 07 4b c5 bc b6 05 07 be 01 5c f6 3c
       -0.030774808 -0.024083627 -0.13185772 0.030073168
000150 9a 2d e6 bd 5a 96 d6 bd d6 5d 26 3d b1 ee db bd
       -0.112391666 -0.10477896 0.040616833 -0.10738886
000160 b0 27 e9 3d f1 0a e6 3d 41 7d 4c bd ee 52 05 bd
       0.11384523 0.11232556 -0.04992414 -0.03254979
000170 60 c1 d6 bd ce f7 e2 bb a2 09 07 3c e0 f1 9b bd
       -0.10486102 -0.0069265133 0.008242043 -0.07614493
000180 df f9 fa 3c a8 29 7c bc c1 ce 41 bd f2 10 42 bc
       0.030636726 -0.015390791 -0.047316317 -0.01184486
000190 de 84 07 be 02 06 c6 bd f9 cc bb 3b 50 e2 e1 3d
       -0.13234279 -0.09669115 0.0057312218 0.11029494
0001a0 08 54 c0 bd 2e 3e 98 3d ad 96 8f 3b 48 47 5c bd
       -0.09391028 0.07433735 0.0043819756 -0.053778917
0001b0 00 9c 0f 39 74 89 4e 3d 61 fc a2 3b 8d ff cd 3d
       0.00013695657 0.050424054 0.0049739336 0.10058508
0001c0 53 84 06 bd ad 1a c4 bd bd 2e d1 3d 7a 9b 26 bd
       -0.032841038 -0.095754005 0.10213993 -0.040675618
0001d0 d5 2e 8b 3d ba 8a 95 3d f2 11 94 3c 10 49 e5 bd
       0.06796042 0.073018506 0.018074963 -0.11195576
0001e0 08 d4 02 be c7 1e 47 3d ac f0 9a 3c 6e 72 80 3d
       -0.12776196 0.048613336 0.01891359 0.06271826
0001f0 01 0c e8 bd 2b 3b 18 bd 68 82 c8 3d 8e a8 64 3d
       -0.113304146 -0.037165802 0.09790498 0.05582481
000200 e2 f8 d8 3d 51 53 eb 3d 48 80 8c bc 22 57 dc bd
       0.10594346 0.11490501 -0.017151013 -0.10758807
000210 ec cb 82 bd 3f a3 69 3d 83 34 11 bd d1 51 52 3c
       -0.06386551 0.05704045 -0.03545047 0.012836889
000220 2d 7b ff 3c a2 cc bc 3d c6 6c 9c 3d c9 9d a9 3d
       0.031186664 0.09218718 0.076379344 0.08282048
000230 e8 f9 c6 bb 97 ee b1 3d 8b e3 6f bd 5d 7d 2c bd
       -0.0060722716 0.086880855 -0.05856661 -0.042111743
000240 47 b2 dd bb 09 30 8b bd 60 e9 f2 3d 36 50 8d bb
       -0.006765637 -0.06796271 0.11860919 -0.0043125404
000250 4d 6e 48 3d e1 a8 d1 3b bb 9f 28 3c 34 64 99 bd
       0.048933316 0.0063983058 0.010291989 -0.07489815
000260 dd c5 2a bc be 1c d1 bd e8 39 61 bd 46 01 e2 3d
       -0.010423151 -0.1021056 -0.054986864 0.11035399
000270 db 4c d5 bd 16 8f 13 3d 11 36 f7 3c 0e 1c e0 bd
       -0.1041505 0.03602513 0.030177148 -0.10942851
000280 20 58 02 3d c3 af 5a 3d bf 3e d7 3d 4e 77 1a 3d
       0.031822324 0.053390276 0.10510015 0.037711434
000290 c5 28 e2 3d 03 13 63 3c ac 02 7a 3d e3 eb 50 3d
       0.110429324 0.013859513 0.061037704 0.05100621
0002a0 13 ab a9 bd ca 2a 0a bd 2e bb a3 bd 5a 2e c7 3d
       -0.08284583 -0.033732213 -0.07994686 0.09725638
0002b0 e9 cc 97 3d 60 ea 22 bd 0b a9 25 bc 35 9b 3e 3d
       0.074121304 -0.0397743 -0.010111104 0.046534736
0002c0 af 4b d4 bd 16 cf 99 3c 09 c4 96 3d 29 2f 9b 3c
       -0.10365998 0.018775504 0.073616095 0.018943386
0002d0 4d b8 5d 3b 3a 4f b2 3d 68 14 4d 3d 45 e8 cb bd
       0.0033831776 0.087065175 0.05006829 -0.09956411
0002e0 20 ac 78 3d da 10 ac bd 6c ae ac 3d f3 d8 e1 3d
       0.060711026 -0.08401652 0.08431706 0.11027708
0002f0 49 a8 73 3b 63 6f 87 bc d9 2b 50 bd 02 2a 2e bd
       0.0037179163 -0.016532606 -0.050823066 -0.04252053
000300 4f c1 b1 bc 46 15 10 bd 35 03 0c 3e 3b a0 9c bd
       -0.021698622 -0.035176538 0.13673098 -0.07647749
000310 41 4f 74 3d 37 70 cf bd 1f cf 96 3d 43 6e ee 3d
       0.059645895 -0.10128825 0.07363724 0.116421245
000320 88 5c a7 bd fa b4 90 bc be c1 0e 3d c0 49 e7 bd
       -0.08171946 -0.017664421 0.034852736 -0.112933636
000330 a8 2f bb bd 18 06 74 3d 14 1b f1 3d 20 b9 00 bd
       -0.09139949 0.059576124 0.11772743 -0.03142655
000340 f8 12 1f 3c 24 c0 ed bd a7 e0 ea bd b2 fa fc 3d
       0.009709112 -0.116089135 -0.1146863 0.12352504
000350 33 9e ee 3d f6 00 01 bd c3 be 22 bd 52 89 84 bc
       0.11651268 -0.031495057 -0.039732706 -0.01617876
000360 31 a4 6b 3d 0b 02 e8 bd 39 f6 88 bd 0c cc e6 bc
       0.057529632 -0.11328515 -0.06687588 -0.028173469
000370 f7 2a 32 bd 8a 88 47 3c bb f4 c8 3d 48 a1 e8 3c
       -0.043498006 0.01217855 0.09812304 0.028397217
000380 2c 35 db bd 27 7c e5 3d 58 9a e9 3d 94 76 58 3d
       -0.10703501 0.11205321 0.11406392 0.05284746
000390 ac f6 91 3d cb 55 5a 3d 04 95 ea 3d 5d 84 dc bd
       0.07127127 0.053304475 0.11454204 -0.10767434
0003a0 64 4f 8c bd a9 52 bd bc e5 16 83 bc 53 db a9 bd
       -0.0685108 -0.023110704 -0.016002128 -0.08293786
0003b0 77 5a 01 be f8 81 ad bd 49 76 14 bc a1 e0 ee 3d
       -0.12632166 -0.08472055 -0.0090614045 0.11663938
0003c0 aa 62 b2 3d ba 1f 51 3d 62 77 83 bd ad df 40 bd
       0.08710225 0.051055647 -0.06419255 -0.047088314
0003d0 25 1a dc 3c 35 8a e3 bd a6 fc 2d bc b2 f3 09 3d
       0.026867935 -0.11110345 -0.010619318 0.03367967
0003e0 28 dc cb 3d 6a 0c 9b bc 12 90 0b 3e fe c4 54 3c
       0.09954101 -0.018926818 0.13629177 0.01298642
0003f0 68 30 c2 bd 7d ca 12 3e e1 8b f5 3d 94 0d b6 bd
       -0.09481889 0.14335056 0.119895704 -0.088893086

bias f4 [32]
000000 5d 15 a3 3d 82 33 6c bd af 6e ad 3d 83 1a f1 3d
       0.07963059 -0.05766631 0.08468377 0.11772635
000010 6c 3f 75 3d 50 ff b4 3d ef 62 a5 bd d1 eb de 3d
       0.059874937 0.088377595 -0.08075511 0.10884822
000020 0a 80 a4 bd 3c 9a a0 3d bc ba 33 3d dd 83 8d 3b
       -0.08032234 0.07841918 0.043879256 0.004318698
000030 99 95 d5 3c f9 d8 01 be 8d 56 ee 3d aa 98 23 bc
       0.02607231 -0.12680425 0.11637602 -0.009985128
000040 88 da d8 3d 4a dd a9 bb 2b 01 1c bd bb f7 b8 3d
       0.105885565 -0.0051838504 -0.03808705 0.09031626
000050 c8 1f 85 3a be 06 8f bd 63 5f d7 3c a6 b3 06 be
       0.0010156566 -0.06983708 0.026290601 -0.13154468
000060 03 fd 8a bd 60 5a 9d bd af 0f 75 3c bb b4 a2 bd
       -0.067865394 -0.07683253 0.014957353 -0.07944628
000070 fa 9a b1 bb 00 f7 a9 bd fa 5e e8 bd 24 9d b2 bc
       -0.005420086 -0.08299065 -0.1134624 -0.021803446

weight f4 [1, 32, 5, 5]
000000 08 c6 a6 3b 45 04 d8 3c d3 bb 36 bc b5 93 0d 3d
       0.005089525 0.026369223 -0.011153179 0.034564693
000010 eb 84 c7 bc 33 c8 57 3c 3b e9 fc bc b9 9c 06 3d
       -0.024355372 0.01317029 -0.030872932 0.032864306
000020 62 4c 4b bc b4 7d a8 3c bc 53 2d 3b ac 70 59 bc
       -0.012408348 0.020567752 0.0026447615 -0.013271492
000030 06 fb f4 bb 11 e7 48 bc 1a cd b8 3c 03 42 db 3c
       -0.0074762134 -0.012262122 0.022558738 0.026764875
000040 c4 b4 0d 3d c4 4a f4 bb 26 1f 1f bc b3 b1 89 bc
       0.03459622 -0.007455202 -0.009712016 -0.016808366
000050 a2 12 c1 ba d1 ad 1b 3c ae 02 00 bb b8 5f b3 bc
       -0.0014730284 0.00950189 -0.0019532847 -0.021896228
000060 1b 93 68 3b c4 1f 0d b9 4d 23 e0 bc f7 0a 0e bc
       0.0035488072 -0.00013458641 -0.027360583 -0.008669606
000070 b8 d1 04 ba 0a c3 08 bd 07 3e bf 3b e1 2a 2e 3c
       -0.0005066651 -0.03338913 0.0058362517 0.01063034
000080 4f 06 1b bb 07 34 81 bb 11 c6 eb 3a a3 20 23 3c
       -0.0023654883 -0.0039429697 0.0017988106 0.009956512
000090 7b 09 83 bc 6f 44 18 bb 6a 2f ae 3c 72 f8 19 bc
       -0.015995732 -0.002323415 0.021262843 -0.009397613
0000a0 af c3 6d 3a 70 08 02 bd 94 75 d4 bc 61 69 1f bb
       0.00090699916 -0.031746328 -0.025934972 -0.0024324285
0000b0 37 23 38 bc 65 44 10 3d 67 00 dc bb 49 58 ea bc
       -0.011238865 0.035221476 -0.006713915 -0.02860655
0000c0 44 38 fe 3c 10 e6 b3 bc 2f 6f fa 3c ef ff 14 bb
       0.031032689 -0.021960288 0.030570595 -0.0022735556
0000d0 5f 92 07 3c 3b 90 08 bd b7 d7 08 3d 87 8b 72 3a
       0.008274644 -0.033340674 0.033408847 0.00092523586
0000e0 0b 52 86 bc ac a5 c3 bc 9b cc fe 3b ad 3b 03 bd
       -0.016396543 -0.02388271 0.0077758557 -0.032039333
0000f0 c6 b1 e1 3c 86 c6 a9 3c f9 1a 03 3d 96 83 06 3d
       0.02755059 0.020724546 0.032008145 0.032840334
000100 97 87 9f bc 36 0c 07 bc 91 66 bc 3c e6 72 c4 3c
       -0.019473834 -0.008242657 0.022998126 0.02398057
000110 82 48 13 3d d4 44 59 bc 3a e8 d1 3b 52 95 0a 39
       0.03595782 -0.013261039 0.0064058574 0.00013216332
000120 ea d8 b1 3c 93 e4 82 bc 1d 97 08 3d bc 94 1a bc
       0.021709878 -0.015978133 0.033347238 -0.009434875
000130 be 5b 98 3c fe 13 e3 3c cb 5e 0c bd 0c ec f9 3b
       0.018598434 0.027719494 -0.03427009 0.007627016
000140 a5 1e be bc 96 f5 93 3c b0 4d 00 3d 83 f5 26 bc
       -0.023207972 0.01806144 0.03132409 -0.0101903705
000150 88 b3 bb bc 5e b5 8a bc 99 22 ea 3c 2b 40 99 bb
       -0.022912756 -0.016932186 0.02858095 -0.004676839
000160 0c fa ce bc 67 a6 f5 3c cb 58 c6 3c b2 b0 36 bb
       -0.025265716 0.029986573 0.024212262 -0.0027876315
000170 e9 ac a7 3b df 8d b0 3b 69 3e 10 3d b9 6e b0 3c
       0.005117048 0.005388006 0.03521577 0.021537172
000180 f3 c3 f2 3b 9b 67 f0 3a d0 a7 4b 3c e9 70 cd bc
       0.007408613 0.0018341424 0.012430146 -0.025078254
000190 6c 0b a6 3c c6 be 82 3c 1f 95 aa 3b 96 37 b1 3c
       0.020269118 0.015960108 0.005205765 0.02163295
0001a0 57 0a bb bb 77 b1 ff bc f5 f8 e7 bc 27 1a 0d 3d
       -0.0057080197 -0.031212552 -0.028316954 0.03444877
0001b0 e5 ce 2c bc 0b 51 ca bc b0 3e 12 3d 39 9f c3 bc
       -0.010547374 -0.024696847 0.035704315 -0.023879634
0001c0 32 8d f4 3c 36 93 05 3d 19 dd 5c bb 6c b1 b1 3c
       0.029852483 0.032611094 -0.003370112 0.021691047
0001d0 48 c4 e6 3c 0e ae 03 bd 58 e0 91 bc 66 45 bb 3b
       0.028169766 -0.032148413 -0.01780717 0.00571506
0001e0 23 a6 47 3c 5e a4 bc bc d6 5c e5 bc 8e 59 0f 3d
       0.012185606 -0.023027595 -0.02799837 0.034997515
0001f0 00 c2 7e bc 9f 1f 09 bd 3e 8e 87 3c ef 8a 8c bc
       -0.015549183 -0.03347742 0.016547319 -0.017156092
000200 32 72 39 bc ed 68 3a bc 83 d5 09 3d 2d 34 6d 3c
       -0.01131873 -0.011377555 0.033650886 0.014477772
000210 0c 21 12 3d 22 d9 3b bc f4 63 da 3c 7a a9 e2 bc
       0.035676047 -0.011465343 0.02665899 -0.027668703
000220 bb d4 b7 3c 6d fd 22 3b 6c 8e 1a 3b b8 34 ff 3c
       0.022440305 0.0024870292 0.0023583425 0.031153068
000230 54 d3 73 3b d9 a1 65 bc dc 4b 97 bc 68 76 dd 3b
       0.0037204819 -0.014015638 -0.01846879 0.0067585
000240 be db 30 bc aa ab 9a 3c 52 9b e9 bc 7b 43 ba bc
       -0.010794578 0.018880684 -0.028516445 -0.022737255
000250 91 7a 02 3d 4e 74 4f bc 55 8f 09 bd f2 c4 d8 3c
       0.03185517 -0.012662007 -0.033583958 0.026461098
000260 4b a9 0c bc e8 ed 8a ba 7d 4a a9 3c db ce 63 3c
       -0.008585284 -0.0010599466 0.020665402 0.013904299
000270 7f 7a 02 bd a4 1a 08 3c 2c 8e 0f 3d 32 66 a8 ba
       -0.031855103 0.008307133 0.035047695 -0.0012847839
000280 3e 25 e6 3c e5 a7 08 3d 66 2b 7c 3c 0d d5 ff bc
       0.02809393 0.03336324 0.015391206 -0.03122952
000290 b1 d5 01 3d 15 96 f8 3c e9 96 55 3c 10 df fe b9
       0.031697933 0.030345002 0.013036468 -0.0004861285
0002a0 c6 94 ba bc 9f ff 17 3c da 41 21 bc 99 d3 0b 3d
       -0.022776019 0.009277253 -0.00984236 0.034137342
0002b0 00 5a 06 bd 3b b9 17 3c eb b2 5a 3a 81 c2 47 3a
       -0.032800674 0.009260471 0.0008342701 0.0007620231
0002c0 c0 f8 73 bb ab 13 80 3c 62 44 f3 bc 00 90 07 3c
       -0.0037227124 0.015634378 -0.029695693 0.008274078
0002d0 3b 56 bb bc 24 65 43 3c 6e 57 18 bb 53 e9 a8 3b
       -0.022868266 0.011925969 -0.0023245472 0.0051547675
0002e0 8a d0 a8 3c 08 0c 5b bc 51 6b e3 bc f3 6e 81 bc
       0.020607252 -0.013369568 -0.027761133 -0.015799975
0002f0 4b b0 f1 3c a1 27 e6 bc fd 52 bd 3c 70 20 41 bc
       0.029503008 -0.028095068 0.023110861 -0.011787519
000300 2a 93 27 3b c9 84 78 3c b5 ff 40 bc 41 f0 c1 bc
       0.0025569894 0.015168377 -0.011779715 -0.023674132
000310 ba 4d 4f 3c 54 8e b4 3c d7 f2 62 3c b9 0e 12 ba
       0.012652809 0.022040524 0.013851843 -0.0005571652
000320 92 ef 85 3b ba 7c 78 3c 72 ce 3c 3c 5c 6a 8d bc
       0.004087397 0.015166456 0.01152383 -0.01726263
000330 14 1f d2 3c d5 58 90 bb 66 0f 5f bc 2e 57 2a bc
       0.025649585 -0.004405121 -0.013614511 -0.010396762
000340 6d cf a2 3b c9 77 94 bc 53 60 cf bc 5a 7a a5 3c
       0.0049685747 -0.018123524 -0.025314486 0.020199943
000350 ef 26 f0 3c 74 05 0e bd 32 00 ea 3c 46 66 a6 bc
       0.02931544 -0.03467317 0.028564546 -0.02031244
000360 75 82 10 3c c8 df 07 3d ac 63 b1 bc a2 44 67 bc
       0.008820166 0.0331724 -0.021653973 -0.014115484
000370 8c 1d 2e 3c 0c 8b b1 bc b8 68 5a bc 62 3c ef bc
       0.010627162 -0.021672748 -0.013330631 -0.029203597
000380 57 78 94 3b f9 41 bd 3c c8 0b 2c 3c 5b 37 ac bb
       0.004530947 0.023102747 0.010500856 -0.0052556223
000390 0b 83 0d 3d 9d 85 ea 3c 4f 1c 95 bc da 29 ae 3c
       0.0345488 0.028628165 -0.018201975 0.02126019
0003a0 6a ae e7 bb 8d d5 4b 3c 74 dc 9f 3b 55 40 87 3c
       -0.0070703523 0.012441051 0.004878575 0.016510168
0003b0 c4 cf 8a bc a8 07 83 bc a0 9f 9c bc 82 fc b2 bc
       -0.016944773 -0.015994862 -0.019119084 -0.02184892
0003c0 94 dd 68 bc 53 07 1c 3c dd fa 35 3c 9d ab fd 3b
       -0.014212985 0.009523231 0.011107174 0.007741405
0003d0 a1 0f e0 3c 64 b4 e4 3c 31 34 f2 3c 27 cb bc 3c
       0.027351202 0.027918048 0.029565902 0.02304609
0003e0 63 05 48 3a 7e 61 24 3c c9 e4 86 bc ac db fe 3a
       0.0007630197 0.01003301 -0.016466515 0.001944413
0003f0 70 8a 84 3b 0d c4 e1 bc 4c c7 f7 3c e6 12 d4 bb
       0.0040448233 -0.027559305 0.0302464 -0.0064719794
