SRCNN-master/model_5.pth (torch, 36296 bytes, 5 tensors)

weight f4 [64, 1, 9, 9]
00000000: 812f 93bb 5a89 653d 887b c2bd c0ae aebd
00000010: 8319 3ebd f552 d53c 44d0 c5bb ddfc ac3d
00000020: 72ea 5cbc 0530 d33c 99e0 17bd c9f5 cebc
00000030: 556d e0bd a8fe 9dbd 10f1 4abd 6996 8b39
00000040: dff9 243d 8318 813d 9aaa a1bd d96b 54bd
00000050: 5274 173d d907 b63d 0b22 d8bc 28a8 a23d
00000060: f13d b2bc 89bc 043c 1b9a c63d 58ad dabd
00000070: 4595 96bd b883 01bd 08aa 3fbd bc41 bd3d
00000080: 9c3a 9bbd 5379 61bd 7195 a6bd 0ab1 dcbd
00000090: 9f44 8cbd e54c bc3d c49e 3c3d a120 4e3d
000000a0: a51a 143b 5671 78bd e85c 763c 89c0 dbbd
000000b0: 8c9f abbd aecd 7abd 107d 873d f295 7a3d
000000c0: 942e 5abd 8863 03bc 9d41 893d d9eb d93d
000000d0: 49f7 243d 0047 383c c801 903d bba1 8ebd
000000e0: d584 863c ba49 b9bd 6298 a6bd 8cd1 7cbd
000000f0: 135a 3c3d 6a79 263d d4ea 8ebd 1c1b f03c
00000100: 6c32 683d 33c4 96bc 3971 44b9 708d ae3c
00000110: 2020 843d 558d d13d 2ac9 b7bd b953 37bd
00000120: 059f 213d 2bd6 b33d a931 bd3d edde bf3d
00000130: b969 913c 45c9 cebd 00b6 c13b cfaf 96bd
00000140: 2a44 dcbd 2fa2 e73d 2009 cb3d 0c5e c4bd
00000150: 9ef7 123d 8323 6ebb 22de 5ebb aff9 13bd
00000160: 34d0 6a3d d56b 52bd 9015 633d c4e2 913d
00000170: cb73 c23d 54f0 693d 565c c1bd 4f78 68bd
00000180: c299 903d 1b7b 1c3d 6e4e 93bd 042d 48bd
00000190: 9dd4 f53d 51f8 b93d 7052 04bd 5eed 41bc
000001a0: 8448 b8bd d70f 5f3c 19dc 8bbd 3b82 90bd
000001b0: 1d16 193c bb76 053d d19a eebc 8a11 a93d
000001c0: 41dc 50bd 8bf3 ef3d a2d0 bc3d 5195 9fbd
000001d0: 4aea 46bc 3aa7 a93c 807e 043d 0506 303d
000001e0: fec3 773d 6b0c c13c 68e5 19bd 7b1f 8d3d
000001f0: fe71 b9bd 6a31 4dbd 558b 4abc b0b2 1cbd
00000200: 34a9 b8bc 748b 98bd 93c7 e5bb 245e 243d
00000210: 1f9c 66bd 8d54 253c b5b2 c23d ed11 733b
00000220: 183d 983c 7112 cf3b 302c 1e3d 1cd1 b13d
00000230: 8642 f83d 1eb6 b03d fdbb f73d 51df eb3b
00000240: 0125 aebd bdf7 19bd 078c ba3d 4512 743c
00000250: 1209 22bd 88b8 8ebd 74a7 b5bd 7d43 a1bd
00000260: ad0f fcbb dd90 9a3d 954f 993d cb94 bcbd
00000270: d922 ad3d ffc5 92bd 8f9b 09bc b67a f6bc
00000280: 7e44 d9bb 3de6 ebbb 5896 bbbd edb8 b3bd
00000290: 5d52 15bc 2f32 203c 4e77 2cbd 4d6d 4d3d
000002a0: cb0c bcbd 0597 313a 56d2 d83d c8f2 17bd
000002b0: 6485 de3d 6958 473d 51f1 bbbd 146f a13d
000002c0: e0aa 8fbb 0025 29bd e1eb c63d e9fd a6bd
000002d0: b161 a63c 0dd2 71bc 432d b43d 13ba 223d
000002e0: 7268 7e3d f5fd 433d 31a5 95bc e114 75bc
000002f0: 565f aabd 199d 8c3d a23d c63d 2e8a ad3d
00000300: 627f 8ebd b167 613c faa7 8ebd 08c7 57bd
00000310: c2ac 66bd 16ef 3d3d 18f1 6cbd 1d58 c63b
00000320: af8c 593c b17e a43d ce2c 9abd 07aa 8abd
00000330: b6fd 65bd 6547 b03d baaa 01bd 1dde d03d
00000340: 65cc 463d 24a2 b83c 8c6f fd3b 0d2b 5bbc
00000350: 3d77 b73c 6f43 8cbc 8bc0 f23b f226 b73c
00000360: 264c a1bd a2d5 4cbd f7cc c83d e873 a7bd
00000370: c4e6 ec39 7d1c f23d efa0 453d aab7 373c
00000380: 73ac b4bd 8b5b 813d 9b51 91bd 6aa3 bebc
00000390: a01e edbc 73d6 04bc f7b5 1a3c c632 cc3d
000003a0: b679 b33c db4d dc3d a8d0 9b3d 2d43 7ebd
000003b0: 14e1 6d3d 9cde 8fbd cce0 1ebd 596f 273d
000003c0: 2645 373d e533 bb3d a1f7 e2bc 22f2 d33c
000003d0: 93d1 a93d dbfd a6bd 8146 d83d 0867 89bd
000003e0: 4451 db3c 8f99 ec3b a925 01bd 2041 2d3d
000003f0: e781 ee3d 58fe 06bc 0a67 2cbd 90e2 9dbc
-0.004491747 0.05603919 -0.09496218 -0.08529425 -0.04641105 0.026040534 -0.00603679 0.08446667
-0.0134836305 0.025779733 -0.037079427 -0.025263684 -0.109583534 -0.077145875 -0.0495463 0.0002662421
0.04027736 0.06303503 -0.07893868 -0.051860664 0.036976166 0.088882156 -0.02638342 0.079422295
-0.021758052 0.008101591 0.09697362 -0.10677594 -0.0735269 -0.031619757 -0.046793014 0.092410535
-0.07579538 -0.055047344 -0.081339724 -0.10775955 -0.06849026 0.09194354 0.04604985 0.050324086
0.002259889 -0.06065496 0.015036799 -0.107300825 -0.083800405 -0.061231308 0.06615651 0.061178155
-0.053267077 -0.008019336 0.06701968 0.106406875 0.040274892 0.0112473965 0.0703159 -0.069644414
0.016420761 -0.09047265 -0.081345335 -0.061723277 0.04598434 0.040643133 -0.06978384 0.029309802
0.05668871 -0.018404102 -0.00018734195 0.021307677 0.0645144 0.10232035 -0.08973916 -0.04475758
0.039458293 0.08781084 0.092379875 0.093686916 0.017750608 -0.10096983 0.0059115887 -0.073577516
-0.10755189 0.11310231 0.0991385 -0.095882505 0.035880677 -0.0036337085 -0.0034006913 -0.03612679
0.057327464 -0.051372368 0.055440485 0.0712333 0.09494742 0.05711396 -0.0944144 -0.05675536
0.07060577 0.03820334 -0.07192694 -0.048871055 0.120034434 0.09080566 -0.03230518 -0.011836378
-0.08998206 0.013614616 -0.0682909 -0.070560895 0.009343651 0.032583933 -0.029126557 0.082552984
-0.0509913 0.11716374 0.09219481 -0.07792152 -0.01214082 0.020709623 0.032347202 0.04297449
0.060489647 0.023565492 -0.037572294 0.0689077 -0.090549454 -0.050095953 -0.012362321 -0.038256347
-0.02254162 -0.074484736 -0.0070123165 0.040128842 -0.056301232 0.010090959 0.09506742 0.0037089542
0.01858382 0.006319337 0.03861636 0.086824626 0.12122063 0.08628486 0.12096403 0.0071982522
-0.08503152 -0.037589777 0.09108739 0.014896934 -0.03955943 -0.0696879 -0.0886983 -0.078742005
-0.0076922984 0.07547162 0.07485882 -0.092080675 0.08453912 -0.07166671 -0.008398904 -0.03008781
-0.0066304794 -0.0071990774 -0.09159535 -0.08775506 -0.009113875 0.00977759 -0.042105965 0.050153065
-0.091821276 0.0006774518 0.105869934 -0.03709677 0.10865286 0.0486683 -0.09176887 0.078825146
-0.0043843836 -0.04129505 0.09712959 -0.08153898 0.020310255 -0.014759553 0.087976955 0.039728235
0.062111326 0.047849614 -0.018267246 -0.014958591 -0.08318965 0.068659015 0.09679724 0.08473621
-0.0695789 0.013757632 -0.06965633 -0.052680045 -0.0563171 0.04637059 -0.057847112 0.0060529844
0.0132781705 0.08031977 -0.07528077 -0.067707114 -0.05615016 0.086073674 -0.03165696 0.10198615
0.04853477 0.022538252 0.0077342447 -0.013376963 0.022395724 -0.017121999 0.007408207 0.022357438
-0.07875852 -0.050008424 0.09804719 -0.08176404 0.00045185362 0.1182184 0.04824918 0.0112132225
-0.088219546 0.063162886 -0.07095643 -0.023271281 -0.028945267 -0.008107769 0.009442798 0.09970622
0.021908622 0.10757037 0.076081574 -0.062075783 0.05807598 -0.07024881 -0.0387886 0.040877674
0.04474368 0.091407575 -0.02770597 0.025872294 0.08291926 -0.08153888 0.105603226 -0.06709105
0.026772149 0.007220454 -0.031530056 0.042298436 0.11645871 -0.008239351 -0.042090453 -0.019273072

bias f4 [64]
00000000: c3c8 703d a4cd 1abd 2c60 8f3d 9389 ec3c
00000010: 984f 833d 3213 ef3d 5355 abbd 07b6 e83d
00000020: cac8 ad3d 96a3 9dbd dddc e03c f378 bcbd
00000030: b12d 403d 7a28 f63c 6248 d8bd e264 fd3c
00000040: 0686 b7bc 537d dc3d a0ac d23d 733e 4f3d
00000050: e98d cb3d ca08 1c3d 683d e03d dc85 2a3b
00000060: e2fb e53c af5d b3bc 80c6 8abb 689e c0bc
00000070: 6770 2fbd 0356 9f3d 684c 5c3d f6de 45bd
00000080: 3024 d6bd 1c56 893d 73ef bbbd 0d7c d33b
00000090: 2c63 b4bd 1586 b23d 95fd ce3d 802c a8bd
000000a0: a429 c6bd e775 8bbd 1ef2 fc3c 05eb 6ebd
000000b0: c3b5 41bc 3fa9 bebc 77f6 f03c 6b28 2dbd
000000c0: 56e0 403d cb17 8abd 9f0d 4eba f0ed b73d
000000d0: ae1d 4bbd 150c a53d b0dc 7c3d 8588 23bd
000000e0: b299 773d 68fb 87bd 7ed8 9f3c 053d e73c
000000f0: 242a d53d e5a6 23bd 8424 63bd 967f 5bbd
0.05878521 -0.03779377 0.07000765 0.028874194 0.06411666 0.11673583 -0.08365884 0.11362844
0.08485563 -0.07697217 0.027449066 -0.09202757 0.046918575 0.030048598 -0.10560681 0.030931894
-0.022402775 0.10766091 0.10286832 0.050596666 0.099391766 0.03809432 0.10949212 0.0026019728
0.028074209 -0.021895258 -0.004235089 -0.023513034 -0.042831805 0.07780077 0.053783804 -0.048308335
-0.10456121 0.06705877 -0.09176531 0.006453997 -0.08807978 0.0871698 0.10106961 -0.08211613
-0.09675911 -0.068095975 0.03087717 -0.0583296 -0.0118231205 -0.023274062 0.029414399 -0.042274874
0.047088943 -0.067428194 -0.0007860306 0.0898093 -0.04958885 0.08058945 0.0617339 -0.039925117
0.06044931 -0.06639749 0.019512411 0.028227339 0.10408428 -0.039954085 -0.055454746 -0.053588472

weight f4 [32, 64, 1, 1]
00000000: 30d2 f2bd e34c 013d 835f babd 9292 84bd
00000010: 8b30 44bd 43bd b03c 2504 313d 4c7d a5bd
00000020: af8e ecbc d911 0b3b ee9c 89bd 00c0 cb3c
00000030: 0bb1 d83c 7c84 9bbd aa63 c93d c2a5 c23d
00000040: 1c26 d8bc 0aed 8b3c 9ad0 a53c 828a 1fbb
00000050: 2041 96bd 5184 e03d 860e 923d b046 f5bd
00000060: 2be8 c7bd cf54 013e b40f a33c 651a 7dbc
00000070: 1914 c43d 4bf0 4b3d e59f 4c3d d860 e13d
00000080: 6ecd 48bb a67e c73d 986f 98bd d893 7fbd
00000090: 1d70 003d 9b84 0bbc c9b2 aa3d 44ed acbc
000000a0: c282 243d c994 cebc 0a15 cb3d 3645 02bc
000000b0: 396a 933c 62b5 d13d b30e 073e 95af 053e
000000c0: dc49 f4bd d09d 63bd afe0 6fbc d4d8 bcbc
000000d0: cc7b b13d b0e9 793d 5764 70bc 1c3f 3d3c
000000e0: ef41 cf3b a43f f83d ad73 a03d 4309 76bd
000000f0: d054 a4bd 51e0 7c3d d223 6fba 9051 8fbd
00000100: 3ae3 04be 868b a03a 7016 42bd f2f5 a5bd
00000110: 0f1e 733c c487 db3d 5629 c83d 3dc6 7a3d
00000120: 7d39 d9bd ac61 763d b9c6 663d d6ac 063d
00000130: f6cb 32bd 072a 82bc 09f2 8abd 9599 11bd
00000140: d35e fcbc 564d c5bc 7006 07be a7bd f53c
00000150: 583c e6bd 7ec2 d6bd 5d36 263d 5776 e6bd
00000160: 650b e93d 020a e63d 08db 4cbd 3e93 05bd
00000170: fec6 d6bd d61f e5bb 712b 053c e5f1 9bbd
00000180: 1270 f93c 72ec 86bc 11eb 41bd 42fb 42bc
00000190: bf92 07be c909 c6bd 4fd9 ba3b 45cc e13d
000001a0: 2238 c3bd 2d2a 983d 4794 8f3b 4847 5cbd
000001b0: 05de 8fba 4279 4e3d b143 a23b 79e9 cd3d
000001c0: 1d9b 06bd f441 c4bd 0210 d13d 919b 26bd
000001d0: 6d1b 8b3d 5e80 953d 9d7c 933c 8253 e5bd
000001e0: a1e2 02be 5414 473d 9e74 9a3c d861 803d
000001f0: 010c e8bd af48 28bd 2769 c83d 5c75 643d
00000200: 4523 d73d b2cc eb3d 6ef3 8cbc 6841 edbd
00000210: a3d7 82bd 602b 693d a981 f7bc 1641 523c
00000220: be03 003d 06d8 bc3d 72d2 9c3d 17d0 ac3d
00000230: 73ff 6cbc 71f8 b23d b2f4 6fbd f272 2cbd
00000240: d942 dfbb 6407 8cbd 27a7 f33d 9396 8dbb
00000250: 0215 483d 334e df3b 3c00 273c 08ac b1bd
00000260: 9699 4fbc ebdf d0bd d8fc 5fbd 730b e23d
00000270: 8f3e d5bd 87b3 133d 7808 f53c f6f8 d8bd
00000280: 43ee 043d 9a08 803d d58b d73d bea8 1a3d
00000290: 7b64 e23d cfd5 623c 6437 7a3d a70e 513d
000002a0: 1df9 a9bd 6218 18bd 33dc a2bd 9a1a c73d
000002b0: b74d ad3d 560a 22bd 5ed8 25bc 1bbc 3e3d
000002c0: ffd0 d3bd f877 9c3c f6ce 963d 7009 973c
000002d0: b969 613b 316a b33d 697a 3f3d 79db cbbd
000002e0: 8218 503d 6c27 abbd 535b ac3d ff12 e23d
000002f0: 4dd6 b3ba c5fb 0bbc e562 4fbd 2877 2dbd
00000300: 2834 bbbc 9257 0fbd bcf7 0b3e a3ca adbd
00000310: 2c39 743d bd94 cfbd d9b6 9e3d f167 ee3d
00000320: 964a a7bd 8d58 90bc 0509 0f3d a153 e6bd
00000330: d0b3 ccbd 5be3 753d 031d f13d 27b2 00bd
00000340: 08c1 1e3c 9872 eebd 96a0 eabd 8df8 fc3d
00000350: 5c79 ee3d 1b0f 00bd 6410 23bd 6de6 e6bc
00000360: 68d1 633d bfe8 e7bd b225 89bd 6064 e6bc
00000370: 9b1d 32bd a0a2 463c 3b62 c83d f9e4 b63c
00000380: 0a87 dabd 81ae f83d bedb e93d 9ba0 583d
00000390: 5b0d 923d 635f 5a3d 85a9 ea3d 1e6d dcbd
000003a0: 67fa 8dbd 3605 dabc 2fc5 79bc 4ef2 a9bd
000003b0: def6 f6bd a631 adbd 97ca 14bc 68eb ee3d
000003c0: 6dbb b23d e68d 523d fc72 83bd 0405 43bd
000003d0: 6b57 dc3c e11d e3bd 8d33 67bc b4fd 093d
000003e0: 26b5 b73d ffb0 97bc 0b68 0b3e 0fde 543c
000003f0: 59a7 ccbd 75f8 1a3e 38e1 f53d 99cd b5bd
-0.11856496 0.031567466 -0.09100249 -0.064732686 -0.047897857 0.021574622 0.043216843 -0.08080539
-0.02887663 0.0021220355 -0.06719385 0.024871826 0.026451608 -0.07593629 0.098334625 0.09504272
-0.02638536 0.017080802 0.02024107 -0.0024344032 -0.0733664 0.10962737 0.071316764 -0.11976373
-0.097610794 0.12630008 0.019904949 -0.0154481875 0.09574146 0.049789708 0.049957175 0.110047996
-0.0030640024 0.09740953 -0.0744316 -0.062396854 0.03135692 -0.008515502 0.08334882 -0.02110923
0.040163763 -0.02521743 0.09916122 -0.0079510715 0.017994987 0.10239674 0.13189201 0.1305526
-0.1192815 -0.055570424 -0.014640971 -0.02305261 0.086661905 0.061013877 -0.01467236 0.011550691
0.0063249986 0.121215135 0.078345634 -0.060067426 -0.08023989 0.061737362 -0.0009122464 -0.06997979
-0.12977305 0.0012248612 -0.04738468 -0.08103551 0.0148387095 0.107192546 0.09773509 0.06122421
-0.10606668 0.06015174 0.05634186 0.032879673 -0.043651544 -0.01588918 -0.06784446 -0.035546858
-0.030806934 -0.024084728 -0.1318605 0.02999766 -0.112419784 -0.10486315 0.04057919 -0.1125304
0.113791265 0.112323776 -0.050013572 -0.032611124 -0.104871735 -0.0069923205 0.008128033 -0.07614497
0.030448947 -0.016470168 -0.047343317 -0.011900725 -0.13239573 -0.09669835 0.0057021747 0.110252894
-0.09532191 0.074299194 0.0043816897 -0.053778917 -0.0010976201 0.05040861 0.004951917 0.10054297
-0.03286277 -0.09582892 0.102081314 -0.040675703 0.067923404 0.07299875 0.018003756 -0.111975685
-0.12781765 0.04860337 0.018854436 0.06268662 -0.113304146 -0.04108494 0.09785681 0.055775985
0.10504774 0.11513652 -0.01720592 -0.11584741 -0.06388786 0.05692613 -0.030213194 0.0128329005
0.03125357 0.09220891 0.07657327 0.084381275 -0.014465201 0.08738793 -0.05858297 -0.042101808
-0.006813389 -0.06837347 0.11897116 -0.0043209284 0.04884816 0.006814742 0.010192927 -0.086753905
-0.012670895 -0.10198959 -0.05468449 0.1103734 -0.10412323 0.036059882 0.029911265 -0.105943605
0.032453787 0.062516406 0.10524718 0.03775858 0.110543214 0.013844921 0.06108798 0.051039364
-0.08299468 -0.03713263 -0.07952156 0.09721871 0.084620886 -0.03956064 -0.010122387 0.04656611
-0.10342597 0.019100174 0.073636934 0.018437117 0.003439529 0.08760489 0.0467476 -0.099539705
0.050804622 -0.083571285 0.08415856 0.110387795 -0.0013720483 -0.008543913 -0.050631423 -0.042349964
-0.022852018 -0.034995623 0.13668722 -0.084859155 0.059624836 -0.101357915 0.07749719 0.11640919
-0.08168523 -0.01762035 0.03492071 -0.1124642 -0.09995234 0.060031276 0.11773112 -0.0314199
0.009689577 -0.11642951 -0.114564106 0.12352095 0.11644241 -0.031264406 -0.039810553 -0.028186047
0.055619627 -0.1132369 -0.06696643 -0.028124034 -0.043485265 0.012123734 0.09784361 0.02232598
-0.10670288 0.12142659 0.114188656 0.05288754 0.071314536 0.053313624 0.114581145 -0.10763
-0.06932526 -0.026613813 -0.015244766 -0.08298169 -0.12058805 -0.08456735 -0.009081504 0.11665994
0.08727155 0.051404856 -0.06418416 -0.047612205 0.026897153 -0.11089683 -0.014111412 0.033689216
0.08970098 -0.018517016 0.13613908 0.012992396 -0.099928565 0.15133841 0.12005848 -0.08877105

bias f4 [32]
00000000: 83da a23d c950 6cbd 4737 ad3d f6f7 f03d
00000010: aceb 743d b2e9 b43d a5ae 9cbd 86fd de3d
00000020: c660 a5bd 3068 a03d dc87 323d c984 903b
00000030: ed49 d63c 77d9 01be 0100 ef3d 79ed 3cbc
00000040: 79f1 d83d 807d a4bb 206f 1dbd 327d b83d
00000050: 488c cfb8 5f06 8fbd f318 d63c 9cd5 06be
00000060: c2f6 8abd 28f5 91bd f436 743c 1eac a0bd
00000070: 2f16 aebb 8e07 aabd fa5e e8bd ce90 b1bc
0.07951834 -0.05769423 0.08457809 0.11766045 0.059795067 0.08833636 -0.07650498 0.108881995
-0.08075099 0.07832372 0.043586597 0.0044103605 0.026158297 -0.12680613 0.116699226 -0.011531227
0.10592932 -0.0050198436 -0.038436055 0.09008254 -9.8966586e-05 -0.06983637 0.026134944 -0.13167423
-0.067853466 -0.07126838 0.01490568 -0.07845329 -0.005312703 -0.08302222 -0.1134624 -0.021675494

weight f4 [1, 32, 5, 5]
00000000: be6b a63b dcf3 d73c 8ec8 36bc 848b 0d3d
00000010: 33a0 c7bc fcac 573c b5f0 fcbc 799d 063d
00000020: 2f60 4bbc c067 a83c da65 2d3b 335f 59bc
00000030: 1eb7 f4bb 7ddd 48bc 17c5 b83c 9844 db3c
00000040: 6fb9 0d3d 0107 f4bb 4517 1fbc 5dbb 89bc
00000050: e4b4 c0ba 41c7 1b3c c3c5 feba da58 b3bc
00000060: 525d 683b ce03 0cb9 2e21 e0bc 7d05 0ebc
00000070: af7a 04ba 7bc1 08bd 574c bf3b aa31 2e3c
00000080: 39e7 1abb 7724 81bb 340a ec3a 9130 233c
00000090: ee01 83bc d306 18bb 3b37 ae3c 35e8 19bc
000000a0: 9514 6f3a 6e03 02bd 966b d4bc e917 1fbb
000000b0: 500e 38bc 6644 103d 1c00 dcbb 5c57 eabc
000000c0: 0f39 fe3c ebe4 b3bc 0334 fa3c e770 16bb
000000d0: 3b65 073c 949f 08bd 2fc4 083d 2808 6e3a
000000e0: b668 86bc a9a5 c3bc 97a6 fe3b 2245 03bd
000000f0: cca5 e13c b3c7 a93c 9d26 033d 3c8a 063d
00000100: f683 9fbc 8231 07bc 7260 bc3c e682 c43c
00000110: 534b 133d a64d 59bc 1f73 d13b 23b9 0139
00000120: 11dd b13c 44eb 82bc 5c8e 083d 0fb9 1abc
00000130: e150 983c 1b12 e33c ed60 0cbd cece f93b
00000140: 1f2d bebc 43ef 933c af4f 003d b6f0 26bc
00000150: 55b4 bbbc 40c0 8abc 8b20 ea3c f71a 99bb
00000160: def1 cebc eaaa f53c 1647 c63c 3af4 36bb
00000170: b6ba a73b be96 b03b 433d 103d f45a b03c
00000180: 399a f23b 267a f03a 36a6 4b3c 2f77 cdbc
00000190: 8aef a53c ddab 823c c971 aa3b 712b b13c
000001a0: 6b4a bbbb e4c8 ffbc 3307 e8bc 1518 0d3d
000001b0: b0dd 2cbc fd5b cabc 4e37 123d 1ca5 c3bc
000001c0: 6291 f43c dc93 053d fae8 5cbb ef9e b13c
000001d0: 18ba e63c 15ae 03bd b3e2 91bc 3634 bb3b
000001e0: a47d 473c 06b1 bcbc 855f e5bc 3b57 0f3d
000001f0: 3cce 7ebc bd2b 09bd f17d 873c b691 8cbc
00000200: 228f 39bc 5580 3abc e9cc 093d 5125 6d3c
00000210: 1723 123d 8fdd 3bbc 8564 da3c c4b2 e2bc
00000220: ffd5 b73c 2470 233b 7bd9 1a3b 3241 ff3c
00000230: d915 733b dbbc 65bc 954b 97bc 4a68 dd3b
00000240: 56da 30bc 8489 9a3c 29b5 e9bc fe4f babc
00000250: c272 023d 0a88 4fbc c6ae 08bd 1be7 d83c
00000260: aaf4 0fbc 6654 d0ba 023b a53c 903e 6e3c
00000270: 2500 00bd fe13 113c e085 0f3d 5d4c a3ba
00000280: 7c06 ec3c cc94 0b3d 31e3 833c b4ea fabc
00000290: a63e 043d ab59 fe3c ab26 613c 58a9 6739
000002a0: b56a b5bc ac07 223c fa32 16bc 9599 0e3d
000002b0: 2f90 03bd ec97 213c d1d5 bb3a bcc0 433a
000002c0: 57de 74bb 2fef 7f3c 4468 f3bc 884f 073c
000002d0: 4971 bbbc 0336 433c a50f 19bb 3d6b a83b
000002e0: cfb3 a83c a621 5bbc 3772 e3bc 3d75 81bc
000002f0: b8a0 f13c 3636 e6bc bd4b bd3c d424 41bc
00000300: bf88 273b 316d 783c 3f1a 41bc d2fe c1bc
00000310: a83c 4f3c a286 b43c 40cc 623c 0cdc 14ba
00000320: 4a1a 843b 2714 783c 0acc 3c3c 985a 8dbc
00000330: 14ec d13c b3ee 91bb 9e85 5fbc 666e 2abc
00000340: 00e7 a23b ddb6 94bc c5d6 cebc 5107 a63c
00000350: dbaa f03c 8ac0 0dbd dd6c ea3c effe a5bc
00000360: 105a 113c 7213 083d e8f5 b0bc bfa2 66bc
00000370: d48d 2e3c 574c b1bc 08e7 59bc 25f2 eebc
00000380: c042 953b 9831 bd3c b5f0 2b3c 4954 acbb
00000390: 047e 0d3d 5b7a ea3c 0729 95bc a720 ae3c
000003a0: d9b6 e7bb e3cc 4b3c c0c6 9f3b 7638 873c
000003b0: 89d3 8abc 8c03 83bc 2d9d 9cbc 0cfb b2bc
000003c0: 3ef6 68bc a9f7 1b3c 07fc 353c 72a8 fd3b
000003d0: c80d e03c 18a6 e43c 7d2a f23c f3c9 bc3c
000003e0: 71b0 473a 9859 243c 9733 87bc 9c74 fb3a
000003f0: cf0b 843b aef9 e1bc 0259 f73c 53e1 d4bb
0.005078762 0.026361398 -0.011156214 0.03455688 -0.024368381 0.013163801 -0.030876497 0.03286502
-0.012413069 0.020557284 0.0026458413 -0.013267326 -0.0074681183 -0.012259838 0.022554917 0.026766106
0.03460067 -0.007447124 -0.009710138 -0.016812975 -0.0014702347 0.009507955 -0.00194376 -0.021892954
0.0035456014 -0.00013352858 -0.027359571 -0.008668301 -0.00050536817 -0.033387642 0.005837958 0.010631958
-0.0023636355 -0.0039411145 0.0018008412 0.00996031 -0.015992131 -0.0023197427 0.02126657 -0.009393741
0.00091201934 -0.031741552 -0.025930207 -0.0024275726 -0.011233881 0.03522148 -0.00671388 -0.02860611
0.031033067 -0.021959743 0.03054238 -0.0022955479 0.008263881 -0.03335531 0.03339022 0.0009080195
-0.016407352 -0.023882704 0.007771324 -0.032048352 0.027544878 0.020725107 0.032019246 0.032846674
-0.019472104 -0.00825155 0.022995207 0.023988198 0.035960507 -0.013263142 0.0063918973 0.00012371367
0.021711858 -0.015981324 0.03333889 -0.0094435355 0.018593254 0.027718594 -0.034272123 0.00762353
-0.023214875 0.018058425 0.031325992 -0.010189226 -0.022913137 -0.016937375 0.02857997 -0.004672404
-0.025261816 0.029988725 0.024203818 -0.0027916566 0.005118693 0.0053890636 0.035214674 0.021527745
0.0074036387 0.001834695 0.0124297645 -0.025081245 0.020255823 0.015951091 0.0052015525 0.02162716
-0.0057156584 -0.031223722 -0.028323745 0.034446795 -0.010550901 -0.024702067 0.035697274 -0.023882441
0.02985448 0.032611713 -0.00337082 0.02168223 0.028164908 -0.03214844 -0.017808294 0.005713011
0.012175951 -0.02303363 -0.027999649 0.0349953 -0.0155521 -0.033488978 0.016539546 -0.017159324
-0.011325629 -0.011383136 0.033642683 0.014474229 0.035677996 -0.011466398 0.02665926 -0.027673133
0.022440908 0.0024938667 0.0023628164 0.031159017 0.003709188 -0.014022077 -0.018468658 0.006756817
-0.010794243 0.0188644 -0.028528767 -0.022743221 0.031847723 -0.012666712 -0.033369802 0.026477387
-0.00878636 -0.0015894293 0.020169739 0.014541283 -0.031250138 0.008854864 0.035039783 -0.0012458671
0.028811686 0.03407745 0.016099544 -0.030629493 0.03228631 0.031048616 0.013742129 0.00022092962
-0.022145608 0.009889524 -0.009167427 0.034814436 -0.032119926 0.009862881 0.001433069 0.00074673793
-0.003736397 0.015620991 -0.029712804 0.008258708 -0.022881167 0.011914733 -0.0023355272 0.005139737
0.020593552 -0.013374722 -0.027764423 -0.015802974 0.029495582 -0.028102022 0.023107404 -0.011788566
0.0025563685 0.015162752 -0.011786043 -0.023681078 0.012648739 0.022036854 0.013842642 -0.00056785415
0.004031454 0.015141523 0.011523256 -0.017255113 0.025625266 -0.004453504 -0.013642697 -0.010402298
0.004971385 -0.018153602 -0.025248894 0.02026716 0.029378345 -0.034607448 0.028616363 -0.020263163
0.00887157 0.03322167 -0.021601632 -0.014076888 0.010653932 -0.021642847 -0.013299711 -0.029168198
0.0045550764 0.023094937 0.010494401 -0.005259071 0.034544006 0.028622797 -0.01820804 0.021255804
-0.0070713577 0.0124389855 0.004875988 0.016506415 -0.016946571 -0.015992902 -0.019117916 -0.021848224
-0.014218865 0.009519496 0.011107451 0.0077410275 0.027350321 0.02791123 0.029561276 0.023045516
0.00076175394 0.010031126 -0.016504092 0.0019184533 0.004029728 -0.027584877 0.03019381 -0.0064965873
