SRCNN-master/model_2.pth (torch, 36296 bytes, 5 tensors)

weight f4 [64, 1, 9, 9]
-0.004255611 0.056227915 -0.094800696 -0.085122585 -0.04618218 0.026341295 -0.005706946 0.08465099
-0.013341971 0.025990129 -0.036936566 -0.025165757 -0.10947364 -0.07695161 -0.04924252 0.0006207789
0.04049036 0.06320177 -0.07873925 -0.051743582 0.037032664 0.088945456 -0.026223758 0.07971577
-0.021392737 0.008336489 0.097162396 -0.10653888 -0.07336677 -0.03151698 -0.046688285 0.09259904
-0.07548004 -0.05465392 -0.081064396 -0.107520424 -0.06860199 0.091799706 0.045887537 0.050171167
0.0021560008 -0.06068423 0.015050402 -0.10743027 -0.08399341 -0.06113191 0.066269524 0.061319128
-0.053096626 -0.007823716 0.06723598 0.10662111 0.040327918 0.011226443 0.07055479 -0.06935983
0.016766662 -0.09007799 -0.080932245 -0.061319333 0.046355292 0.04083823 -0.06967072 0.02956913
0.057001404 -0.01802265 0.00024845885 0.021763414 0.06495657 0.102722384 -0.08951512 -0.044614207
0.03965063 0.08804721 0.092674 0.09402897 0.018114423 -0.10061096 0.0062396303 -0.07341887
-0.10746384 0.11111306 0.096878245 -0.09843842 0.033200126 -0.0063169934 -0.0058791954 -0.038439162
0.055166744 -0.053444896 0.053128906 0.06858984 0.091946974 0.0539578 -0.09756134 -0.059661377
0.06790818 0.035695553 -0.07431282 -0.05158277 0.11692955 0.0872777 -0.03602985 -0.015549842
-0.09342039 0.010434425 -0.07123409 -0.07334371 0.006272095 0.02908216 -0.033095676 0.07834887
-0.055198055 0.11324717 0.08857579 -0.08126236 -0.015290532 0.017399335 0.028601198 0.038751237
0.05601394 0.019068228 -0.04178669 0.065004624 -0.09415406 -0.053496215 -0.015452402 -0.041760303
-0.026499573 -0.07868491 -0.011246541 0.036157664 -0.05997466 0.006710368 0.09188558 0.0009209046
0.015429047 0.0027613912 0.034847848 0.08301631 0.11764292 0.08296273 0.1179005 0.004307937
-0.08751734 -0.040386837 0.08794685 0.011584943 -0.04291108 -0.072839804 -0.09164312 -0.08147312
-0.01028466 0.07321545 0.07234114 -0.09488904 0.08159382 -0.07464819 -0.011202901 -0.032724623
-0.009094424 -0.009557447 -0.09205345 -0.08828229 -0.009724396 0.009105857 -0.04279768 0.049523793
-0.09234563 0.00015693475 0.105368085 -0.03766227 0.10799828 0.04791341 -0.09259084 0.07799072
-0.00514076 -0.04192893 0.096515305 -0.08212495 0.019593017 -0.015584372 0.08703708 0.038717497
0.061098672 0.04693622 -0.019035222 -0.015692024 -0.08389129 0.06788205 0.095907316 0.0837267
-0.070662335 0.012675567 -0.07062223 -0.053477276 -0.05706844 0.0456469 -0.058549434 0.005249043
0.012361279 0.07932325 -0.07628603 -0.06859296 -0.05685167 0.08542405 -0.032287065 0.10137159
0.047837675 0.021740757 0.0068545276 -0.014277146 0.021607656 -0.017726302 0.006851857 0.021810979
-0.079277955 -0.050595906 0.09737257 -0.082512535 -0.00031546407 0.11755643 0.04775676 0.0107534705
-0.088679574 0.062667936 -0.07150976 -0.023899296 -0.029632643 -0.008805623 0.008841431 0.09925099
0.02146638 0.107120365 0.075592875 -0.06261511 0.05747224 -0.07090115 -0.039447915 0.040302552
0.044291988 0.0909535 -0.028170284 0.00077021 0.057930622 -0.10641336 0.08168561 -0.09040572
0.0029266907 -0.017554302 -0.05704569 0.016331958 0.09232788 -0.0319333 -0.065157965 -0.040068936
00000000: a772 8bbb 3e4f 663d de26 c2bd c054 aebd
00000010: 8729 3dbd b3c9 d73c 5501 bbbb 805d ad3d
00000020: 4898 5abc 40e9 d43c cc4a 17bd 6b28 cebc
00000030: b733 e0bd ce98 9dbd 86b2 49bd c4bb 223a
00000040: 38d9 253d ee6f 813d 0b42 a1bd 14f1 53bd
00000050: 90af 173d 0929 b63d 35d3 d6bc 0642 a33d
00000060: d23f afbc c595 083c 14fd c63d 0e31 dabd
00000070: 5141 96bd f317 01bd 373c 3fbd 91a4 bd3d
00000080: 4795 9abd cadc 5fbd 1705 a6bd ab33 dcbd
00000090: 337f 8cbd 7c01 bc3d 92f4 3b3d 4880 4d3d
000000a0: b14b 0d3b 0790 78bd f695 763c 6704 dcbd
000000b0: bd04 acbd 7465 7abd 51b8 873d c429 7b3d
000000c0: d97b 59bd 0b2f 00bc 04b3 893d 2b5c da3d
000000d0: e32e 253d 1def 373c 087f 903d 870c 8ebd
000000e0: 3d5a 893c cf7a b8bd cebf a5bd fb29 7bbd
000000f0: 0cdf 3d3d fd45 273d 86af 8ebd f63a f23c
00000100: 4e7a 693d 3da4 93bc 9543 8239 3049 b23c
00000110: f307 853d 1d60 d23d b453 b7bd 63bd 36bd
00000120: b368 223d 1852 b43d decb bd3d 4392 c03d
00000130: b364 943c 1e0d cebd d075 cc3b a25c 96bd
00000140: 0016 dcbd 3e8f e33d 1a68 c63d 159a c9bd
00000150: dbfc 073d c8fe cebb 44a6 c0bb 6272 1dbd
00000160: 86f6 613d 09e9 5abd b29d 593d d478 8c3d
00000170: b24e bc3d db02 5d3d 3dce c7bd 7d5f 74bd
00000180: 7213 8b3d 8035 123d 5231 98bd 7448 53bd
00000190: c378 ef3d a7be b23d 0994 13bd c4c4 7ebc
000001a0: 3053 bfbd 27f5 2a3c 2ee3 91bd 3a35 96bd
000001b0: 2586 cd3b b63d ee3c 558f 07bd 5f75 a03d
000001c0: 5b17 62bd 22ee e73d 3967 b53d e16c a6bd
000001d0: 2485 7abc 0d89 8e3c 0f4d ea3c 9eb9 1e3d
000001e0: e06e 653d f934 9c3c 8528 2bbd 2521 853d
000001f0: d8d3 c0bd d91e 5bbd 122c 7dbc da0c 2bbd
00000200: a215 d9bc 8e25 a1bd 6943 38bc 0f1a 143d
00000210: fda7 75bd a6e2 db3b 822e bc3d dd68 713a
00000220: 1dca 7c3c 75f8 343b 9ebc 0e3d 7504 aa3d
00000230: c5ee f03d 5de8 a93d d175 f13d 9829 8d3b
00000240: 4b3c b3bd ab6c 25bd 7a1d b43d c6ce 3d3c
00000250: 87c3 2fbd 092d 95bd 63af bbbd 61db a6bd
00000260: fe80 28bc fbf1 953d 9727 943d 2f55 c2bd
00000270: a91a a73d 26e1 98bd 5f8c 37bc 410a 06bd
00000280: c700 15bc d796 1cbc 8586 bcbd 58cd b4bd
00000290: 1353 1fbc bc30 153c 9f4c 2fbd 76d9 4a3d
000002a0: b51f bdbd da8e 2439 39cb d73d c143 1abd
000002b0: 342e dd3d da40 443d 44a0 bdbd 99b9 9f3d
000002c0: d273 a8bb abbd 2bbd d1a9 c53d 2031 a8bd
000002d0: 8981 a03c 9855 7fbc 7f40 b23d 3d96 1e3d
000002e0: 9a42 7a3d 3240 403d c1ef 9bbc 8f8c 80bc
000002f0: 32cf abbd bf05 8b3d 0e6b c43d e778 ab3d
00000300: 6ab7 90bd 2ead 4f3c 63a2 90bd fd0a 5bbd
00000310: 99c0 69bd 3ef8 3a3d 88d1 6fbd 2a00 ac3b
00000320: f686 4a3c 3a74 a23d da3b 9cbd 777a 8cbd
00000330: 4cdd 68bd cef2 ae3d 713f 04bd e89b cf3d
00000340: 70f1 433d ac19 b23c f29b e03b b1ea 69bc
00000350: 8a02 b13c c036 91bc 8b85 e03b f0ac b23c
00000360: 7b5c a2bd a73d 4fbd 456b c73d 55fc a8bd
00000370: df64 a5b9 6dc1 f03d 989c 433d 532f 303c
00000380: a39d b5bd 0c58 803d b673 92bd 75c8 c3bc
00000390: 28c0 f2bc 7645 10bc a6db 103c 1a44 cb3d
000003a0: 43da af3c ec61 db3d 70d0 9a3d 5a3c 80bd
000003b0: 0368 6b3d 9f34 91bd 2394 21bd 4a14 253d
000003c0: 846b 353d d445 ba3d 5ec5 e6bc ebe7 493a
000003d0: a948 6d3d 3fef d9bd c94a a73d a226 b9bd
000003e0: b9cd 3f3b 0ace 8fbc bea8 69bd 99ca 853c
000003f0: 6616 bd3d 7ecc 02bd 8a71 85bd 531f 24bd

bias f4 [64]
0.05844136 -0.03994966 0.06984901 0.009033749 0.06542358 0.116908535 -0.08787164 0.11332858
0.083239295 -0.07835951 0.027222253 -0.09247768 0.03350736 0.028877208 -0.1057826 0.03117976
-0.023506101 0.10673024 0.10266064 0.049465235 0.09822251 0.037041113 0.10781912 -0.013022548
0.024174921 -0.02078043 -0.004301729 -0.024094023 -0.041845575 0.076442376 0.054641545 -0.053383198
-0.10362167 0.051930044 -0.0926465 0.005382944 -0.08976141 0.08698965 0.09987017 -0.082808636
-0.101285286 -0.06799872 0.026103912 -0.055169325 -0.027161468 -0.022860678 0.02860415 -0.043568365
0.04619199 -0.06867543 -0.0012908207 0.088793315 -0.05049393 0.08042243 0.0544286 -0.040425636
0.03823999 -0.06667771 0.01889671 0.02753811 0.0906306 -0.06336734 -0.056014393 -0.055735853
00000000: 3560 6f3d 41a2 23bd ff0c 8f3d 4a02 143c
00000010: ccfc 853d be6d ef3d 0cf6 b3bd d118 e83d
00000020: 5d79 aa3d f37a a0bd 3401 df3c f064 bdbd
00000030: 033f 093d e58f ec3c 8ca4 d8bd b26c ff3c
00000040: de8f c0bc 6295 da3d be3f d23d 0f9c 4a3d
00000050: e228 c93d 6cb8 173d 45d0 dc3d 865c 55bc
00000060: 7c0a c63c b83b aabc 85f5 8cbb d460 c5bc
00000070: 4466 2bbd d28d 9c3d d0cf 5f3d 57a8 5abd
00000080: 9937 d4bd 99b4 543d 73bd bdbd 6863 b03b
00000090: d5d4 b7bd a127 b23d bb88 cc3d 9397 a9bd
000000a0: a96e cfbd ea42 8bbd dfd7 d53c 3bf9 61bd
000000b0: ba81 debc 5146 bbbc 4053 ea3c be74 32bd
000000c0: d033 3d3d b4a5 8cbd c130 a9ba 45d9 b53d
000000d0: b9d2 4ebd 84b4 a43d 86f0 5e3d 5a95 25bd
000000e0: 89a1 1c3d 538e 88bd 46cd 9a3c 9a97 e13c
000000f0: 899c b93d bcc6 81bd 596f 65bd 474b 64bd

weight f4 [32, 64, 1, 1]
-0.117037036 0.02877458 -0.09240705 -0.03786729 -0.048395693 0.019234052 0.042206276 -0.08176783
-0.03006463 -0.00028365245 -0.06729772 0.03231225 0.047264565 -0.07660354 0.098293446 0.09484591
-0.028019594 0.023002734 0.020258343 -0.004975186 -0.07457458 0.10862358 0.07026382 -0.10120423
-0.09410155 0.12623304 0.021714525 -0.01767893 0.09446413 0.048285536 0.05012822 0.10506315
-0.004334996 0.11698493 -0.07664242 -0.06470453 0.029630145 -0.008796065 0.08181639 -0.023392187
0.027017057 -0.022010483 0.09906685 -0.007986127 0.0068730996 0.10096294 0.13075916 0.12878564
-0.11886207 -0.058671135 -0.016330741 -0.02146612 0.08438807 0.060758594 -0.0069698384 0.010529843
0.028198777 0.11892448 0.07645179 -0.059726253 -0.064259484 0.03938921 -0.00283005 -0.07169521
-0.12911987 0.0061182408 -0.04526238 -0.07273197 0.015640076 0.111005805 0.09792594 0.06286529
-0.10296374 0.06278125 0.057002816 0.03442152 -0.03348089 -0.010666822 -0.067844115 -0.035436023
-0.029013287 -0.023995142 -0.13153139 0.03361461 -0.11063771 -0.10191088 0.042383384 -0.10526913
0.114892274 0.112441845 -0.04759597 -0.030291853 -0.103663325 -0.0030414637 0.013019703 -0.07589501
0.03201596 -0.0048106313 -0.04520223 -0.009388937 -0.12987204 -0.09592225 0.007912781 0.1122952
-0.08255696 0.07505643 0.0049216687 -0.053778917 0.00013695657 0.051798087 0.006605683 0.10235135
-0.031787675 -0.09275845 0.10431129 -0.04061076 0.07098324 0.07450923 0.018331556 -0.11064613
-0.12765968 0.05075275 0.021494463 0.06420917 -0.11329143 -0.023606302 0.099664025 0.05758345
0.107811525 0.11077827 -0.019007077 -0.08896971 -0.065083414 0.05463795 -0.04124978 0.011058888
0.028962014 0.08959227 0.07584956 0.07942933 0.0063745785 0.0825809 -0.058533654 -0.04239338
-0.008698196 -0.06713005 0.11782864 -0.006855578 0.047130078 0.0039220215 0.008593885 -0.06398752
-0.006734637 -0.10258415 -0.055796485 0.108087145 -0.10588891 0.032965284 0.02768513 -0.113228805
0.030315932 0.056619495 0.1024883 0.035357684 0.10782483 0.012987328 0.05888202 0.048682768
-0.08401826 -0.026293382 -0.08145661 0.097477145 0.06687325 -0.0419197 -0.012011897 0.044399936
-0.104021095 0.015656697 0.07138435 0.020001866 0.0005938337 0.085924 0.056840107 -0.101336814
0.07352593 -0.08705476 0.082280725 0.11007785 0.013036162 -0.035111174 -0.053155657 -0.044983283
-0.019377932 -0.039218616 0.1350834 -0.057852715 0.059057336 -0.103740185 0.07018033 0.11518337
-0.083024025 -0.020157453 0.034673348 -0.114122495 -0.07811412 0.05532962 0.11772311 -0.031541366
0.008218652 -0.11543158 -0.114959404 0.12098746 0.115186706 -0.03262972 -0.040931106 -0.005457772
0.060545217 -0.11348934 -0.066839285 -0.030233137 -0.04477806 0.009237726 0.0964606 0.03234896
-0.10794312 0.11450514 0.11174473 0.050692182 0.06934488 0.05291204 0.112733364 -0.1096717
-0.06869527 -0.0152448295 -0.017474335 -0.08278711 -0.1231407 -0.08624522 -0.010405139 0.11512184
0.08684444 0.047980145 -0.06607239 -0.04606663 0.02415476 -0.111545675 -0.0033638603 0.03273763
0.112471335 -0.021667402 0.13436419 0.012969896 -0.085310556 0.12475185 0.11807965 -0.09049371
00000000: 1db1 efbd abb8 eb3c e83f bdbd bb1a 1bbd
00000010: 903a 46bd bb90 9d3c 7de0 2c3d e475 a7bd
00000020: 194a f6bc 30b7 94b9 63d3 89bd da59 043d
00000030: 7d98 413d 51e2 9cbd 134e c93d 933e c23d
00000040: 5989 e5bc 3b70 bc3c d3f4 a53c e306 a3bb
00000050: 8fba 98bd 0a76 de3d 7ae6 8f3d 2a44 cfbd
00000060: 50b8 c0bd 3c43 013e a9e2 b13c 67d3 90bc
00000070: 6976 c13d 0ec7 453d 4053 4d3d 592b d73d
00000080: 950c 8ebb cc95 ef3d b3f6 9cbd cf83 84bd
00000090: ebba f23c 5f1d 10bc 5a8f a73d f9a0 bfbc
000000a0: e052 dd3c 544f b4bc 90e3 ca3d 3fd8 02bc
000000b0: bd37 e13b a8c5 ce3d bbe5 053e 62e0 033e
000000c0: f56d f3bd 2551 70bd 0cc8 85bc b7d9 afbc
000000d0: a7d3 ac3d 01de 783d 3e63 e4bb 5d85 2c3c
000000e0: 1f01 e73c ae8e f33d c292 9c3d 84a3 74bd
000000f0: 7a9a 83bd 9556 213d 5c78 39bb f0d4 92bd
00000100: 0038 04be 867b c83b 0c65 39bd 80f4 94bd
00000110: 9e1f 803c 0357 e33d 658d c83d 84bf 803d
00000120: a7de d2bd 7593 803d c97b 693d 94fd 0c3d
00000130: 4223 09bd e5c3 2ebc dbf1 8abd 5d25 11bd
00000140: 46ad edbc 7691 c4bc 2ab0 06be 79af 093d
00000150: 0696 e2bd a7b6 d0bd 339a 2d3d 5797 d7bd
00000160: a44c eb3d e947 e63d fef3 42bd 9f26 f8bc
00000170: 704d d4bd 4b53 47bb 9850 553c d86e 9bbd
00000180: 2b23 033d 80a2 9dbb f925 39bd 0ed4 19bc
00000190: 2dfd 04be e272 c4bd 9ca4 013c 07fb e53d
000001a0: a013 a9bd 30b7 993d f345 a13b 4847 5cbd
000001b0: 009c 0f39 3b2a 543d 7c74 d83b 969d d13d
000001c0: cb33 02bd 24f8 bdbd 28a1 d53d 7857 26bd
000001d0: a95f 913d 4c98 983d 0f2c 963c 709a e2bd
000001e0: 38b9 02be 1ee2 4f3d 2815 b03c 1980 833d
000001f0: 5605 e8bd 0162 c1bc a71c cc3d a0dc 6b3d
00000200: 4acc dc3d b8df e23d bbb4 9bbc c035 b6bd
00000210: 744a 85bd 0bcc 5f3d 88f5 28bd 5730 353c
00000220: bf41 ed3c 277c b73d 0457 9b3d d8ab a23d
00000230: d7e1 d03b 2d20 a93d fcc0 6fbd aea4 2dbd
00000240: e182 0ebc 7b7b 89bd 2450 f13d c2a4 e0bb
00000250: 780b 413d 4d84 803b 5ecd 0c3c e40b 83bd
00000260: 3bae dcbb a417 d2bd db8a 64bd cb5c dd3d
00000270: 49dc d8bd 9b06 073d edcb e23c 81e4 e7bd
00000280: 1e59 f83c d8e9 673d 63e5 d13d 38d3 103d
00000290: 44d3 dc3d cdc8 543c 462e 713d 9567 473d
000002a0: c411 acbd 3865 d7bc b9d2 a6bd 19a2 c73d
000002b0: d8f4 883d feb3 2bbd 8ccd 44bc b5dc 353d
000002c0: 0309 d5bd 7942 803c f531 923d f4da a33c
000002d0: 81ab 1b3a ecf8 af3d 2cd1 683d ad89 cfbd
000002e0: c394 963d c449 b2bd cc82 a83d 7f70 e13d
000002f0: a095 553c bcd0 0fbd bfb9 59bd 6440 38bd
00000300: 78be 9ebc b3a3 20bd 4e53 0a3e f8f6 6cbd
00000310: 1be6 713d bc75 d4bd b4ba 8f3d 42e5 eb3d
00000320: 8008 aabd 3e21 a5bc a405 0e3d 0eb9 e9bd
00000330: 4cfa 9fbd 50a1 623d d018 f13d 8531 01bd
00000340: 86a7 063c 6467 ecbd d66f ebbd 46c8 f73d
00000350: 02e7 eb3d bea6 05bd 60a7 27bd 1cd7 b2bb
00000360: 43fe 773d 196d e8bd 09e3 88bd 7cab f7bc
00000370: 3369 37bd d559 173c 238d c53d 5880 043d
00000380: 4811 ddbd ac81 ea3d 6cda e43d 9ba2 4f3d
00000390: b004 8e3d 4cba 583d c0e0 e63d 8e9b e0bd
000003a0: 1bb0 8cbd 73c5 79bc 5626 8fbc 4a8c a9bd
000003b0: 3131 fcbd 55a1 b0bd 517a 2abc 00c5 eb3d
000003c0: 7fdb b13d d486 443d f650 87bd 5db0 3cbd
000003d0: 34e0 c53c 0f72 e4bd 3674 5cbb e517 063d
000003e0: 5f57 e63d d67f b1bc c496 093e b07f 543c
000003f0: 4db7 aebd e67d ff3d bed3 f13d c454 b9bd

bias f4 [32]
0.07900594 -0.05633206 0.08367033 0.1170835 0.059128523 0.08720209 -0.08813529 0.10908979
-0.079839826 0.077868834 0.042378243 0.0041673607 0.026033413 -0.12667316 0.1158761 -0.009477706
0.10588605 -0.004620641 -0.04031688 0.0889945 0.0040531154 -0.07077923 0.025390407 -0.13096106
-0.068854444 -0.09516141 0.014291286 -0.07941109 -0.005488865 -0.084367596 -0.11336437 -0.021489702
00000000: decd a13d 72bc 66bd 5a5b ab3d 79c9 ef3d
00000010: c030 723d 0297 b23d 4680 b4bd 786a df3d
00000020: 1083 a3bd b279 9f3d cf94 2d3d 5b8e 883b
00000030: 0644 d53c 9cb6 01be 7350 ed3d 6148 1bbc
00000040: c9da d83d bf68 97bb 5023 25bd c042 b63d
00000050: ffcf 843b b3f4 90bd 8bff cf3c a81a 06be
00000060: 8f03 8dbd fce3 c2bd ff25 6a3c 48a2 a2bd
00000070: f0db b3bb ebc8 acbd 942b e8bd 2c0b b0bc

weight f4 [1, 32, 5, 5]
0.0049939365 0.026270766 -0.01125806 0.03446491 -0.024450239 0.013068859 -0.030977372 0.0327542
-0.012512199 0.020469945 0.0025328628 -0.013386935 -0.0075968686 -0.012375735 0.02245207 0.026651973
0.034479287 -0.0075769634 -0.0098259775 -0.016914465 -0.001588466 0.009382207 -0.0020775618 -0.022012416
0.003440799 -0.0002476843 -0.027471356 -0.008795289 -0.00062864326 -0.03351821 0.0057185693 0.01051615
-0.0024937198 -0.0040675323 0.0016668072 0.009817216 -0.016129706 -0.0024688183 0.02112118 -0.009546252
0.0007553827 -0.031891525 -0.026090484 -0.002583403 -0.011395925 0.035132766 -0.0067990343 -0.02870901
0.030938266 -0.022061111 0.030348865 -0.0025039688 0.008028564 -0.03358387 0.033167586 0.0006879408
-0.016642964 -0.024144353 0.0075179334 -0.032294586 0.027297808 0.020462576 0.031731103 0.03256725
-0.019744063 -0.008489227 0.022742504 0.023709664 0.035690885 -0.013525 0.0061672777 -0.00011501554
0.021447338 -0.016236529 0.033092234 -0.009558914 0.018469168 0.027583493 -0.034405965 0.007491954
-0.023334362 0.017929232 0.031184271 -0.010330542 -0.023051925 -0.017060496 0.028446369 -0.004819638
-0.025409048 0.029844675 0.02408871 -0.0029177445 0.0049784607 0.005249072 0.035078924 0.02141513
0.007280019 0.0016973603 0.0122936 -0.025212036 0.020130085 0.01581482 0.0050528646 0.021480294
-0.0058600088 -0.03135396 -0.028464882 0.034293074 -0.010702882 -0.024851864 0.035558026 -0.024032442
0.029691802 0.032450363 -0.0035307158 0.021547833 0.028020209 -0.032305982 -0.017965037 0.0055570016
0.01204425 -0.023174893 -0.028153453 0.03484213 -0.015704822 -0.033588238 0.0164292 -0.017282587
-0.011442357 -0.011503903 0.033534218 0.014352617 0.03554127 -0.011598112 0.026523385 -0.02779162
0.022308452 0.0023447212 0.0022172823 0.031008957 0.0036052142 -0.014139358 -0.018603189 0.0066247983
-0.010931954 0.018771978 -0.028632121 -0.022862973 0.031729933 -0.012791694 -0.034064665 0.026099812
-0.008776085 0.00011425672 0.021813078 0.012741684 -0.032972634 0.007293504 0.034749247 -0.0015823581
0.026650181 0.03192189 0.013980769 -0.032191083 0.030785834 0.028858714 0.011542903 -0.0019643859
-0.02387875 0.0082358075 -0.0113460235 0.032627895 -0.034300413 0.008086693 -0.0003117227 0.00075740006
-0.0037300247 0.015627833 -0.0296941 0.008274377 -0.022876188 0.0119148735 -0.002335418 0.0051520015
0.020603769 -0.013388093 -0.027783554 -0.015822755 0.029488498 -0.028108967 0.023091307 -0.011812151
0.002531431 0.015151812 -0.011793862 -0.023685424 0.012635611 0.022022214 0.013843226 -0.0005622332
0.0041106897 0.01514317 0.011494196 -0.01730449 0.025669048 -0.0043857363 -0.013630633 -0.0104226945
0.0049296804 -0.018100936 -0.025356168 0.020151667 0.029266236 -0.034726918 0.028538387 -0.020348549
0.0087776305 0.03312791 -0.021703208 -0.014139132 0.01060286 -0.021703752 -0.013365537 -0.029244393
0.0045115086 0.022972718 0.010367672 -0.005393706 0.034412526 0.028493002 -0.018335037 0.021123514
-0.007212486 0.012300299 0.00473882 0.01637342 -0.017085522 -0.016141636 -0.019264916 -0.021993881
-0.014346584 0.009385349 0.010962855 0.007597718 0.027208287 0.027786126 0.02942961 0.022903226
0.0006207177 0.009891514 -0.016697189 0.001700204 0.0037887092 -0.027798148 0.030043976 -0.0067227352
00000000: 2da4 a33b ca35 d73c ba73 38bc 142b 0d3d
00000010: de4b c8bc c51e 563c 42c4 fdbc 4529 063d
00000020: f7ff 4cbc 96b0 a73c 63fe 253b e054 5bbc
00000030: 27ef f8bb 98c3 4abc 67ed b73c 3d55 da3c
00000040: 273a 0d3d 2d48 f8bb 23fd 20bc 3490 8abc
00000050: 1334 d0ba d4b7 193c b427 08bb 6253 b4bc
00000060: 077f 613b a0db 81b9 9c0b e1bc 1e1a 10bc
00000070: 89cb 24ba 644a 09bd d662 bb3b ee4b 2c3c
00000080: ad6d 23bb ef48 85bb c578 da3a 63d8 203c
00000090: 7222 84bc e6cb 21bb 5306 ad3c e267 1cbc
000000a0: e004 463a b0a0 02bd b6bb d5bc 4f4e 29bb
000000b0: f9b5 3abc 60e7 0f3d 6fca debb 282f ebbc
000000c0: 3f72 fd3c 81b9 b4bc 2f9e f83c a019 24bb
000000d0: 3d8a 033c 3d8f 09bd bcda 073d ed56 343a
000000e0: d356 88bc 61ca c5bc ff58 f63b 5447 04bd
000000f0: a79f df3c 22a1 a73c 79f8 013d 3d65 053d
00000100: 4dbe a1bc 6616 0bbc 7d4e ba3c c53a c23c
00000110: 9b30 123d f697 5dbc e016 ca3b 7f34 f1b8
00000120: 54b2 af3c 7802 85bc b98b 073d fe9c 1cbc
00000130: a74c 973c c7f6 e13c 45ed 0cbd 117f f53b
00000140: b427 bfbc 53e0 923c 2876 ff3c 6f41 29bc
00000150: 64d7 bcbc 74c2 8bbc 5c08 e93c 0eee 9dbb
00000160: a326 d0bc d27c f43c b055 c53c a137 3fbb
00000170: 5b22 a33b 6800 ac3b ebae 0f3d c86e af3c
00000180: 3a8d ee3b f679 de3a 186b 493c 7989 cebc
00000190: d9e7 a43c 158e 813c 8092 a53b 71f7 af3c
000001a0: 5105 c0bb 036d 00bd 2f2f e9bc e576 0c3d
000001b0: 245b 2fbc 2396 cbbc 4ba5 113d afdf c4bc
000001c0: 393c f33c acea 043d 9563 67bb 1585 b03c
000001d0: a38a e53c 4753 04bd 6a2b 93bc 8217 b63b
000001e0: 3f55 453c 46d9 bdbc 12a2 e6bc 9fb6 0e3d
000001f0: 66a7 80bc d293 09bd 8896 863c 3694 8dbc
00000200: b978 3bbc de7a 3cbc 2d5b 093d 3d27 6b3c
00000210: b993 113d 0206 3ebc 9247 d93c 40ab e3bc
00000220: 37c0 b63c e5a9 193b d34f 113b 7f06 fe3c
00000230: 7545 6c3b c4a8 67bc b765 98bc d614 d93b
00000240: f01b 33bc b1c7 993c e98d eabc 214b bbbc
00000250: 3ff7 013d 4194 51bc 6487 0bbd 46cf d53c
00000260: 92c9 0fbc 1c9d ef38 57b1 b23c 7fc2 503c
00000270: 500e 07bd 59fe ee3b 3a55 0e3d 2167 cfba
00000280: 7b51 da3c 87c0 023d 980f 653c ccda 03bd
00000290: 9332 fc3c 1c69 ec3c 721e 3d3c edbc 00bb
000002a0: 5e9d c3bc 7bef 063c ace4 39bc d4a4 053d
000002b0: 977e 0cbd 0c7e 043c b66e a3b9 428c 463a
000002c0: 6e73 74bb f105 803c 0b41 f3bc 4191 073c
000002d0: d866 bbbc 9a36 433c d00d 19bb 1fd2 a83b
000002e0: 3cc9 a83c bb59 5bbc 569a e3bc b99e 81bc
000002f0: dd91 f13c c744 e6bc fb29 bd3c c187 41bc
00000300: 5de6 253b 4e3f 783c 0b3b 41bc ef07 c2bc
00000310: 9805 4f3c ee67 b43c b3ce 623c d562 13ba
00000320: f7b2 863b 0f1b 783c 2752 3c3c 25c2 8dbc
00000330: e547 d23c 39b6 8fbb 0553 5fbc f3c3 2abc
00000340: 2889 a13b 6a48 94bc bdb7 cfbc 1c15 a53c
00000350: bfbf ef3c d03d 0ebd 56c9 e93c 00b2 a6bc
00000360: 0dd0 0f3c 22b1 073d edca b1bc d1a7 67bc
00000370: 9eb7 2d3c 11cc b1bc 20fb 5abc f091 efbc
00000380: 47d5 933b 4831 bc3c 2bdd 293c afbd b0bb
00000390: 26f4 0c3d 286a e93c 5c33 96bc 380b ad3c
000003a0: b856 ecbb 3187 493c 1a48 9b3b 8d21 863c
000003b0: f0f6 8bbc 773b 84bc 75d1 9dbc 832c b4bc
000003c0: ef0d 6bbc 02c5 193c 8c9d 333c 47f6 f83b
000003d0: eae3 de3c bb9f e33c 5e16 f13c 8c9f bb3c
000003e0: a9b7 223a 0410 223c 8bc8 88bc 61d9 de3a
000003f0: fe4b 783b f1b8 e3bc c91e f63c 644a dcbb
