SRCNN-master/model_10.pth (torch, 36626 bytes, 5 tensors)

weight f4 [64, 1, 9, 9]
00000000: 0404 a5bb 50b8 633d 0a2f c3bd 5548 afbd
00000010: b472 3fbd 45dd d13c 7444 d4bb b680 ac3d
00000020: 89d6 5fbc efaf ce3c dd83 19bd 61f8 d0bc
00000030: 49ca e0bd 1982 9ebd 5fa1 4cbd 0cc9 58b9
00000040: 2ad5 233d 67a7 803d 11cc a2bd 99e4 55bd
00000050: 92d2 163d 53ed b53d 0b2b d9bc bdf8 a13d
00000060: 7df4 b5bc 397c ff3b a312 c63d 52e4 dbbd
00000070: 2c67 97bd 624b 02bd 5ae6 3fbd f315 bd3d
00000080: e8ca 9bbd 8f3f 63bd 8d4a a7bd 2f68 ddbd
00000090: 889e 89bd f220 bf3d 56bb 423d a0ab 543d
000000a0: f0d0 7f3b 290f 72bd 9733 873c 3b60 d8bd
000000b0: 2f0c a8bd e788 77bd fe14 893d dab9 7d3d
000000c0: b1e6 56bd c2e5 e9bb 0221 8b3d 04d4 db3d
000000d0: 57bc 293d b472 4d3c d1fd 903d 85d8 8dbd
000000e0: eccc 883c aacd b8bd 06fe a5bd 1549 7bbd
000000f0: b53f 3e3d 3288 293d 390f 8dbd 6dbc f33c
00000100: 148b 693d f923 95bc af4b 86b8 15c4 af3c
00000110: 2291 843d aa33 d23d 1386 b6bd 281c 34bd
00000120: 5b01 243d 58d7 b43d 98fb bd3d 4885 c03d
00000130: 010d 943c 420f cebd 7eda cf3b cf38 95bd
00000140: 357d dabd 2957 e53d 420e c93d 5066 c5bd
00000150: 5065 113d e133 86bb 9431 8fbb e014 19bd
00000160: 24c3 643d 36b8 58bd f6a9 5f3d 28c2 903d
00000170: e091 c23d 08fb 6a3d 0d11 c1bd ac57 6abd
00000180: 03e5 8e3d b9cb 173d 11e7 95bd be85 49bd
00000190: 910d f63d 2cd0 bb3d 5c9e febc 4da2 2fbc
000001a0: bb6d b7bd 9c65 5d3c e5f7 8cbd 3110 92bd
000001b0: 33ad 1d3c 77dc 083d ca24 e0bc b69e ad3d
000001c0: 80f9 47bd 6cdc f23d f762 be3d 3331 9fbd
000001d0: 23ea 48bc 717e af3c 50cf 093d 885e 393d
000001e0: 499f 813d 3108 d83c 996f 11bd c1e1 8f3d
000001f0: 9c0a b8bd dee7 4bbd f1ec 45bc b54f 19bd
00000200: cd45 aabc d2f4 93bd a7c4 9bbb 55ba 2a3d
00000210: 231c 63bd 156c 283c 4351 c23d 0e80 643b
00000220: 02f6 993c b5a3 ef3b edbd 233d 8c98 b43d
00000230: 2cb9 f93d 18f5 b03d a5c9 f63d de48 d23b
00000240: 0c88 afbd 798d 1bbd 13ff ba3d 625d 7b3c
00000250: b15e 20bd 1814 8fbd f1fa b6bd 6c8b a3bd
00000260: 2c1d 14bc 1fc0 983d c0d5 973d 661f bdbd
00000270: 9ad3 ac3d e639 93bd ca13 16bc 36d5 ffbc
00000280: bf5c 05bc 5a3e 11bc 4739 bcbd f949 b4bd
00000290: 4a00 18bc 95df 1e3c 2bae 2cbd a2d7 4c3d
000002a0: adb6 bcbd 57a4 e239 3f6c d83d 35ca 18bd
000002b0: b93e de3d e968 473d 8db4 bbbd 9fb2 a13d
000002c0: fabd 8fbb 4812 2abd a490 c63d f741 a7bd
000002d0: 63cb a53c 8b2f 71bc dda6 b43d 9e30 243d
000002e0: f6dd 7f3d 2bb1 443d 7498 96bc 6db2 76bc
000002f0: b97c aabd 88b2 8c3d 8195 c63d ad55 ae3d
00000300: a960 8dbd 848c 6a3c c6f7 8dbd c4d5 57bd
00000310: a3d0 66bd 63fa 3d3d 6650 6dbd cdf8 c63b
00000320: ba7b 5d3c c95f a53d c532 99bd 0625 8abd
00000330: 518c 66bd 40e7 af3d a437 02bd dc92 d03d
00000340: b68a 463d dbbd b93c 1602 043c 4bd1 54bc
00000350: 62f6 b83c 1be2 8dbc efeb ea3b 19ae b53c
00000360: a2d2 a1bd 0ea3 4dbd 25bb c83d 433b a7bd
00000370: 7516 1c3a f602 f23d 580f 443d 2e75 313c
00000380: 264c b5bd 47fc 803d 4999 91bd 11c0 bebc
00000390: 5186 ecbc a9a9 03bc fc10 193c 7e70 cb3d
000003a0: 4ada b03c fcd4 db3d 6b82 9b3d 2dc1 7ebd
000003b0: e2c4 6d3d 8dd0 8fbd 4fd0 1ebd 36eb 263d
000003c0: 89dc 353d 02aa ba3d d567 e4bc 6df5 173d
000003d0: 68f8 c33d 43de 8bbd e96e f03d 301f 70bd
000003e0: 89b6 1b3d 07d5 ad3c 0d91 7cbc 8e28 723d
000003f0: 2644 013e 149a 273b 8f92 03bd f8ef 65bc
-0.005035879 0.055595696 -0.09530456 -0.08558718 -0.04674025 0.025618205 -0.006477887 0.08422987
-0.013661989 0.025230376 -0.03747927 -0.025509061 -0.10976083 -0.07739658 -0.049958583 -0.00020674261
0.03999821 0.062819295 -0.07949079 -0.05221996 0.03682191 0.088831566 -0.026509782 0.07908771
-0.022211308 0.007796791 0.096715234 -0.10736908 -0.07392725 -0.031810172 -0.04685054 0.09232702
-0.07607061 -0.055480536 -0.08168516 -0.10810887 -0.067196906 0.09332456 0.04754194 0.051921487
0.0039034449 -0.05909649 0.016504092 -0.105652295 -0.08205449 -0.060433295 0.06693457 0.06194482
-0.0524661 -0.007137985 0.06793405 0.10733798 0.04143938 0.012539554 0.07079662 -0.069260634
0.016699277 -0.09023602 -0.08105092 -0.061348993 0.046447475 0.04138965 -0.06887669 0.029752934
0.0570174 -0.01820563 -6.403715e-05 0.021455804 0.064729944 0.102637604 -0.089122914 -0.043972164
0.040040355 0.08830136 0.09276503 0.094004214 0.018072607 -0.10061504 0.006343185 -0.07286226
-0.106684126 0.11198265 0.098171726 -0.09638655 0.03549701 -0.00409554 -0.004369924 -0.037373424
0.055850163 -0.052910052 0.054605447 0.07068282 0.0950048 0.05736831 -0.0942708 -0.057212517
0.06977274 0.03705952 -0.07319463 -0.049199812 0.12014306 0.09170565 -0.031081371 -0.010719848
-0.08956476 0.013512995 -0.0688322 -0.071319945 0.009623813 0.033413377 -0.027361292 0.08477537
-0.048821926 0.118584484 0.0929622 -0.07773056 -0.012262854 0.021422597 0.033644974 0.045256168
0.06329209 0.026371093 -0.03550682 0.07025481 -0.089863986 -0.049781673 -0.012080417 -0.03742953
-0.020785237 -0.0722443 -0.0047536674 0.041681606 -0.055446755 0.010279675 0.09488156 0.0034866366
0.018794063 0.0073132166 0.03997605 0.088181585 0.12193522 0.08640498 0.120501794 0.006417378
-0.08570871 -0.037976716 0.09130683 0.015342088 -0.039152805 -0.069862545 -0.08934582 -0.07985577
-0.009040158 0.07458519 0.074138165 -0.092345044 0.08438797 -0.071887776 -0.0091599915 -0.031229597
-0.008139788 -0.008864963 -0.09190612 -0.08803172 -0.009277413 0.009696861 -0.042158287 0.05001033
-0.0921453 0.00043228522 0.10567521 -0.037302215 0.10851807 0.048684034 -0.09165297 0.078953974
-0.0043866606 -0.04152134 0.09695557 -0.08166879 0.020238584 -0.014720808 0.08820889 0.040085427
0.062467538 0.048020523 -0.018383242 -0.015057188 -0.0832457 0.0686999 0.09696484 0.08512435
-0.06903202 0.014315728 -0.06932025 -0.052694097 -0.056351315 0.046381366 -0.057938002 0.00607214
0.013518268 0.0807491 -0.07480387 -0.06745343 -0.05628616 0.08589029 -0.031791344 0.10184261
0.04847213 0.022673538 0.008057138 -0.012989352 0.022578422 -0.01731973 0.0071692388 0.022177743
-0.07901503 -0.05020433 0.0980132 -0.081656 0.0005954274 0.11816971 0.047866195 0.0108311605
-0.08852415 0.06298118 -0.07109315 -0.023284944 -0.02887264 -0.008036056 0.009342428 0.099335656
0.021588463 0.10733983 0.07593235 -0.062195946 0.05804909 -0.070222 -0.038772877 0.04075166
0.04439977 0.09114458 -0.027881542 0.03709929 0.09568864 -0.068295024 0.117399044 -0.058623493
0.038015876 0.021219743 -0.015415442 0.059120707 0.12623653 0.0025574015 -0.03212219 -0.014034264

bias f4 [64]
00000000: 6e27 733d 41e6 0ebd 51fb 8e3d d261 c33c
00000010: 0a48 833d 6552 ee3d 929a 66bd 375d e83d
00000020: 13cb b03d 3017 9cbd aedf e23c 0082 b9bd
00000030: c2e5 2f3d 7772 003d 5bcc d8bd f2df 043d
00000040: 8562 b0bc 5934 de3d 116e d43d a428 513d
00000050: d230 cc3d 260b 213d 3137 df3d 0057 51bb
00000060: 894e 153d 2086 b8bc 0337 84bb 36a8 bdbc
00000070: e82c 2fbd 2ebb a03d 19c6 533d 8f0f dabc
00000080: a350 cfbd b868 ca3d 6e2b bbbd 35a6 ec3b
00000090: aefa b2bd b124 b33d fe4d d03d 68ef a6bd
000000a0: 8c97 b5bd 8bbf 93bd 275d 323d e320 76bd
000000b0: 7ae7 be3c df2a bfbc a3c4 f33c 07ce 27bd
000000c0: f57b 433d ac7e 87bd ae64 bf39 77a0 bb3d
000000d0: b8e7 47bd dbd6 a53d 0f0e 983d 04fb 25bd
000000e0: e270 293d 2921 84bd 438f a33c 5324 ec3c
000000f0: f625 b43d cda0 30bc 6da8 5ebd 71cc 51bd
0.059363775 -0.034887556 0.069815286 0.023850355 0.06410225 0.11636809 -0.056299753 0.11345904
0.08632483 -0.0762161 0.02769455 -0.09057999 0.042943723 0.031359162 -0.10585853 0.032440133
-0.021531353 0.10849828 0.10372556 0.05106415 0.09970249 0.039317273 0.10899199 -0.0031942725
0.03645185 -0.022524893 -0.004034878 -0.023151498 -0.042767435 0.07848202 0.051702593 -0.026618747
-0.10122802 0.09883255 -0.09139143 0.007221962 -0.087392196 0.08747233 0.10171126 -0.08151132
-0.08866796 -0.07214268 0.04354587 -0.060089957 0.023303736 -0.023335872 0.02975685 -0.040967967
0.047725637 -0.066159576 0.0003650537 0.091614656 -0.04880497 0.08097621 0.074245565 -0.04052259
0.04136742 -0.06451637 0.019965773 0.028825914 0.08796303 -0.010780525 -0.054359842 -0.05122036

weight f4 [32, 64, 1, 1]
00000000: 410e fabd d633 063d dd34 bbbd fe1d aabd
00000010: b3da 44bd bcb2 b73c 1beb 833c fefa a5bd
00000020: b70d eebc fda9 eb3a 5221 89bd ef3d 7c3c
00000030: 3055 5d3c 1012 9fbd 5d7f c93d b4d9 c23d
00000040: 1461 d6bc 9f03 233c 75ee a53c 2782 0dbb
00000050: 5fc2 96bd de0e e13d 8281 913d f763 18be
00000060: 8545 c3bd 6e4a 013e 65c2 813c a902 75bc
00000070: 017b c33d 28e3 453d fbd8 3f3d 1073 043e
00000080: 7cc8 4abb 16bd bb3d f5e2 98bd 64a2 7ebd
00000090: c6e3 fc3c 491b 0bbc c89b aa3d e0bf abbc
000000a0: eb52 543d a60f 19bd 8fdb c43d aec2 02bc
000000b0: cc34 533d a9de d13d 85c9 063e 94f5 053e
000000c0: 3a9e f2bd c1ad 60bd 8fd4 6bbc 1bce d4bc
000000d0: e71b b03d a51a 7a3d 98d7 0abd 527a 3f3c
000000e0: d346 cebc eec3 f73d f47c 9f3d e9ec 74bd
000000f0: dbda d0bd 2961 9c3d afa8 31ba 2fa8 8ebd
00000100: 78eb 04be 7415 9f3a ff19 42bd a206 a6bd
00000110: b01d 733c e883 db3d 5629 c83d 1ec4 7a3d
00000120: 113c d9bd 235f 763d 2dc1 663d 1cab 063d
00000130: 1fae 35bd 3c30 82bc 09f2 8abd 9599 11bd
00000140: 6264 fcbc 5d4d c5bc 7006 07be 32b3 f53c
00000150: 6b3d e6bd 96c6 d6bd 7033 263d 6094 e8bd
00000160: acac e73d 020a e63d cadc 4cbd aa98 05bd
00000170: 1cc7 d6bd f034 e5bb 1b14 053c e88c 9cbd
00000180: 194c f93c 0d77 89bc 0bed 41bd 8c0f 43bc
00000190: 8c93 07be da09 c6bd 03c4 ba3b 74ca e13d
000001a0: 0695 c3bd 5f7a 8b3d 4394 8f3b 4847 5cbd
000001b0: 87c2 04bd a777 4e3d b737 a23b 9fe7 cd3d
000001c0: 889b 06bd 1445 c4bd b60d d13d 919b 26bd
000001d0: 2e1a 8b3d cf7b 953d 878a 903c 2654 e5bd
000001e0: 45f0 02be 3614 473d f56c 9a3c e85f 803d
000001f0: 821b f9bd a549 2bbd 4467 c83d df70 643d
00000200: 54a0 d03d 3f1c ef3d 75e3 8cbc 4f18 0cbe
00000210: bda4 82bd a2f6 693d 92c9 213b d3df 573c
00000220: 5e35 023d 3b87 bc3d 8266 9f3d 48e4 b93d
00000230: d3b2 1cbd bea9 b83d 4d30 70bd c133 2cbd
00000240: fe96 e2bb aa3a 8ebd fb06 f83d 588b 81bb
00000250: 1e6e 473d 2e3a 123c 1d2c 263c cdf9 edbd
00000260: 8fd1 f1bc 7812 d0bd 8bae 5bbd c589 e23d
00000270: 8b68 d5bd 5757 163d 208d f33c 22e1 b2bd
00000280: 07b2 183d efcf b13d b314 d83d a298 1b3d
00000290: 7242 e33d f597 693c cb43 7c3d 22ab 503d
000002a0: 83d0 a3bd 4022 a7bd ce6d 9ebd 09e4 c63d
000002b0: f18c fe3d d8e4 1ebd 504a 24bc 2d2d 3f3d
000002c0: 928d d0bd a3dc a43c c8cb 973d 0d30 843c
000002d0: 4975 593b dd13 b83d b6cb 2e3d 95b5 cbbd
000002e0: ac1e c93c 30df a8bd 96bd ab3d 6cdf e43d
000002f0: 6a72 0cbd c89a 683c 9de4 4cbd 2a5f 2bbd
00000300: b9da e2bc fbcd 08bd 2e06 0c3e 3962 dbbd
00000310: 5b2d 743d 35ba cebd 71db dc3d 4dc8 ee3d
00000320: 40b4 a6bd 9bd2 90bc 08c8 103d 519d e3bd
00000330: 38f7 febd fd2d 7f3d 5c27 f13d 8a92 00bd
00000340: 7fdb 1e3c f8c4 f0bd 082b e9bd 2ea8 fd3d
00000350: 051b ee3d 94c3 f6bc f268 23bd 218c 70bd
00000360: 8baa 0c3d af89 e7bd a6de 8abd c03a e3bc
00000370: 65a5 32bd 0e9e 483c a83e c73d da87 eeb9
00000380: ea0a d7bd 4aa7 153e d52e ea3d a460 593d
00000390: 6825 923d 7669 5b3d 0763 eb3d 3276 dcbd
000003a0: 4f8f 90bd 273b 90bd d825 04bc cc69 aabd
000003b0: 5bd8 abbd 2e25 acbd 1ef3 14bc e303 ef3d
000003c0: 68e8 b43d 2212 573d ffaa 82bd 4f2d 4ebd
000003d0: ba95 d93c 8e68 e1bd 4b7c babc f212 0a3d
000003e0: 5ff0 7c3d 6ba5 8fbc 3314 0b3e f9d6 593c
000003f0: 3391 06be e4c6 323e 77fb f63d b5ff b4bd
-0.1220975 0.03276428 -0.09140942 -0.08306502 -0.04806013 0.022424094 0.016103318 -0.081045136
-0.029059274 0.0017979738 -0.066958085 0.0153956255 0.01350908 -0.07767117 0.09838746 0.0951418
-0.026169337 0.009949594 0.020255307 -0.002159247 -0.07361292 0.10989164 0.0710478 -0.14881884
-0.09534744 0.12626049 0.015839765 -0.0149542475 0.095449455 0.048312336 0.046837788 0.12934518
-0.0030942252 0.09166925 -0.074651636 -0.062166587 0.03087033 -0.008490392 0.08330494 -0.020965517
0.05183689 -0.03736844 0.0961219 -0.007980986 0.051564023 0.10247547 0.13162811 0.13081962
-0.118465856 -0.054853205 -0.01439394 -0.025977185 0.08599072 0.061060566 -0.033897012 0.011686878
-0.025180256 0.120979175 0.07787505 -0.059796248 -0.10197993 0.07635719 -0.000677715 -0.06965672
-0.12980449 0.0012137131 -0.047388073 -0.08106734 0.014838621 0.107185185 0.09773509 0.06122219
-0.1060716 0.060149323 0.05633657 0.032878026 -0.044355508 -0.01589214 -0.06784446 -0.035546858
-0.030809585 -0.024084741 -0.1318605 0.029992674 -0.11242183 -0.10487096 0.0405764 -0.11356425
0.113122314 0.112323776 -0.05001525 -0.032616295 -0.10487196 -0.006994836 0.008122469 -0.07644063
0.030431794 -0.0167804 -0.047345202 -0.011905562 -0.13239878 -0.09669848 0.005699636 0.11024943
-0.09549908 0.0681045 0.004381688 -0.053778917 -0.03241208 0.050407078 0.0049504894 0.10053944
-0.03286317 -0.09583488 0.10207693 -0.040675703 0.06792103 0.07299005 0.01764418 -0.11197691
-0.12786968 0.04860326 0.018850783 0.06268293 -0.1216345 -0.04181828 0.09785321 0.055771705
0.1018683 0.116753094 -0.017198304 -0.13681148 -0.063790776 0.057119973 0.0024686796 0.013175922
0.031789176 0.09205481 0.07783224 0.09076744 -0.038256478 0.09016751 -0.058639813 -0.042041544
-0.0069149723 -0.06944783 0.121107064 -0.0039533786 0.048689 0.008925004 0.010142353 -0.11619911
-0.02951887 -0.10159773 -0.053633254 0.11061434 -0.104203306 0.036704388 0.02973038 -0.08734347
0.037279155 0.08682238 0.10550823 0.03798736 0.11096658 0.014257421 0.06158809 0.050944455
-0.07998755 -0.081608295 -0.07735787 0.09711463 0.12429226 -0.03879246 -0.010027483 0.046673942
-0.101832524 0.020124739 0.07411915 0.016136194 0.003318148 0.089881636 0.042674743 -0.099467434
0.024550758 -0.08245695 0.0838577 0.11175427 -0.0342888 0.014197059 -0.05002271 -0.041838802
-0.027692186 -0.033399563 0.13674232 -0.10712094 0.059613567 -0.1009411 0.107840426 0.11659298
-0.08139849 -0.01767855 0.035347015 -0.1111399 -0.12449497 0.062299717 0.11775085 -0.03138975
0.009695887 -0.11756319 -0.11385161 0.12385593 0.11626247 -0.030122556 -0.039895006 -0.058727387
0.03434233 -0.11305558 -0.06780748 -0.027737975 -0.043614764 0.012244714 0.097287476 -0.00045496115
-0.105001286 0.14614597 0.11434714 0.05307068 0.07136041 0.053567372 0.11493497 -0.107647315
-0.07058584 -0.070425324 -0.008065663 -0.083209604 -0.08390876 -0.08405529 -0.009091167 0.11670663
0.088333905 0.052507527 -0.06380271 -0.05033618 0.026560653 -0.1100627 -0.022764346 0.033709474
0.061752673 -0.017534932 0.13581924 0.013295882 -0.13141327 0.17458683 0.12059682 -0.08837835

bias f4 [32]
00000000: 2ccc a23d 3453 6cbd 34b5 ad3d d441 f13d
00000010: d6ed 753d db3d b63d 52f8 6cbd a25f df3d
00000020: 0d43 9cbd be56 a03d 4074 383d a078 993b
00000030: 0bb5 d53c a7e6 01be d3eb f23d 99de 95bc
00000040: c804 d93d 6c07 aebb e82e 10bd 78a5 b83d
00000050: 5048 57bb c3d1 8dbd 2719 d63c b1f6 06be
00000060: d49e 89bd 5134 56bd f72a 7a3c 645c a3bd
00000070: 3df7 9fbb afff a7bd fa5e e8bd 9909 b1bc
0.07949099 -0.057696536 0.084818274 0.11780134 0.06004127 0.08898517 -0.057854004 0.109069124
-0.076299764 0.07829045 0.04503274 0.004683569 0.026087305 -0.12685643 0.11861386 -0.01829462
0.10596615 -0.0053109434 -0.035200983 0.09015936 -0.0032849498 -0.069247745 0.02613504 -0.13180043
-0.06719747 -0.052295987 0.015269033 -0.079766065 -0.004881768 -0.08203065 -0.1134624 -0.021611022

weight f4 [1, 32, 5, 5]
00000000: d5f1 a53b 0514 d83c 78d7 35bc 4bb2 0d3d
00000010: 2399 c7bc 4eda 573c d799 fcbc 47f2 063d
00000020: 1971 4abc ac93 a83c 1aa7 303b c40a 58bc
00000030: a0da f0bb 205f 47bc ca34 b93c 6b8f db3c
00000040: a6ff 0d3d deba f0bb c4ee 1dbc fb7a 89bc
00000050: afaf bcba 02c3 1c3c 9bdc f2ba 0edb b2bc
00000060: 11be 693b 1fc5 0bb9 0921 e0bc 2605 0ebc
00000070: 6878 04ba 73c1 08bd 9a4e bf3b 3d32 2e3c
00000080: 76e5 1abb db23 81bb ab0d ec3a 9d32 233c
00000090: 3c01 83bc 9d01 18bb bb37 ae3c fde6 19bc
000000a0: 8942 6f3a dd02 02bd 676a d4bc 560f 1fbb
000000b0: 2c0c 38bc 6644 103d 1c00 dcbb 5c57 eabc
000000c0: 0f39 fe3c ebe4 b3bc 27fc f93c 70a7 15bb
000000d0: 5fba 083c ec6c 08bd 03c6 083d 13a2 753a
000000e0: 46d4 85bc ee83 c2bc def9 003c ef10 03bd
000000f0: cb5c e23c a6d4 aa3c c2f1 033d 7f2c 073d
00000100: 6fac 9ebc 4429 06bc 7133 bd3c 00de c53c
00000110: 59cf 133d 9918 58bc 5392 d23b cded 4639
00000120: 87ec b23c 9e2f 82bc afb5 083d a2dc 1abc
00000130: 6f63 983c ae54 e33c ad49 0cbd 8a32 fa3b
00000140: 762f bebc f716 943c af7f 003d 3950 26bc
00000150: a47b bbbc 3eac 8abc 4463 ea3c 0c13 97bb
00000160: 277d cebc c603 f63c e738 c63c 19d6 35bb
00000170: da54 a93b 23f7 b13b 2958 103d fc48 b03c
00000180: 431a f33b 5e82 f63a 5d40 4c3c 1e53 cdbc
00000190: 61dd a53c 4dc8 823c 3ea7 ab3b 8b5b b13c
000001a0: 820f bbbb 78c7 ffbc 3dd6 e7bc 5e48 0d3d
000001b0: 4359 2cbc 6339 cabc ec4c 123d 3f4e c3bc
000001c0: 6315 f53c 4bc7 053d e681 5abb 11b1 b13c
000001d0: 2bf2 e63c 327c 03bd 6b98 91bc 630e bc3b
000001e0: 8091 473c 7a87 bcbc c20b e5bc f175 0f3d
000001f0: 8872 7ebc 1c19 09bd 03bd 873c b334 8cbc
00000200: d33f 39bc 592d 3abc 7cf2 093d d70a 6e3c
00000210: 5271 123d 6a05 3bbc 48ce da3c 513d e2bc
00000220: e57c b83c 4f45 2a3b 4950 203b 77ea ff3c
00000230: c6fb 733b 861c 65bc f3c1 96bc 08f0 de3b
00000240: fc1b 30bc 7d63 9a3c a0b1 e9bc f015 babc
00000250: 4c7d 023d 8153 4fbc c3d9 08bd 0cc8 d63c
00000260: 8198 0fbc df3a 50bb 1362 983c 1874 883c
00000270: 4692 ecbc 449d 3e3c 9cf6 153d f57b 1d39
00000280: 733a 003d bda1 163d 1036 9c3c e01d e2bc
00000290: bcf8 0f3d 3e42 073d e825 833c 2dcf 393b
000002a0: 4b48 a1bc dc56 453c 3e96 02bc fa03 153d
000002b0: a061 f6bc 93da 373c 04fe 1b3b 2aaf 3e3a
000002c0: 0209 75bb 3f09 803c c861 f3bc 26a0 073c
000002d0: 749a bbbc 702d 433c 5e74 18bb 337a a83b
000002e0: bcd3 a83c 5ae9 5abc 802c e3bc 1918 81bc
000002f0: a2e3 f13c 70e8 e5bc 0487 bd3c 2f49 40bc
00000300: 9ca7 2b3b 3222 793c 2e7d 40bc 88c9 c1bc
00000310: 7218 503c de03 b53c a056 633c a38a 0fba
00000320: 0775 583a ca55 463c f5d8 163c 9122 9fbc
00000330: feb3 bd3c 94c3 eabb 501b 86bc 6de8 4ebc
00000340: 8716 363b 1f5f a9bc 30ee aebc 44a2 c53c
00000350: 9fb0 073d d3de fcbc 159f 043d 6fb1 8dbc
00000360: 3fb4 413c 56c1 133d d0b4 99bc 11d9 38bc
00000370: 050f 2c3c 2aba b0bc 1e26 55bc ea58 ebbc
00000380: baa6 9b3b 6522 bd3c 6bd1 2b3c ea2d acbb
00000390: 357b 0d3d 9776 ea3c fb35 95bc 8816 ae3c
000003a0: 5e6a e7bb 82da 4b3c 61eb 9f3b 253b 873c
000003b0: eaca 8abc 94d9 82bc f27c 9cbc 80d8 b2bc
000003c0: 7720 69bc addd 1b3c 252a 363c 04e1 fd3b
000003d0: 141d e03c 7a8f e43c c81c f23c 8be0 bc3c
000003e0: 6a3e 493a 4370 243c 46d4 87bc bef4 fe3a
000003f0: 048c 883b 640d e1bc 9540 f73c 053a d6bb
0.005064229 0.026376734 -0.011098735 0.03459386 -0.024365013 0.0131746065 -0.030835075 0.032945897
-0.012356066 0.020578228 0.002695507 -0.0131861605 -0.007350281 -0.012168676 0.02260818 0.026801785
0.034667633 -0.007346495 -0.009639446 -0.016782274 -0.001439562 0.009567978 -0.001852888 -0.021832969
0.0035666267 -0.00013329506 -0.027359502 -0.00866822 -0.00050533423 -0.033387613 0.0058382275 0.010632095
-0.0023635305 -0.003941042 0.0018009444 0.009960798 -0.0159918 -0.002319432 0.021266809 -0.009393451
0.0009127041 -0.031741012 -0.025929643 -0.0024270616 -0.011233371 0.03522148 -0.00671388 -0.02860611
0.031033067 -0.021959743 0.030515743 -0.0022835396 0.008345216 -0.033307 0.033391964 0.0009370159
-0.016336571 -0.02374455 0.007872073 -0.03199857 0.027632138 0.020853352 0.03221298 0.03300142
-0.019369332 -0.008188549 0.023095818 0.02415371 0.036086414 -0.013189458 0.0064261346 0.00018971339
0.0218413 -0.015891846 0.033376392 -0.009452017 0.018602101 0.02775034 -0.03424995 0.0076354193
-0.02321599 0.018077357 0.03137177 -0.0101509625 -0.022886105 -0.016927835 0.028611787 -0.004610425
-0.025206162 0.030031096 0.024197055 -0.002774602 0.005167586 0.0054310723 0.035240326 0.021519177
0.007418902 0.0018807163 0.012466517 -0.025064047 0.020247163 0.015964651 0.0052384427 0.021650096
-0.005708636 -0.031223044 -0.028300399 0.034492843 -0.0105193285 -0.024685567 0.03571789 -0.023841022
0.029917425 0.032660764 -0.0033341586 0.021690877 0.028191647 -0.032100864 -0.017772874 0.0057390197
0.012180686 -0.023013819 -0.027959708 0.035024587 -0.015530236 -0.03347121 0.01656962 -0.017114973
-0.011306721 -0.011363351 0.033678517 0.014528952 0.035752602 -0.011414865 0.02670969 -0.027617129
0.022520492 0.0025981253 0.0024461916 0.031239731 0.0037228926 -0.013983851 -0.01840303 0.0068035163
-0.0107488595 0.018846268 -0.028527081 -0.022715539 0.031857774 -0.012654186 -0.0334108 0.026218437
-0.008764387 -0.003177337 0.018601453 0.01665692 -0.028878342 0.011634175 0.03661214 0.00015018864
0.03130574 0.03677534 0.019068748 -0.027602136 0.03514932 0.033022158 0.016009286 0.0028352246
-0.019687792 0.012044635 -0.007970391 0.036380745 -0.030075848 0.011221546 0.0023802528 0.0007274026
-0.0037389402 0.015629409 -0.029709712 0.008277928 -0.022900797 0.011912689 -0.002326272 0.0051415204
0.020608775 -0.013361299 -0.02773118 -0.015758561 0.02952749 -0.028064936 0.02313567 -0.011736198
0.0026192432 0.015205907 -0.011748595 -0.023655668 0.012701141 0.02209657 0.0138756335 -0.00054756756
0.00082571845 0.012105415 0.009207 -0.019425662 0.023157116 -0.007164428 -0.016370445 -0.012628657
0.0027784423 -0.02067524 -0.021353811 0.024125226 0.033127423 -0.03086797 0.032378275 -0.017296521
0.011822759 0.03607305 -0.018762976 -0.011282221 0.010501628 -0.021573145 -0.013009576 -0.028728921
0.0047501 0.02308769 0.010486941 -0.005254497 0.034541328 0.028621001 -0.018214216 0.021250978
-0.0070622405 0.012442233 0.0048803543 0.016507694 -0.01694246 -0.01597289 -0.019102547 -0.02183175
-0.014228932 0.009513301 0.0111184465 0.007747771 0.027357616 0.027900446 0.02955474 0.02305629
0.0007676842 0.010036531 -0.016580712 0.0019451601 0.004167082 -0.027472205 0.030182162 -0.006537678
