SRCNN-master/model_9.pth (torch, 36296 bytes, 5 tensors)

weight f4 [64, 1, 9, 9]
00000000: d84d a2bb 20fb 633d 9619 c3bd e139 afbd
00000010: a152 3fbd 4642 d23c 4b99 d2bb 1985 ac3d
00000020: 7ee0 5fbc cc73 cf3c 7441 19bd 2cbe d0bc
00000030: c7c5 e0bd b578 9ebd 636e 4cbd 9e2f 1ab9
00000040: a5e8 233d e9aa 803d a894 a2bd 809f 55bd
00000050: e4e5 163d bee7 b53d 6233 d9bc c50a a23d
00000060: 497b b5bc fc2f 003c 051d c63d ada7 dbbd
00000070: 363f 97bd 382e 02bd f1ef 3fbd 3f0d bd3d
00000080: 90c2 9bbd 800c 63bd 2639 a7bd 0e54 ddbd
00000090: a548 8abd 616e be3d bc3b 413d d00c 533d
000000a0: 655e 643b e7bc 73bd 66ff 833c 0040 d9bd
000000b0: dff4 a8bd bb75 78bd f4a2 883d 0fda 7c3d
000000c0: cdd1 57bd 9324 f2bb 4795 8a3d da45 db3d
000000d0: 856d 283d 98ce 473c f7a3 903d 4a25 8ebd
000000e0: c1d0 873c bc07 b9bd 3341 a6bd a7e5 7bbd
000000f0: d48e 3d3d 0998 283d 2399 8dbd d645 f23c
00000100: 77ec 683d b71f 96bc c0d0 2db9 dce0 ae3c
00000110: 8350 843d 39e8 d13d 1bf3 b6bd 911c 35bd
00000120: 601d 233d 3570 b43d 2ca1 bd3d 6a33 c03d
00000130: 81c3 923c 7a64 cebd 1811 ca3b 07b5 95bd
00000140: 920a dbbd 1674 e53d bb38 c93d 7e5e c5bd
00000150: ae66 113d d5a5 85bb 5305 8cbb 6b96 18bd
00000160: fb49 653d 3748 58bd 5cf3 5f3d 20e8 903d
00000170: 8986 c23d 4cc6 6a3d 821f c1bd 3b0d 6abd
00000180: 891f 8f3d f254 183d fea9 95bd f44e 49bd
00000190: d51a f63d ed97 bb3d 9cf6 ffbc d5fa 31bc
000001a0: 297a b7bd 6727 5e3c a6c8 8cbd 19e0 91bd
000001b0: ff79 1d3c 839b 083d 8700 e2bc 36f9 ac3d
000001c0: e33d 49bd 427e f23d 5139 be3d cb33 9fbd
000001d0: 9fa4 48bc d9fa ae3c f151 093d 8628 383d
000001e0: 55cd 803d c3ae d43c f196 12bd c48a 8f3d
000001f0: 932f b8bd 9d0c 4cbd 73b4 45bc ac73 19bd
00000200: cde3 abbc 748e 94bd 38bc a5bb 6ef8 293d
00000210: 4869 63bd 5cd0 283c a971 c23d 62b7 683b
00000220: 6649 9a3c ebb1 ec3b 981a 233d 6345 b43d
00000230: f99d f93d 9f08 b13d 5c07 f73d 8910 d73b
00000240: 9d58 afbd 682a 1bbd 6201 bb3d 26eb 7a3c
00000250: 4471 20bd d6ea 8ebd a1af b6bd ee21 a3bd
00000260: a39a 10bc 6ce0 983d 9904 983d 030f bdbd
00000270: 34e1 ac3d e321 93bd 6bd4 13bc 174e febc
00000280: 01a6 01bc 7986 0dbc 661b bcbd bd29 b4bd
00000290: a94a 17bc 8546 1f3c f29a 2cbd d3f7 4c3d
000002a0: 0f98 bcbd 8c1f f439 ea74 d83d c292 18bd
000002b0: 4059 de3d 4983 473d c3b2 bbbd 25b3 a13d
000002c0: f005 8fbb fad5 29bd 55a3 c63d 9638 a7bd
000002d0: 1f26 a63c 76a5 70bc 01a6 b43d 5e12 243d
000002e0: 5dc0 7f3d e2b5 443d ff28 96bc e415 76bc
000002f0: 1373 aabd a3bf 8c3d 689b c63d ed45 ae3d
00000300: 4383 8dbd 8f68 693c 4407 8ebd 13b3 57bd
00000310: a0b5 66bd 2c01 3e3d c317 6dbd 9467 c83b
00000320: f380 5d3c eb48 a53d 0251 99bd cd2e 8abd
00000330: a054 66bd 4d03 b03d fa12 02bd a8ac d03d
00000340: 4bb9 463d 66ca b93c 725b 033c 17c8 55bc
00000350: 6fc2 b83c 6583 8dbc 076e ec3b 9de7 b53c
00000360: 29b2 a1bd e563 4dbd 68ca c83d 813e a7bd
00000370: d850 173a e109 f23d f75b 443d 3789 323c
00000380: 8f34 b5bd 9711 813d a083 91bd c798 bebc
00000390: 038d ecbc 80c2 03bc 486c 193c 2094 cb3d
000003a0: 6044 b13c c3e3 db3d 0093 9b3d fc9b 7ebd
000003b0: a9d9 6d3d 7ecd 8fbd c7c9 1ebd aa08 273d
000003c0: 431f 363d 28bf ba3d e93f e4bc f136 163d
000003d0: 1fb9 c13d 9ba4 8ebd 2cd9 ed3d 92ed 71bd
000003e0: 31f0 173d 421b a33c cc90 8bbc 9d8f 6b3d
000003f0: 93be 003e 1fbe b33a 88d7 08bd 684d 73bc
-0.0049531274 0.055659413 -0.095263645 -0.085559614 -0.04670966 0.025666367 -0.0064269654 0.08423824
-0.013664363 0.025323771 -0.037415937 -0.025481306 -0.10975223 -0.07737867 -0.04990996 -0.00014704323
0.04001679 0.062825985 -0.0793851 -0.052154064 0.036840335 0.08882092 -0.026513759 0.079122104
-0.022153514 0.00782394 0.09673504 -0.10725341 -0.073851034 -0.03178236 -0.046859685 0.09231042
-0.07605469 -0.055431843 -0.08165197 -0.10807048 -0.06752137 0.09298397 0.047176108 0.05152589
0.0034846303 -0.059506323 0.016112994 -0.1060791 -0.082498305 -0.06065915 0.06671706 0.061731394
-0.052690316 -0.007389614 0.06766754 0.107066825 0.04112007 0.012195252 0.07062524 -0.06940706
0.016579034 -0.09034678 -0.081179045 -0.06149831 0.04627879 0.041160617 -0.06913974 0.029574316
0.056866135 -0.01832567 -0.00016576331 0.021347456 0.06460669 0.10249371 -0.089330874 -0.044216696
0.039822936 0.08810464 0.09259257 0.093848065 0.01791549 -0.10077758 0.0061665885 -0.07309919
-0.106953755 0.11203782 0.098252736 -0.096371636 0.035498314 -0.0040786066 -0.0042730956 -0.037252825
0.055978756 -0.052803244 0.054675445 0.07075524 0.09498317 0.057318017 -0.09429838 -0.057141524
0.06988437 0.037190385 -0.07307814 -0.04914756 0.120168366 0.09159837 -0.031245522 -0.010863026
-0.08958847 0.013559199 -0.06874208 -0.07122821 0.009611606 0.033351433 -0.027588142 0.08445971
-0.049131285 0.11840488 0.09288276 -0.077735506 -0.01224628 0.021359848 0.03352541 0.04496052
0.06289164 0.02596224 -0.03578848 0.07008889 -0.08993449 -0.049816716 -0.012066948 -0.03746383
-0.020982647 -0.07253733 -0.005057838 0.041496687 -0.055520326 0.010303583 0.09494335 0.0035509695
0.018833827 0.007223358 0.039820284 0.08802297 0.12188334 0.086442225 0.120619506 0.0065632504
-0.085618235 -0.03788224 0.09131123 0.015314853 -0.03917052 -0.06978385 -0.08920217 -0.07965456
-0.008825931 0.0746468 0.07422752 -0.09231379 0.084413916 -0.07184198 -0.009022812 -0.031043096
-0.007913114 -0.008638018 -0.09184913 -0.087970234 -0.009234109 0.009721403 -0.042139955 0.05004103
-0.092086904 0.0004656281 0.105691746 -0.037249334 0.10856867 0.048709188 -0.091649555 0.07895497
-0.0043647215 -0.04146383 0.09699122 -0.0816509 0.02028185 -0.014687886 0.08820725 0.04005658
0.06243931 0.04802502 -0.018330095 -0.015019868 -0.0832273 0.06872489 0.0969761 0.08509431
-0.06909802 0.01424612 -0.069349796 -0.052661013 -0.056325555 0.046387836 -0.05788399 0.006115863
0.013519513 0.080705486 -0.07486154 -0.06747208 -0.05623305 0.085943796 -0.03175638 0.101891816
0.048516553 0.022679519 0.008017408 -0.013048193 0.02255365 -0.017274568 0.0072152647 0.022205168
-0.078953095 -0.050144095 0.09804231 -0.081662185 0.00057722395 0.118182905 0.047939267 0.010896972
-0.088479154 0.06302183 -0.071051836 -0.02326621 -0.028875833 -0.008041978 0.009364195 0.09940362
0.021639049 0.107368015 0.075963974 -0.062160477 0.058068905 -0.070216164 -0.03876665 0.040779747
0.044463407 0.091184914 -0.027862506 0.03667349 0.09459137 -0.0696499 0.11613688 -0.059064455
0.0370943 0.019910458 -0.017036818 0.057510007 0.12572698 0.0013713277 -0.03340867 -0.014849998

bias f4 [64]
00000000: ba93 723d f00a 11bd 690e 8f3d 0498 c73c
00000010: b22a 833d 5981 ee3d 93de 79bd 556b e83d
00000020: 064e b03d 324f 9cbd b344 e23c 45fa b9bd
00000030: c4e3 323d 4619 ff3c d28a d8bd 8b35 043d
00000040: f395 b1bc 46f6 dd3d e910 d43d f9f2 503d
00000050: 7614 cc3d 607f 203d 5e84 df3d 416b 7fba
00000060: 6d76 103d bee8 b7bc 3e02 86bb e732 bebc
00000070: ee2c 2fbd 2599 a03d e54e 553d 67f1 f2bc
00000080: 6bd4 d0bd 951f c23d 924d bbbd 4b90 eb3b
00000090: 8a2e b3bd 9411 b33d 6735 d03d 3728 a7bd
000000a0: f393 b7bd 8fbc 87bd aafe 233d c2f1 74bd
000000b0: a6f2 a43c 5138 bfbc a37b f33c 2cac 28bd
000000c0: 3de0 423d 47fd 87bd fa7a 6039 72f3 ba3d
000000d0: 807f 48bd bad2 a53d 271b 923d 948a 25bd
000000e0: 3af4 313d ed0b 85bd 7604 a33c e174 eb3c
000000f0: fe41 ba3d d2e4 71bc a47a 5fbd 75aa 53bd
0.059222914 -0.03541082 0.069851704 0.024364479 0.06404628 0.11645765 -0.06100328 0.11348597
0.08608632 -0.07632293 0.027620649 -0.09080938 0.043674245 0.031139981 -0.10573353 0.032277625
-0.021677947 0.108379886 0.10354788 0.051012967 0.0996484 0.039183974 0.10913919 -0.000974346
0.03526919 -0.022449847 -0.0040896228 -0.023217632 -0.042767458 0.0784171 0.052077193 -0.029656125
-0.101967655 0.0947868 -0.09145655 0.007188832 -0.08749111 0.08743587 0.10166436 -0.08161967
-0.08963766 -0.066277616 0.04003779 -0.05980087 0.020135235 -0.023342283 0.02972204 -0.04117982
0.04757713 -0.06640106 0.00021408117 0.09128465 -0.04894972 0.080968335 0.07134085 -0.04041536
0.043445803 -0.06496415 0.019899588 0.028742256 0.09094618 -0.014764028 -0.05456032 -0.051676232

weight f4 [32, 64, 1, 1]
00000000: 3b05 f8bd 1527 043d ce02 bbbd 8629 a7bd
00000010: ffc5 44bd 2050 b63c d687 be3c 30ec a5bd
00000020: a373 edbc 1f25 f63a b634 89bd e98c 893c
00000030: a418 713c 79f2 9ebd 967b c93d 23d6 c23d
00000040: d0a5 d6bc 0670 373c b019 a63c 159f 0dbb
00000050: 03ae 96bd d408 e13d 6392 913d 354c 15be
00000060: a907 c9bd 864c 013e 1ecc 883c 9a39 76bc
00000070: 60a4 c33d e2c6 463d 3af8 413d eb10 063e
00000080: 2836 2dbb 6038 be3d 96be 98bd 7191 7ebd
00000090: 02be fd3c d134 0bbc a5a2 aa3d f188 abbc
000000a0: 3053 513d 7ed9 0ebd a7c1 c73d ba8b 02bc
000000b0: b47a 4a3d 4ce3 d13d 86d1 063e 3df3 053e
000000c0: e00f f3bd 5ffc 60bd d241 6dbc e7bb cebc
000000d0: 5056 b03d 976b 7a3d 26e2 d7bc 7f0a 3f3c
000000e0: a881 b1bc 9ffa f73d 95b7 9f3d de53 75bd
000000f0: f03d cdbd 84d5 993d 344d 2fba 4eb6 8ebd
00000100: 09ea 04be 5640 9f3a 9a19 42bd 9906 a6bd
00000110: b81d 733c 5b84 db3d 5629 c83d 5dc4 7a3d
00000120: d23b d9bd 5e5f 763d e8c1 663d e7ab 063d
00000130: 736e 35bd 352f 82bc 09f2 8abd 9599 11bd
00000140: cb63 fcbc 5d4d c5bc 7006 07be 41b4 f53c
00000150: 493d e6bd 20c6 d6bd bf33 263d fd68 e8bd
00000160: d6c9 e83d 020a e63d 49dc 4cbd 1898 05bd
00000170: 1cc7 d6bd 5733 e5bb d915 053c 3955 9cbd
00000180: 8f53 f93c d029 88bc d9ec 41bd 5b0d 43bc
00000190: 7593 07be da09 c6bd 99c6 ba3b 9fca e13d
000001a0: 638a c3bd 44a5 8d3d 4394 8f3b 4847 5cbd
000001b0: 7da3 e5bc d277 4e3d f938 a23b cfe7 cd3d
000001c0: 689b 06bd c044 c4bd f60d d13d 919b 26bd
000001d0: 4c1a 8b3d 4e7c 953d 0479 913c 1554 e5bd
000001e0: 45f0 02be 3614 473d b36d 9a3c 3360 803d
000001f0: 9b8b f6bd ddce 2abd 7167 c83d 5a71 643d
00000200: 52c1 d13d 429a ee3d 16ba 8cbc d0e6 09be
00000210: c5b1 82bd f4f7 693d 7304 9aba afea 563c
00000220: 4c10 023d 669b bc3d e703 9f3d a6d4 b83d
00000230: 5236 11bd 9f21 b83d 9b28 70bd 4e36 2cbd
00000240: fa2a e2bb 9a73 8dbd f65f f73d 509a 83bb
00000250: e08e 473d 7ee3 0c3c 5b00 263c 07f2 e6bd
00000260: f65f cdbc 9426 d0bd 0de2 5bbd 3b6f e23d
00000270: 155b d5bd 6c2c 163d 10ea f33c 4f56 b8bd
00000280: 39f8 133d 4831 ae3d 7f10 d83d 0d88 1b3d
00000290: 0920 e33d 718a 683c 9b04 7c3d 57c1 503d
000002a0: 30ed a5bd 4da9 9cbd 56e5 9ebd 8aee c63d
000002b0: dfef f53d 8849 1fbd 4272 24bc c624 3f3d
000002c0: 7df2 d0bd 1df9 a33c 399b 973d 2901 893c
000002d0: b535 5e3b a2a1 b73d 59dd 273d 26b4 cbbd
000002e0: 45d7 da3c 4409 a9bd 37c3 ab3d aa76 e43d
000002f0: 246a f6bc a4af 3e3c 622d 4dbd fd88 2bbd
00000300: e412 dbbc 0ef3 09bd 3f07 0c3e c629 d6bd
00000310: 3b2d 743d c3cf cebd 9567 d63d 11b9 ee3d
00000320: 32bc a6bd 1d9d 90bc 9982 103d d541 e3bd
00000330: 3ec5 f8bd bbaa 7e3d c725 f13d 5093 00bd
00000340: a6c3 1e3c 90ff efbd 4160 e9bd 678f fd3d
00000350: 132f ee3d 5a3c f8bc be65 23bd 13ef 60bd
00000360: 3c49 293d 8495 e7bd ed5f 8abd 6be1 e3bc
00000370: 7d7e 32bd 11c2 493c 3f7b c73d edf5 2c3b
00000380: bc94 d7bd ed97 133e 2236 ea3d 3a58 593d
00000390: 7f2b 923d a13b 5b3d 4453 eb3d 3e71 dcbd
000003a0: d580 90bd 78dc 85bd a4db 20bc 4953 aabd
000003b0: fddd b2bd 6942 acbd c9c7 14bc a005 ef3d
000003c0: 60a2 b43d 1098 563d b5d2 82bd a553 4bbd
000003d0: ec9d da3c 228d e1bd f795 b6bc 9c18 0a3d
000003e0: 1ff1 833d c61a 90bc 9d19 0b3e a05c 593c
000003f0: f77a 02be 1505 303e 09d9 f63d 5413 b5bd
-0.12110373 0.032263834 -0.09131394 -0.08162217 -0.048040386 0.022255003 0.023258131 -0.0810169
-0.028985804 0.0018779373 -0.06699507 0.016790824 0.014715347 -0.07761092 0.09838025 0.095134996
-0.026202112 0.011196142 0.02027592 -0.0021609713 -0.07357409 0.10988012 0.07107999 -0.14579852
-0.09815914 0.12626848 0.016698893 -0.015028382 0.095528364 0.048529513 0.047355868 0.13092391
-0.0026429985 0.092880964 -0.074582264 -0.062150422 0.030974392 -0.008496479 0.08331803 -0.020939322
0.051104724 -0.034875385 0.09753733 -0.007967884 0.049433425 0.102484316 0.13165864 0.1308107
-0.11868262 -0.05492818 -0.014481025 -0.025236083 0.08610213 0.061137762 -0.026352953 0.011660217
-0.02166827 0.12108349 0.07798687 -0.059894435 -0.10021579 0.07511428 -0.00066872244 -0.069683656
-0.12979902 0.0012149911 -0.047387697 -0.08106727 0.0148386285 0.10718604 0.09773509 0.061222423
-0.10607113 0.060149543 0.056337267 0.032878783 -0.044294786 -0.01589165 -0.06784446 -0.035546858
-0.030809304 -0.024084741 -0.1318605 0.029993178 -0.11242158 -0.10487008 0.040576693 -0.1134815
0.11366622 0.112323776 -0.050014768 -0.03261575 -0.10487196 -0.0069946456 0.008122885 -0.076334424
0.030435352 -0.0166215 -0.047345016 -0.01190504 -0.13239844 -0.09669848 0.005699944 0.11024975
-0.095478795 0.069162875 0.004381688 -0.053778917 -0.028032059 0.05040724 0.0049506393 0.100539796
-0.03286305 -0.095834255 0.10207741 -0.040675703 0.06792125 0.072991 0.0177579 -0.11197678
-0.12786968 0.04860326 0.018851137 0.062683485 -0.120383464 -0.041701186 0.09785355 0.055772163
0.10241951 0.11650516 -0.017178576 -0.13466954 -0.06381563 0.057121232 -0.0011750594 0.013117476
0.031753823 0.092093274 0.07764416 0.090249345 -0.035452195 0.08990788 -0.058632474 -0.042043976
-0.006902096 -0.06906815 0.1207885 -0.004016198 0.04872024 0.00859916 0.010131921 -0.11276632
-0.025070172 -0.10163608 -0.053682376 0.11056372 -0.10417763 0.036663458 0.029774696 -0.09000837
0.036125395 0.085054934 0.105500214 0.037971545 0.110900946 0.014193163 0.06152783 0.050965633
-0.081018806 -0.07649479 -0.07758586 0.097134665 0.120086424 -0.038888484 -0.010037007 0.04666593
-0.10202501 0.020016247 0.07402653 0.016724186 0.0033906524 0.08966376 0.040982578 -0.0994647
0.026713977 -0.082537204 0.08386844 0.11155446 -0.030079909 0.011638556 -0.05009211 -0.04187869
-0.026742406 -0.03367906 0.13674639 -0.104571864 0.059613448 -0.10098221 0.104689755 0.11656392
-0.08141364 -0.017653042 0.035280798 -0.11096541 -0.12146996 0.06217454 0.117747836 -0.03139049
0.009690201 -0.117186666 -0.11395312 0.123808675 0.116300724 -0.030302215 -0.03989195 -0.0549155
0.041329607 -0.11307815 -0.06756578 -0.027817449 -0.04357766 0.012314335 0.09740304 0.00263917
-0.10526416 0.14413424 0.11436106 0.053062655 0.071372025 0.053523663 0.11490491 -0.10763787
-0.07055823 -0.06536192 -0.009817991 -0.08316667 -0.08733747 -0.08411104 -0.009080836 0.11670995
0.08820033 0.05239111 -0.063878454 -0.049640317 0.026686631 -0.11013247 -0.022288306 0.033714876
0.064424746 -0.017590892 0.1358399 0.013266712 -0.1274222 0.17189439 0.12053115 -0.08841577

bias f4 [32]
00000000: 2dd8 a23d f352 6cbd 7daa ad3d c33c f13d
00000010: b2cd 753d 9b17 b63d 35da 78bd d63c df3d
00000020: 9df3 a0bd 4e60 a03d 8772 373d ed02 983b
00000030: 50c6 d53c ebe2 01be b61e f23d ac7c 93bc
00000040: 52fc d83d d41b abbb 7281 10bd b1ab b83d
00000050: 39c1 36bb 2b07 8ebd 204f d63c 02f6 06be
00000060: d4d9 89bd e67c 59bd 6f0b 793c bd65 a2bd
00000070: 1f6d a9bb 8853 a8bd fa5e e8bd b31c b1bc
0.079513885 -0.057696294 0.08479784 0.117791675 0.06001062 0.08891221 -0.060754973 0.109002754
-0.078589655 0.07830869 0.044786956 0.0046390207 0.02609554 -0.12684219 0.11822264 -0.018003784
0.10595001 -0.005221823 -0.0352797 0.090171225 -0.0027886166 -0.06934961 0.026160777 -0.13179782
-0.067310005 -0.053097628 0.01520048 -0.07929561 -0.005170479 -0.08219057 -0.1134624 -0.02162013

weight f4 [1, 32, 5, 5]
00000000: 4d26 a63b bf11 d83c f708 36bc a3a8 0d3d
00000010: a69f c7bc c9e1 573c 09a6 fcbc 76e1 063d
00000020: e9a6 4abc 3d86 a83c 974b 303b 6242 58bc
00000030: 2e9a f1bb dcae 47bc 0b1b b93c d48b db3c
00000040: cef5 0d3d 4353 f1bb 8327 1ebc 5188 89bc
00000050: 65b9 bcba 4aa4 1c3c c2dc f4ba a1f0 b2bc
00000060: 8285 693b a7cb 0bb9 0921 e0bc 2605 0ebc
00000070: 5f77 04ba 73c1 08bd 6f4e bf3b 3d32 2e3c
00000080: 3be5 1abb b023 81bb 1c0e ec3a 5932 233c
00000090: 3c01 83bc f801 18bb bb37 ae3c 0ce7 19bc
000000a0: 883b 6f3a f302 02bd 926a d4bc 7310 1fbb
000000b0: 700c 38bc 6644 103d 1c00 dcbb 5c57 eabc
000000c0: 0f39 fe3c ebe4 b3bc d008 fa3c bfcc 15bb
000000d0: 3e6e 083c 8279 08bd bac3 083d dacf 743a
000000e0: 24ee 85bc 88be c2bc 93a2 003c 6c1b 03bd
000000f0: 4741 e23c f0a5 aa3c 66ca 033d f10c 073d
00000100: 7ad4 9ebc b846 06bc 1e13 bd3c cb9d c53c
00000110: 1ab7 133d 6d4b 58bc b783 d23b 7ae5 3d39
00000120: 64bb b23c f750 82bc 66b0 083d 68d6 1abc
00000130: ce5f 983c 0747 e33c 8b4e 0cbd 851a fa3b
00000140: 3b2d bebc 2311 943c d176 003d be6d 26bc
00000150: 3086 bbbc 33ad 8abc 3c59 ea3c 1871 97bb
00000160: 4992 cebc c0f3 f53c 473f c63c 3cf0 35bb
00000170: d20e a93b 61bb b13b ed53 103d 424f b03c
00000180: 6a0d f33b 1774 f53a ca25 4c3c 9858 cdbc
00000190: 12e0 a53c fac1 823c 5b63 ab3b 4950 b13c
000001a0: e221 bbbb 64c7 ffbc 57df e7bc bc3e 0d3d
000001b0: 6a73 2cbc 0e40 cabc 2f49 123d dc5d c3bc
000001c0: 70fc f43c dfbd 053d 83ee 5abb a0af b13c
000001d0: 1fea e63c 9f84 03bd c5a3 91bc 70f0 bb3b
000001e0: fc90 473c b68c bcbc 3f19 e5bc 9b71 0f3d
000001f0: f27d 7ebc 891b 09bd 2cb4 873c 8542 8cbc
00000200: 5444 39bc 4c30 3abc 62ec 093d 14e4 6d3c
00000210: f663 123d 0c25 3bbc 92c0 da3c 2654 e2bc
00000220: a45c b83c 64f8 283b b955 1f3b 4cce ff3c
00000230: 3ecc 733b 153c 65bc 38dc 96bc 48ad de3b
00000240: 0a38 30bc 9a69 9a3c fbb2 e9bc 0621 babc
00000250: 447c 023d f255 4fbc 4143 08bd 24a5 d73c
00000260: 8a52 12bc 4995 45bb eb7d 993c de85 863c
00000270: ed34 efbc 0cdc 363c 5d5a 143d 4bad 69b9
00000280: a6a4 fd3c eaf7 143d e925 983c 3d72 e6bc
00000290: 7edb 0d3d 0f91 063d aafa 803c 7842 203b
000002a0: da3f a4bc 4e26 403c 5285 01bc f7ce 143d
000002b0: 7a4b f8bc 22cb 363c 9209 1c3b d556 403a
000002c0: dbe6 74bb 7707 803c 8961 f3bc 5d92 073c
000002d0: 4188 bbbc 6c3e 433c 9666 18bb 298c a83b
000002e0: 70d2 a83c b3de 5abc 2b32 e3bc a824 81bc
000002f0: 88dc f13c bef0 e5bc 1484 bd3c 5d69 40bc
00000300: 1ff5 2a3b ff08 793c 848c 40bc 51d1 c1bc
00000310: 9eeb 4f3c 4ce9 b43c ef3c 633c ab10 10ba
00000320: 0dfe fd3a 9fa9 583c f165 283c b47c 96bc
00000330: 9bb5 c63c 4630 d1bb bf92 7ebc 9272 41bc
00000340: 084b 6c3b 721b a2bc f36b b7bc 0929 bd3c
00000350: 9d78 033d 2fa3 02bd ca6f 003d 2bb9 94bc
00000360: fd7e 333c 8835 103d 2ac3 a0bc 8e8a 46bc
00000370: 1cee 343c 497b adbc b277 51bc f03b eabc
00000380: e5d3 a43b 5923 bd3c 0fd7 2b3c 9f33 acbb
00000390: d97b 0d3d 2176 ea3c 0233 95bc be1a ae3c
000003a0: bc6d e7bb 2ddd 4b3c 8ee9 9f3b 723c 873c
000003b0: f9c8 8abc 76dd 82bc 187f 9cbc 5cdc b2bc
000003c0: 3915 69bc 82e9 1b3c 6929 363c 24e6 fd3b
000003d0: ed1c e03c c793 e43c 4021 f23c b6de bc3c
000003e0: ed41 493a 996e 243c 189d 87bc 53e4 fe3a
000003f0: f781 873b fb51 e1bc 0629 f73c da7f d5bb
0.005070484 0.02637565 -0.011110536 0.034584653 -0.024368118 0.01317639 -0.03084089 0.03292986
-0.012368896 0.020571822 0.0026900524 -0.013199421 -0.007373116 -0.012187686 0.022595903 0.026800074
0.034658246 -0.007364662 -0.009652975 -0.016788634 -0.0014398514 0.009560654 -0.0018681514 -0.021843256
0.0035632555 -0.0001333194 -0.027359502 -0.00866822 -0.0005053188 -0.033387613 0.0058382074 0.010632095
-0.0023635167 -0.003941022 0.0018009576 0.009960734 -0.0159918 -0.0023194533 0.021266809 -0.009393465
0.00091259973 -0.031741094 -0.025929723 -0.002427128 -0.011233434 0.03522148 -0.00671388 -0.02860611
0.031033067 -0.021959743 0.03052178 -0.0022857634 0.008327065 -0.033319004 0.033389784 0.00093388336
-0.016348906 -0.023772493 0.007851261 -0.032008573 0.027619017 0.020831078 0.032175444 0.032971326
-0.019388426 -0.008195572 0.023080405 0.024123093 0.03606329 -0.013201577 0.006424393 0.00018109931
0.02181787 -0.015907748 0.03337135 -0.0094505325 0.01860037 0.02774383 -0.034254592 0.007632556
-0.023214927 0.018074578 0.031363312 -0.0101580005 -0.022891134 -0.016928291 0.028607003 -0.004621636
-0.025216239 0.030023456 0.024200095 -0.00277616 0.0051592374 0.0054239486 0.035236288 0.021522168
0.0074173706 0.0018726614 0.0124601815 -0.025066659 0.020248447 0.015961636 0.00523035 0.021644728
-0.0057108263 -0.031223007 -0.028304739 0.034483656 -0.010525564 -0.024688747 0.035714325 -0.023848467
0.029905528 0.03265178 -0.0033406324 0.02169019 0.02818781 -0.0321089 -0.017778287 0.0057354495
0.012180563 -0.023016315 -0.02796614 0.035020452 -0.015532957 -0.033473525 0.016565405 -0.017121563
-0.011307795 -0.011364054 0.033672698 0.01451971 0.03573986 -0.011422407 0.026703153 -0.027628016
0.022505112 0.0025782818 0.002431257 0.0312263 0.0037200595 -0.013991375 -0.018415555 0.006795559
-0.010755548 0.018849183 -0.028527727 -0.022720825 0.03185679 -0.012654768 -0.033267263 0.026323862
-0.008930812 -0.0030148795 0.0187368 0.016421255 -0.029200042 0.011160862 0.03621899 -0.00022285168
0.0309623 0.03636924 0.018572764 -0.028130645 0.034633152 0.032853182 0.015744526 0.002445368
-0.020049978 0.011727883 -0.007905321 0.03633019 -0.030309428 0.011156829 0.0023809415 0.0007337158
-0.0037369046 0.01562856 -0.029709594 0.008274642 -0.02289212 0.011916738 -0.0023254505 0.0051436615
0.020608157 -0.01335876 -0.027733883 -0.01576455 0.029524103 -0.028068896 0.023134269 -0.011743871
0.0026086045 0.015199899 -0.011752252 -0.02365938 0.012690453 0.0220839 0.013869508 -0.0005495648
0.0019378081 0.013224035 0.010278211 -0.01837001 0.024256518 -0.0063839285 -0.015537917 -0.011807101
0.0036055464 -0.019788478 -0.022390341 0.023090856 0.032097448 -0.031893905 0.03135661 -0.018154701
0.010955569 0.0352073 -0.019624311 -0.012117995 0.011043098 -0.021176951 -0.012784885 -0.028593034
0.0050301426 0.023088144 0.010488286 -0.005255177 0.03454194 0.028620781 -0.018212799 0.021252986
-0.007062642 0.012442869 0.004880137 0.016508315 -0.016941534 -0.015974741 -0.019103572 -0.021833591
-0.014226251 0.009516122 0.011118271 0.007748382 0.027357543 0.027902497 0.02955687 0.023055416
0.0007677365 0.010036134 -0.0165544 0.0019446708 0.004135366 -0.027504912 0.030170929 -0.0065154852
