SRCNN-master/model_1.pth (torch, 36296 bytes, 5 tensors)

weight f4 [64, 1, 9, 9]
-0.0035918104 0.05686374 -0.09418004 -0.0845004 -0.045536708 0.02702711 -0.004991398 0.08535047
-0.012617765 0.02664516 -0.03631479 -0.02456404 -0.10887145 -0.07632179 -0.048565555 0.0013304253
0.041182388 0.063916735 -0.07808966 -0.051128395 0.037625324 0.08953599 -0.025606817 0.08038036
-0.020694759 0.009014116 0.097858846 -0.105863586 -0.07272202 -0.030893192 -0.046070244 0.093235426
-0.0748036 -0.053947598 -0.08038148 -0.10682124 -0.06776305 0.09261853 0.046693664 0.050971348
0.0029626337 -0.059855424 0.015898231 -0.10660364 -0.08315002 -0.060229637 0.0671622 0.062208146
-0.052211232 -0.0069395634 0.068128146 0.10752065 0.04120079 0.012111116 0.07151095 -0.06840596
0.017723173 -0.08912257 -0.07998203 -0.06037071 0.04730163 0.041753028 -0.068748295 0.030554943
0.057987675 -0.017032014 0.0012385616 0.022746762 0.06593415 0.10369289 -0.08857856 -0.04367163
0.040643778 0.089040376 0.09367047 0.09502425 0.019102832 -0.09962845 0.007214739 -0.072477214
-0.106515355 0.10368173 0.08944579 -0.105870925 0.025768923 -0.013742759 -0.013357123 -0.045914628
0.047677305 -0.060897514 0.04569255 0.0611511 0.08450718 0.04651904 -0.10499372 -0.067142755
0.060432836 0.028209712 -0.08175908 -0.05902078 0.109487906 0.079833545 -0.043474022 -0.022987813
-0.10090532 0.002958104 -0.07871798 -0.08078615 -0.0011653171 0.02164028 -0.040541243 0.07090203
-0.062639706 0.1057589 0.08109709 -0.08874709 -0.022733226 0.009966073 0.021163402 0.031309266
0.04856976 0.011627829 -0.04927504 0.05752466 -0.10164091 -0.060942147 -0.022874705 -0.04918645
-0.033929512 -0.086117156 -0.018676003 0.028678399 -0.067448124 -0.00077379006 0.08444077 -0.006492765
0.008012726 -0.004657667 0.027427027 0.0755978 0.11017231 0.07549496 0.11041795 -0.003137616
-0.09493417 -0.04780496 0.08052688 0.004163338 -0.050331507 -0.08031326 -0.0991189 -0.088919
-0.017695427 0.065805 0.0649306 -0.102300055 0.07418233 -0.08205805 -0.018667566 -0.04019353
-0.016537461 -0.016967313 -0.09494379 -0.09117627 -0.0126246475 0.006198668 -0.045712657 0.04661653
-0.0952469 -0.0027400956 0.10247117 -0.04055881 0.10509585 0.045002334 -0.09551023 0.07506384
-0.008058631 -0.04483909 0.09361086 -0.08502844 0.016685428 -0.018500667 0.08410944 0.035780244
0.058154896 0.04400431 -0.021956235 -0.018605348 -0.086803176 0.064967096 0.09298207 0.080788575
-0.073610865 0.009721465 -0.07356117 -0.05640133 -0.059982855 0.042733468 -0.06145125 0.0023374022
0.0094371755 0.07638866 -0.07922581 -0.071515135 -0.059755363 0.082531475 -0.035179783 0.098481566
0.044939473 0.018831741 0.003935839 -0.017200585 0.018703137 -0.020610733 0.003978673 0.018936232
-0.08215291 -0.0534778 0.09448161 -0.08541128 -0.0032172832 0.11467459 0.04489494 0.007901923
-0.091533914 0.05979935 -0.07438464 -0.026781851 -0.03252094 -0.011695308 0.0059718797 0.09640005
0.01862435 0.10427503 0.07272407 -0.06548971 0.05459092 -0.07378707 -0.042334728 0.037434857
0.041440886 0.088110186 -0.03101663 -0.0020732605 0.054978114 -0.10963516 0.078243084 -0.09386593
-0.00040263502 -0.020805702 -0.060410537 0.012742803 0.08962422 -0.034717444 -0.0681775 -0.043216962
00000000: 9464 6bbb f4e9 683d 77e1 c0bd 8c0e adbd
00000010: b384 3abd f567 dd3c e28e a3bb 3acc ae3d
00000020: beba 4ebc f346 da3c d1be 14bd 873a c9bc
00000030: fff7 debd 994e 9cbd adec 46bd aa61 ae3a
00000040: ddae 283d c7e6 823d 79ed 9fbd 026c 51bd
00000050: 031d 1a3d a55e b73d 63c5 d1bc 759e a43d
00000060: 0e88 a9bc f1af 133c 386a c83d 02cf d8bd
00000070: 48ef 94bd b813 fdbc 27b4 3cbd 37f2 be3d
00000080: a132 99bd 28f8 5cbd 0c9f a4bd 18c5 dabd
00000090: 5bc7 8abd c9ae bd3d db41 3f3d 55c7 503d
000000a0: bf28 423b f62a 75bd 023d 823c 0253 dabd
000000b0: 8f4a aabd 5ab3 76bd 568c 893d f8cd 7e3d
000000c0: 72db 55bd 4765 e3bb c586 8b3d c933 dc3d
000000d0: 29c2 283d b46d 463c 5574 923d 6d18 8cbd
000000e0: 3030 913c e585 b6bd 9ecd a3bd 4747 77bd
000000f0: 5bbf 413d 3905 2b3d e8cb 8cbd 5c4e fa3c
00000100: 7c84 6d3d b986 8bbc 3b57 a23a 6b57 ba3c
00000110: 7c08 873d f05c d43d ad68 b5bd 06e1 32bd
00000120: 177a 263d cd5a b63d 4ed6 bf3d 139c c23d
00000130: 8b7d 9c3c 000a ccbd 9e69 ec3b ef6e 94bd
00000140: b924 dabd 1657 d43d 5b2f b73d dbd2 d8bd
00000150: 5919 d33c 4f29 61bc d6d7 5abc fa10 3cbd
00000160: 4749 433d ac6f 79bd 1c28 3b3d 9379 7a3d
00000170: 1a12 ad3d c08a 3e3d f306 d7bd 2482 89bd
00000180: 6c88 773d 0e18 e73c 4e71 a7bd c6bf 71bd
00000190: 323b e03d c57f a33d d111 32bd f050 bcbc
000001a0: 73a7 cebd c0dc 413b e436 a1bd 3673 a5bd
000001b0: 8ebd 98ba f546 b13c 930e 26bd 1535 913d
000001c0: 3f49 80bd 1f98 d83d 3b16 a63d 09c1 b5bd
000001d0: 083b babc bd48 233c df5e ad3c 253e 003d
000001e0: 16f1 463d a682 3e3c a0d4 49bd fa9e 6b3d
000001f0: 1c29 d0bd 799e 79bd bc63 bbbc bb77 49bd
00000200: acf9 0abd 315e b0bd 6bfe 98bc f6ee ea3c
00000210: 3e22 8abd 2cd8 4aba 48ef ac3d 43c1 d4bb
00000220: cf47 033c 589f 98bb a5ae e03c 05d3 9a3d
00000230: 05a2 e13d 1a9d 9a3d ce22 e23d 76a0 4dbb
00000240: d96c c2bd 22cf 43bd 47eb a43d 9c6c 883b
00000250: 6928 4ebd 477b a4bd dafe cabd 2a1b b6bd
00000260: 00f6 90bc c6c4 863d 56fa 843d b182 d1bd
00000270: e8ec 973d 0d0e a8bd b9ec 98bc f9a1 24bd
00000280: 9279 87bc 09ff 8abc e471 c2bd a0ba babd
00000290: 9cd7 4ebc 321e cb3b 323d 3bbd f9f0 3e3d
000002a0: cf10 c3bd 2d93 33bb 68dc d13d ff20 26bd
000002b0: 7e3c d73d 5e54 383d de9a c3bd 12bb 993d
000002c0: 5908 04bc 32a9 37bd 0db7 bf3d 6423 aebd
000002d0: e1af 883c b68e 97bc 9241 ac3d 4e8e 123d
000002e0: d433 6e3d dd3d 343d 90dd b3bc 3e6a 98bc
000002f0: ddc5 b1bd 780d 853d 626d be3d 7b74 a53d
00000300: 4bc1 96bd c846 1f3c 3da7 96bd 1505 67bd
00000310: 95b0 75bd 4a09 2f3d 4eb4 7bbd 1a2f 193b
00000320: 629e 1a3c a871 9c3d 2441 a2bd 8776 92bd
00000330: 0ac2 74bd 4306 a93d ad18 10bd b4b0 c93d
00000340: 7412 383d 0645 9a3c 36f8 803b 3ee8 8cbc
00000350: 5237 993c d7d7 a8bc 875f 823b 2820 9b3c
00000360: c93f a8bd 8a0b 5bbd 937f c13d 1cec aebd
00000370: 0ed9 52bb 83da ea3d c2e3 373d 1177 013c
00000380: 2276 bbbd 2af0 743d f956 98bd 9d65 dbbc
00000390: ad34 05bd ad9d 3fbc c2af c33b 646d c53d
000003a0: 1892 983c 268e d53d 5bf0 943d 781f 86bd
000003b0: bb9a 5f3d ad1d 97bd 2e67 2dbd 4b55 193d
000003c0: ebbd 293d 1d73 b43d 9616 febc 8adf 07bb
000003d0: bb30 613d 6688 e0bd e93d a03d c83c c0bd
000003e0: c218 d3b9 b870 aabc 0a71 77bd 31c7 503c
000003f0: e78c b73d e133 0ebd a5a0 8bbd 4504 31bd

bias f4 [64]
0.059515 -0.047485378 0.06680066 0.004292526 0.070246 0.11102156 -0.08696853 0.10980296
0.081237465 -0.084605366 0.028524479 -0.09274067 0.033464406 0.02167127 -0.105995275 0.036083795
-0.028903661 0.10756431 0.1043109 0.04338502 0.09246564 0.03636744 0.10300223 -0.0127552925
0.024738777 -0.015818942 -0.003999514 -0.028732108 -0.039886013 0.06919282 0.04938337 -0.052335784
-0.10141432 0.052491456 -0.09729767 7.4867625e-05 -0.09600032 0.089018665 0.09492535 -0.08677294
-0.10646412 -0.06802782 0.02719726 -0.05476606 -0.025229359 -0.02405203 0.024744734 -0.048213527
0.04737737 -0.07448272 -0.0052200058 0.0898981 -0.056303106 0.081409805 0.054806296 -0.039602373
0.04040839 -0.07011912 0.01400046 0.02808273 0.09261051 -0.064698175 -0.058806967 -0.057516955
00000000: 00c6 733d 0780 42bd c9ce 883d 51a8 8c3b
00000010: 23dd 8f3d 465f e33d 8f1c b2bd 60e0 e03d
00000020: d45f a63d 9445 adbd 2bac e93c d2ee bdbd
00000030: f911 093d f287 b13c 0d14 d9bd 9acc 133d
00000040: 5fc7 ecbc ad4a dc3d f4a0 d53d 7eb4 313d
00000050: a05e bd3d 06f6 143d d5f2 d23d 93fb 50bc
00000060: faa8 ca3c ba96 81bc 5b0e 83bb 995f ebbc
00000070: 845f 23bd f7b4 8d3d 3746 4a3d 0c5e 56bd
00000080: 50b2 cfbd 4801 573d 0044 c7bd 4002 9d38
00000090: d19b c4bd 6b4f b63d 3968 c23d 03b6 b1bd
000000a0: dc09 dabd 2b52 8bbd cacc de3c 6052 60bd
000000b0: cdad cebc c308 c5bc 78b5 ca3c 8c7b 45bd
000000c0: c60e 423d 658a 98bd 950c abbb 7f1c b83d
000000d0: 169e 66bd 2fba a63d 917c 603d 1936 22bd
000000e0: 4583 253d 9d9a 8fbd 2f62 653c c10d e63c
000000f0: 94aa bd3d 7a80 84bd 93df 70bd e696 6bbd

weight f4 [32, 64, 1, 1]
-0.118475094 0.021487039 -0.09835031 -0.033294976 -0.051569074 0.011986076 0.040941156 -0.08629691
-0.033124387 -0.006959721 -0.068495885 0.031414386 0.048642084 -0.08414804 0.098289564 0.09278425
-0.03296178 0.021846632 0.018994968 -0.01218954 -0.07934634 0.106640466 0.06578279 -0.101861335
-0.09431258 0.123602465 0.021630554 -0.023668863 0.08952217 0.040674612 0.047600605 0.10287841
-0.0061881836 0.12110372 -0.08276497 -0.07096018 0.025032375 -0.011176584 0.076244585 -0.029063012
0.023339972 -0.023203157 0.09752933 -0.008066339 0.004269781 0.09627116 0.12608606 0.124181174
-0.119586885 -0.065603495 -0.022069087 -0.022624077 0.07731245 0.05977242 -0.007200861 0.007108199
0.030291194 0.11268491 0.069900244 -0.06023392 -0.061499607 0.038587157 -0.007886488 -0.07586578
-0.12588808 0.013113688 -0.041412376 -0.07272948 0.018706217 0.11678468 0.099936545 0.06638409
-0.09891442 0.06684133 0.059796322 0.0373539 -0.033241447 -0.006256791 -0.067815274 -0.032799296
-0.025422528 -0.021883205 -0.12916435 0.039187435 -0.107102744 -0.09805971 0.045978833 -0.10440965
0.116463475 0.11496133 -0.0440836 -0.026386056 -0.10031057 0.0033657148 0.018412394 -0.07290825
0.03493172 -0.0048106313 -0.041425914 -0.0053330134 -0.12586924 -0.09290937 0.011740208 0.115992114
-0.07848793 0.07702034 0.007279401 -0.053778917 0.00013695657 0.055196706 0.010083358 0.10584983
-0.028376836 -0.08826875 0.10807173 -0.039479986 0.07553768 0.07794622 0.018945478 -0.107360505
-0.12612452 0.05472051 0.025679225 0.06792853 -0.112682335 -0.020858452 0.103226565 0.060962588
0.10694319 0.1031142 -0.025649847 -0.08430476 -0.070465945 0.047386277 -0.045817982 0.0048963865
0.023672236 0.0825774 0.07338891 0.075048774 0.0074675777 0.07528238 -0.05852315 -0.046221517
-0.01521232 -0.06920493 0.115256436 -0.01408859 0.040770933 -0.00030773194 0.0024205227 -0.064120814
-0.006730341 -0.10705524 -0.057318367 0.10126919 -0.112295784 0.025401995 0.023081286 -0.115712
0.028090313 0.060203068 0.09562053 0.028471936 0.10127901 0.008602426 0.05229144 0.04189439
-0.0881309 -0.025364313 -0.084216006 0.09740961 0.06320579 -0.048281338 -0.018386012 0.037956513
-0.10573724 0.008607493 0.06467694 0.018804483 -0.006426716 0.08383928 0.057250503 -0.1071275
0.07664076 -0.093748964 0.07533765 0.108506635 0.014390871 -0.03843853 -0.05971405 -0.05129915
-0.020090628 -0.046854824 0.12920551 -0.0532129 0.056048274 -0.11094433 0.06704235 0.11084526
-0.08588215 -0.026802916 0.03350876 -0.1163968 -0.07673316 0.048290838 0.11771203 -0.033443253
0.0034148446 -0.1172194 -0.11623991 0.11379096 0.11057815 -0.03450272 -0.045216896 -0.0056527006
0.0605309 -0.116102524 -0.067292646 -0.03617215 -0.049618933 0.0016576477 0.09396393 0.030417487
-0.10968148 0.117911324 0.10568091 0.044463396 0.064980835 0.050670963 0.10732342 -0.1152943
-0.07396294 -0.013983662 -0.01976749 -0.08283856 -0.12153556 -0.09080209 -0.014900527 0.110652804
0.08575148 0.041079547 -0.07169757 -0.047143333 0.01708963 -0.112561464 -0.0028197567 0.029510107
0.115959056 -0.027843075 0.12782045 0.012316125 -0.083837345 0.121139824 0.11311526 -0.09449579
00000000: 12a3 f2bd 9605 b03c e36b c9bd 5060 08bd
00000010: 183a 53bd 3f61 443c eab1 273d 6fbc b0bd
00000020: 70ad 07bd 5f0e e4bb 9247 8cbd 5fac 003d
00000030: ec3c 473d cf55 acbd 0a4c c93d ab05 be3d
00000040: ee02 07bd b5f7 b23c 569b 9b3c a3b6 47bc
00000050: 5580 a2bd 5166 da3d 21b9 863d ad9c d0bd
00000060: f426 c1bd 4a23 fd3d 8f32 b13c 34e5 c1bc
00000070: 6657 b73d 6c9a 263d daf8 423d eab1 d23d
00000080: 3fc6 cabb 3a05 f83d ae80 a9bd 9253 91bd
00000090: b210 cd3c fe1d 37bc 1f26 9c3d 8e15 eebc
000000a0: 7833 bf3c 8c14 bebc 75bd c73d ae28 04bc
000000b0: 85e9 8b3b d029 c53d b41c 013e b352 fe3d
000000c0: f8e9 f4bd 205b 86bd 3bca b4bc 2156 b9bc
000000d0: fd55 9e3d edd3 743d 33f5 ebbb e5eb e83b
000000e0: 3d25 f83c 59c7 e63d dc27 8f3d d8b7 76bd
000000f0: 03e7 7bbd 910d 1e3d 5436 01bc 855f 9bbd
00000100: cee8 00be cbda 563c 06a0 29bd 32f3 94bd
00000110: c83d 993c ce2c ef3d 88ab cc3d 62f4 873d
00000120: a593 cabd 1be4 883d fdec 743d 6700 193d
00000130: 2f28 08bd c405 cdbb bce2 8abd 8e58 06bd
00000140: e842 d0bc 6844 b3bc a943 04be 0183 203d
00000150: af58 dbbd 87d3 c8bd 4d54 3c3d bad4 d5bd
00000160: 6784 ee3d d970 eb3d 0191 34bd 9227 d8bc
00000170: a16f cdbd 5393 5c3b 97d5 963c ec50 95bd
00000180: 9014 0f3d 80a2 9dbb 38ae 29bd 8fc0 aebb
00000190: dee3 00be 4547 bebd 005a 403c 468d ed3d
000001a0: 48be a0bd d7bc 9d3d 0b88 ee3b 4847 5cbd
000001b0: 009c 0f39 f115 623d ab34 253c ccc7 d83d
000001c0: 8a76 e8bc 3fc6 b4bd b654 dd3d c4b5 21bd
000001d0: 80b3 9a3d 45a2 9f3d 8c33 9b3c d3df dbbd
000001e0: c926 01be 9d22 603d 3d5d d23c 1d1e 8b3d
000001f0: ffc5 e6bd 58df aabc 7368 d33d e8b3 793d
00000200: 0805 db3d 8a2d d33d a11f d2bc f9a7 acbd
00000210: 7350 90bd 1d18 423d a3ab 3bbd de71 a03b
00000220: 47ec c13c 571e a93d ed4c 963d 2cb3 993d
00000230: 95b2 f43b a62d 9a3d f8b5 6fbd c652 3dbd
00000240: 183d 79bc 50bb 8dbd 910b ec3d d4d3 66bc
00000250: 6cff 263d 1557 a1b9 a2a1 1e3b c651 83bd
00000260: 318a dcbb c73f dbbd aac6 6abd 3966 cf3d
00000270: 55fb e5bd d817 d03c f714 bd3c 6afa ecbd
00000280: a81d e63c 7e97 763d b2d4 c33d fa3d e93c
00000290: 5f6b cf3d 31f1 0c3c 8d2f 563d 7499 2b3d
000002a0: f97d b4bd d2c8 cfbc 7179 acbd b17e c73d
000002b0: 0a72 813d a7c2 45bd 439e 96bc 4a78 1b3d
000002c0: c48c d8bd 7106 0d3c 5875 843d dc0b 9a3c
000002d0: 3497 d2bb eeb3 ab3d 817f 6a3d aa65 dbbd
000002e0: d5f5 9c3d 75ff bfbd a04a 9a3d ba38 de3d
000002f0: b0c7 6b3c b871 1dbd b896 74bd 0f1f 52bd
00000300: 1a95 a4bc d8ea 3fbd 734e 043e c5f5 59bd
00000310: e092 653d c836 e3bd 804d 893d d702 e33d
00000320: fbe2 afbd ca91 dbbc 7b40 093d 7261 eebd
00000330: 4626 9dbd 9dcc 453d 0113 f13d cbfb 08bd
00000340: 96cb 5f3b ba10 f0bd 310f eebd 3c0b e93d
00000350: cc76 e23d b952 0dbd 5a35 39bd 4a3a b9bb
00000360: 40ef 773d 29c7 edbd bad0 89bd 4029 14bd
00000370: 393d 4bbd 6d45 d93a 2970 c03d 182e f93c
00000380: afa0 e0bd 7e7b f13d 3c6f d83d 401f 363d
00000390: ac14 853d 5b8c 4f3d 62cc db3d 6b1f ecbd
000003a0: e279 97bd bb1b 65bc 6eef a1bc 43a7 a9bd
000003b0: a3e7 f8bd 72f6 b9bd 5721 74bc f09d e23d
000003c0: 799e af3d 0743 283d 2dd6 92bd 5e19 41bd
000003d0: 8dff 8b3c a086 e6bd abcb 38bb 2ebf f13c
000003e0: f17b ed3d 2917 e4bc 5de3 023e 93c9 493c
000003f0: eab2 abbd 2818 f83d f9a8 e73d 0287 c1bd

bias f4 [32]
0.075350694 -0.052983034 0.07848913 0.11360538 0.05525098 0.082015075 -0.09289649 0.11137054
-0.07859472 0.074542075 0.036218368 0.005098075 0.028223945 -0.12600896 0.11612647 -0.008152602
0.10761379 -0.0019173783 -0.046450112 0.08297164 0.001466238 -0.07490268 0.020250099 -0.1284336
-0.072872676 -0.09757995 0.010733158 -0.07308343 -0.0052757217 -0.090204164 -0.11155373 -0.018565008
00000000: 7751 9a3d bd04 59bd e9be a03d f0a9 e83d
00000010: da4e 623d 85f7 a73d 8440 bebd 3d16 e43d
00000020: 45f6 a0bd 84a9 983d b659 143d c10d a73b
00000030: e735 e73c 7e08 01be b7d3 ed3d 7e92 05bc
00000040: 9e64 dc3d 8a50 fbba 7942 3ebd 09ed a93d
00000050: c92e c03a 9466 99bd 89e3 a53c 1984 03be
00000060: 453e 95bd ffd7 c7bd 21da 2f3c c4ac 95bd
00000070: f6df acbb f6bc b8bd 4876 e4bd a515 98bc

weight f4 [1, 32, 5, 5]
0.00460296 0.025879156 -0.011650736 0.034071725 -0.024843799 0.012677444 -0.031369407 0.03236117
-0.012905635 0.020076225 0.0021409069 -0.013779539 -0.007990424 -0.012769609 0.022058025 0.026259871
0.034086507 -0.00797067 -0.010219914 -0.017308436 -0.0019809813 0.008988996 -0.0024716542 -0.022406662
0.0030466085 -0.0005699631 -0.027795538 -0.009129574 -0.0009564797 -0.033847444 0.005396589 0.010192321
-0.0028276676 -0.0043950444 0.0013377485 0.009492805 -0.0164555 -0.0028041382 0.020792283 -0.009876622
0.000430677 -0.032217458 -0.02642613 -0.002912119 -0.0117258495 0.03483554 -0.0070996806 -0.029023936
0.030632487 -0.022368195 0.02967444 -0.0031784843 0.0073550716 -0.034256678 0.032495413 1.282503e-05
-0.01731833 -0.02481893 0.006843858 -0.03296817 0.026622262 0.019786669 0.031055877 0.03189245
-0.020418428 -0.009165206 0.022066077 0.023033887 0.035015535 -0.014199925 0.005490128 -0.0007927134
0.020770287 -0.016913095 0.03241616 -0.01001966 0.018008752 0.027123518 -0.034865163 0.007033457
-0.023795709 0.017468128 0.03072355 -0.010790527 -0.02351119 -0.017522415 0.027984606 -0.00528111
-0.025869807 0.029384652 0.023626499 -0.0033798825 0.0045165517 0.004787847 0.034618463 0.020952972
0.006817878 0.0012354065 0.011832319 -0.025672534 0.019634875 0.015320201 0.0045587057 0.020986747
-0.006353006 -0.03184928 -0.028959632 0.033798773 -0.011196609 -0.025345061 0.03506282 -0.024527205
0.029197386 0.031956457 -0.0040241177 0.021053093 0.027525764 -0.032800205 -0.018458819 0.0050636847
0.011549956 -0.02366901 -0.028647471 0.034348484 -0.016198043 -0.034031067 0.015986266 -0.017725488
-0.011884759 -0.011946091 0.033091277 0.013909511 0.035098102 -0.012040827 0.026080854 -0.028234515
0.021865351 0.001901536 0.0017745156 0.030566346 0.0031630858 -0.014581643 -0.019045543 0.006182847
-0.01137381 0.018330734 -0.02907344 -0.023304326 0.031288985 -0.01323264 -0.034500577 0.02564364
-0.009242611 0.000208918 0.021905553 0.012189895 -0.03352977 0.0067350734 0.03431453 -0.0019906843
0.026098348 0.031365093 0.013421794 -0.03262404 0.030380761 0.028311066 0.010988947 -0.0025201037
-0.024302492 0.007840278 -0.011894835 0.032073483 -0.034855206 0.0076686493 -0.00070223777 0.0004973669
-0.003990077 0.015368283 -0.029952593 0.008014783 -0.023137735 0.01165322 -0.0025967308 0.0048916796
0.020342495 -0.013652914 -0.028048709 -0.01608779 0.029224476 -0.028373515 0.022825254 -0.012078975
0.0022644307 0.014885961 -0.012059673 -0.023950255 0.012369608 0.02175579 0.013578065 -0.0008269605
0.004033282 0.015079854 0.011460812 -0.017337143 0.025662549 -0.004461128 -0.013696486 -0.010460437
0.004893279 -0.018108902 -0.025475068 0.020032922 0.029156318 -0.034837093 0.028435932 -0.020459402
0.008667087 0.033024978 -0.02180622 -0.014234712 0.010503589 -0.021802997 -0.0134584345 -0.029337328
0.004425748 0.022517404 0.009912237 -0.005849156 0.033957444 0.02803831 -0.018790642 0.02066776
-0.0076682754 0.011844891 0.0042838072 0.01591762 -0.017541513 -0.01659769 -0.019720616 -0.02244918
-0.014802057 0.008929658 0.010507056 0.0071422467 0.02675319 0.027330978 0.028974235 0.022447722
0.00016550289 0.009436643 -0.017378436 0.0010176671 0.0031059156 -0.02848079 0.02935779 -0.007407782
00000000: 6dd4 963b 8600 d43c bbe2 3ebc cb8e 0b3d
00000010: 3985 cbbc 0eb5 4f3c 357d 00bd 258d 043d
00000020: 2872 53bc e576 a43c 754e 0c3b 93c3 61bc
00000030: 44ea 02bc 9f37 51bc 08b3 b43c f11e d73c
00000040: 4b9e 0b3d 6a97 02bc 6d71 27bc 6cca 8dbc
00000050: 5ad3 01bb 9546 133c 7afb 21bb 2d8e b7bc
00000060: 9ca9 473b 9369 15ba 78b3 e3bc 3594 15bc
00000070: 44bc 7aba 9ea3 0abd dfd5 b03b b1fd 263c
00000080: 6450 39bb 4e04 90bb 6457 af3a b687 1b3c
00000090: afcd 86bc a2c5 37bb 9454 aa3c 8ed1 21bc
000000a0: 7dcc e139 74f6 03bd 9d7b d8bc 40d9 3ebb
000000b0: c71d 40bc b6af 0e3d 70a4 e8bb 9bc3 edbc
000000c0: fbf0 fa3c 813d b7bc d017 f33c 1e4e 50bb
000000d0: d002 f13b bb50 0cbd e919 053d 162b 5737
000000e0: 2cdf 8dbc 1251 cbbc 7142 e03b a209 07bd
000000f0: ee16 da3c a717 a23c e568 fe3c a8a1 023d
00000100: 8c44 a7bc a929 16bc ebc3 b43c 90b1 bc3c
00000110: 736c 0f3d cda6 68bc 88e6 b33b 19ce 4fba
00000120: 7326 aa3c 558d 8abc cfc6 043d 8029 24bc
00000130: 1787 933c 2432 de3c c6ce 0ebd ea78 e63b
00000140: 38ef c2bc 5219 8f3c f4af fb3c c0ca 30bc
00000150: 8a9a c0bc 2b8b 8fbc f93f e53c 290d adbb
00000160: ebec d3bc 15b8 f03c 5c8c c13c 0581 5dbb
00000170: 95ff 933b 5fe3 9c3b 17cc 0d3d 91a5 ab3c
00000180: 8268 df3b 5ded a13a 58dc 413c 354f d2bc
00000190: 51d9 a03c 9501 7b3c 3261 953b 66ec ab3c
000001a0: e12c d0bb 6474 02bd c03c edbc 9570 0a3d
000001b0: fb71 37bc 72a0 cfbc 089e 0f3d 47ed c8bc
000001c0: 5b2f ef3c c6e4 023d bfdc 83bb 8977 ac3c
000001d0: b67d e13c 8259 06bd f336 97bc 44ed a53b
000001e0: 073c 3d3c 83e5 c1bc 1aae eabc ffb0 0c3d
000001f0: c2b1 84bc 2964 0bbd a1f5 823c 0b35 91bc
00000200: 4bb8 42bc 8ab9 43bc b88a 073d b8e4 633c
00000210: 07c3 0f3d e446 45bc 84a7 d53c 124c e7bc
00000220: f71e b33c f63c f93a dd96 e83a 4666 fa3c
00000230: c64b 4f3b d8e7 6ebc 6605 9cbc 7b99 ca3b
00000240: 3759 3abc 562a 963c 6c2b eebc b7e8 bebc
00000250: e128 003d b7cd 58bc 7a50 0dbd 9c12 d23c
00000260: 526e 17bc 0011 5b39 4673 b33c 20b8 473c
00000270: 8356 09bd e4b1 dc3b 658d 0c3d 2476 02bb
00000280: 34cc d53c af78 003d 16e7 5b3c c9a0 05bd
00000290: 13e1 f83c 9cec e73c fc0a 343c 5328 25bb
000002a0: 0516 c7bc 8274 003c 8ee2 42bc 7c5f 033d
000002b0: 55c4 0ebd 4b49 fb3b 6116 38ba ba61 023a
000002c0: 31bf 82bb 40cb 7b3c 245f f5bc 7050 033c
000002d0: 598b bdbc 26ed 3e3c ea2d 2abb 624a a03b
000002e0: 4ea5 a63c 79b0 5fbc 68c6 e5bc 8aca 83bc
000002f0: 2b68 ef3c 936f e8bc 07fc ba3c e5e6 45bc
00000300: d866 143b 3fe4 733c ef95 45bc 5333 c4bc
00000310: e5a9 4a3c 3339 b23c 8876 5e3c 61c8 58ba
00000320: 9f29 843b 7e11 773c 21c6 3b3c a006 8ebc
00000330: 443a d23c a72e 92bb 3a67 60bc 4162 2bbc
00000340: cd57 a03b 1f59 94bc 17b1 d0bc 151c a43c
00000350: 3bd9 ee3c 57b1 0ebd 79f2 e83c 7a9a a7bc
00000360: 6600 0e3c 3345 073d f5a2 b2bc b638 69bc
00000370: 3f17 2c3c 339c b2bc c480 5cbc d654 f0bc
00000380: dd05 913b 6b76 b83c ef66 223c 47aa bfbb
00000390: f616 0b3d 99b0 e53c d5ee 99bc 6f4f a93c
000003a0: 2846 fbbb 1311 423c 2e5f 8c3b ab65 823c
000003b0: 38b3 8fbc e1f7 87bc 218d a1bc 58e7 b7bc
000003c0: 5484 72bc b34d 123c c925 2c3c 8209 ea3b
000003d0: 8229 db3c 37e5 df3c 605b ed3c 49e4 b73c
000003e0: d88a 2d39 269c 1a3c 395d 8ebc 3e63 853a
000003f0: 9e8c 4b3b 8c50 e9bc bf7f f03c fbbc f2bb
