SRCNN-master/model_7.pth (torch, 36296 bytes, 5 tensors)

weight f4 [64, 1, 9, 9]
0	0xbb9b5ce9	-0.0047413004
1	0x3d64aec5	0.055830736
2	0xbdc2d5c4	-0.09513429
3	0xbdaf018d	-0.08545218
4	0xbd3ed573	-0.04659028
5	0x3cd38739	0.025821315
6	0xbbcd52e3	-0.0062659844
7	0x3dacb30a	0.084325865
8	0xbc5ec6dd	-0.013597217
9	0x3cd13ca2	0.025541607
10	0xbd189caf	-0.0372588
11	0xbccffbb7	-0.025388582
12	0xbde0a533	-0.10969009
13	0xbd9e4aa2	-0.07729079
14	0xbd4bd0f7	-0.04975983
15	0x37d62f3d	2.5532785e-05
16	0x3d2454e9	0.04012004
17	0x3d80d55d	0.06290696
18	0xbda2209f	-0.07916378
19	0xbd550a69	-0.05201188
20	0x3d172094	0.036896303
21	0x3db5ecb6	0.0888304
22	0xbcd8e9ed	-0.026478732
23	0x3da24786	0.07923798
24	0xbcb42690	-0.021991044
25	0x3c02073e	0.007936297
26	0x3dc6502b	0.096832596
27	0xbddb2bac	-0.10701689
28	0xbd96ed5b	-0.07369491
29	0xbd01e867	-0.031715777
30	0xbd3fe89d	-0.046852697
31	0x3dbd134e	0.09232198
32	0xbd9b9548	-0.075968325
33	0xbd626e85	-0.05528118
34	0xbda6f67e	-0.081524834
35	0xbddd0d95	-0.10793606
36	0xbd8b9903	-0.06816294
37	0x3dbd0a92	0.09230532
38	0x3d3e408d	0.04644828
39	0x3d4fdec6	0.050749563
40	0x3b2fe007	0.0026836412
41	0xbd76e2f2	-0.060275026
42	0x3c7c0386	0.015381699
43	0xbddae260	-0.10687709
44	0xbdaaabea	-0.08333571
45	0xbd7a38cf	-0.061089333
46	0x3d87c52e	0.06629406
47	0x3d7b2014	0.06130989
48	0xbd599f93	-0.053130697
49	0xbc00eaae	-0.007868452
50	0x3d89919e	0.067172274
51	0x3dda3e4f	0.10656416
52	0x3d260179	0.04052875
53	0x3c3d42ff	0.011551618
54	0x3d900a60	0.07033229
55	0xbd8eaa45	-0.0696607
56	0x3c8612b4	0.01636634
57	0xbdb97025	-0.09054593
58	0xbda6b854	-0.081406265
59	0xbd7cf8ef	-0.06176084
60	0x3d3c5461	0.045978907
61	0x3d26ea4b	0.040750783
62	0xbd8e92e8	-0.06961614
63	0x3cf009c4	0.029301532
64	0x3d67ff97	0.056640234
65	0xbc978c7d	-0.018499607
66	0xb9a34d9b	-0.00031147603
67	0x3cad92ea	0.021188218
68	0x3d83ed86	0.064417884
69	0x3dd16ed6	0.102262184
70	0xbdb7a9ca	-0.089679316
71	0xbd36d411	-0.044635836
72	0x3d21c737	0.039496627
73	0x3db3d8d1	0.08781589
74	0x3dbd1fe0	0.09234595
75	0x3dbfbfb4	0.09362736
76	0x3c90eb43	0.017690307
77	0xbdcee24b	-0.10101756
78	0x3bc12410	0.0058941916
79	0xbd967dee	-0.07348238
80	0xbddbf51e	-0.10740112
81	0x3de64501	0.1124363
82	0x3dc9f82c	0.09861788
83	0xbdc4fb2b	-0.09618219
84	0x3d120327	0.035647538
85	0xbb7f2a69	-0.003893519
86	0xbb7e7480	-0.0038826764
87	0xbd168f94	-0.03675802
88	0x3d67a9c3	0.05655838
89	0xbd55d6fa	-0.05220697
90	0x3d613b60	0.054988265
91	0x3d915f3e	0.07098244
92	0x3dc282cf	0.09497606
93	0x3d6a73f9	0.057239506
94	0xbdc12ef3	-0.09432783
95	0xbd692d39	-0.056927893
96	0x3d8fdaeb	0.07024177
97	0x3d1a45c7	0.0376642
98	0xbd949bde	-0.07256292
99	0xbd48c26b	-0.049013536
100	0x3df613a7	0.12015467
101	0x3dbaee45	0.091274776
102	0xbd01d0df	-0.031693336
103	0xbc3889cb	-0.011263321
104	0xbdb7b736	-0.089704916
105	0x3c5f908e	0.013645304
106	0xbd8c42f4	-0.06848708
107	0xbd9130f1	-0.07089413
108	0x3c1c01a6	0.009521877
109	0x3d077155	0.033067066
110	0xbce75e29	-0.028243141
111	0x3dab4386	0.083624884
112	0xbd4c8e68	-0.049940497
113	0x3df17649	0.11790139
114	0x3dbdb931	0.09263838
115	0xbd9f3d8c	-0.07775411
116	0xbc47028c	-0.012146603
117	0x3cacd8fc	0.02109956
118	0x3d0763fa	0.03305433
119	0x3d349fb2	0.04409761
120	0x3d7d395e	0.061822288
121	0x3ccbf362	0.024896327
122	0xbd15b608	-0.03655055
123	0x3d8e91f4	0.06961432
124	0xbdb89f19	-0.090147205
125	0xbd4c55e5	-0.049886603
126	0xbc472dca	-0.012156913
127	0xbd1a9f32	-0.037749477
128	0xbcb14394	-0.02163867
129	0xbd964a9c	-0.07338449
130	0xbbc18c94	-0.005906651
131	0x3d27afea	0.04093925
132	0xbd648b5b	-0.055796962
133	0x3c289ec8	0.010291763
134	0x3dc2b798	0.09507674
135	0x3b6f1a9e	0.003648437
136	0x3c99dafb	0.018781176
137	0x3be0ce8c	0.00686056
138	0x3d21098b	0.03931574
139	0x3db340fb	0.087526284
140	0x3df92512	0.12165274
141	0x3db10d15	0.08645073
142	0x3df78540	0.12085962
143	0x3be2f97f	0.006926715
144	0xbdaed090	-0.08535874
145	0xbd1a7a99	-0.037714574
146	0x3dbadd3d	0.09124229
147	0x3c786cf1	0.015162692
148	0xbd20f893	-0.03929956
149	0xbd8eaff1	-0.06967152
150	0xbdb61134	-0.0889
151	0xbda2228a	-0.07916744
152	0xbc0726a2	-0.008248957
153	0x3d99882b	0.07496675
154	0x3d9896c1	0.07450629
155	0xbdbcd86b	-0.09220966
156	0x3dad04ae	0.08448158
157	0xbd92eb5b	-0.07173797
158	0xbc0e714d	-0.008694005
159	0xbcfa5c04	-0.030561455
160	0xbbeebdf9	-0.00728583
161	0xbc024636	-0.00795131
162	0xbdbbc351	-0.09168113
163	0xbdb3d56c	-0.08780941
164	0xbc155995	-0.009115596
165	0x3c20bd56	0.009810766
166	0xbd2c4999	-0.042062376
167	0x3d4d6d57	0.050153103
168	0xbdbc3815	-0.09190384
169	0x3a2085ba	0.00061234424
170	0x3dd8b62c	0.105816215
171	0xbd1806f3	-0.037116002
172	0x3dde93b6	0.108680174
173	0x3d47bba4	0.048762932
174	0xbdbba9d4	-0.091632515
175	0x3da1b8ef	0.078966014
176	0xbb8cff15	-0.004302869
177	0xbd293888	-0.041313678
178	0x3dc6e499	0.0971157
179	0xbda701ce	-0.08154641
180	0x3ca6d942	0.020367268
181	0xbc6fdf0f	-0.014640584
182	0x3db49705	0.08817867
183	0x3d23c21c	0.03998004
184	0x3d7f6f14	0.06236179
185	0x3d44b10f	0.04802042
186	0xbc95432c	-0.018220507
187	0xbc7479ae	-0.014921589
188	0xbdaa49ad	-0.08314834
189	0x3d8cd38d	0.068762876
190	0x3dc6979e	0.096968874
191	0x3dae13f8	0.084999025
192	0xbd8dd628	-0.06925613
193	0x3c66b5ff	0.014081477
194	0xbd8e2f67	-0.06942635
195	0xbd57701e	-0.052597158
196	0xbd666e0e	-0.0562573
197	0x3d3e33c2	0.04643608
198	0xbd6cba5f	-0.057794925
199	0x3bca09e8	0.0061657317
200	0x3c5cdc4f	0.01348026
201	0x3da50c90	0.08059037
202	0xbd99988f	-0.07499801
203	0xbd8a47bc	-0.067519635
204	0xbd65e207	-0.05612376
205	0x3db044ed	0.086068965
206	0xbd01a5ef	-0.031652387
207	0x3dd0e33e	0.10199593
208	0x3d470915	0.048592646
209	0x3cb9c227	0.022675587
210	0x3c021122	0.007938655
211	0xbc578644	-0.01315457
212	0x3cb88ef2	0.0225291
213	0xbc8c75e2	-0.017146055
214	0x3bf1150c	0.0073572453
215	0x3cb6dccb	0.02232208
216	0xbda1668b	-0.07880887
217	0xbd4ce1c1	-0.050019983
218	0x3dc8e967	0.09810143
219	0xbda73c75	-0.08165828
220	0x3a1472f1	0.00056628796
221	0x3df22c7b	0.1182489
222	0x3d452d9b	0.048139196
223	0x3c35bf77	0.011093012
224	0xbdb4dec2	-0.0883155
225	0x3d8149dd	0.063129164
226	0xbd915287	-0.07095819
227	0xbcbe3a59	-0.023221182
228	0xbcec711c	-0.028862529
229	0xbc038852	-0.008028107
230	0x3c1ac6da	0.009446824
231	0x3dcbf7e3	0.0995939
232	0x3cb2a0e4	0.021805234
233	0x3ddc2762	0.10749699
234	0x3d9bc3c0	0.07605696
235	0xbd7e41f7	-0.062074628
236	0x3d6e0de8	0.05811873
237	0xbd8fbcd6	-0.070184395
238	0xbd1ea36f	-0.03873008
239	0x3d276a2a	0.04087273
240	0x3d36db75	0.044642884
241	0x3dbb0a38	0.091328084
242	0xbce35f5d	-0.027755434
243	0x3d081294	0.033220842
244	0x3db90775	0.090346254
245	0xbd97e615	-0.074169315
246	0x3de57470	0.11203849
247	0xbd7bb608	-0.061452895
248	0x3d0946d1	0.0335148
249	0x3c798cb2	0.015231298
250	0xbcb8f66c	-0.02257844
251	0x3d53cfac	0.051711723
252	0x3dfb5a1f	0.122730486
253	0xbb156e65	-0.0022801396
254	0xbd171636	-0.036886416
255	0xbc89c937	-0.01681958

bias f4 [64]
0	0x3d71b33c	0.05900882
1	0xbd161b60	-0.0366472
2	0x3d8f427e	0.06995104
3	0x3cdbea66	0.026845168
4	0x3d833fc7	0.06408649
5	0x3deeacc5	0.11654047
6	0xbd92482d	-0.07142673
7	0x3de882ce	0.11353074
8	0x3daf0a93	0.08546939
9	0xbd9cefde	-0.076629385
10	0x3ce15ee1	0.027511062
11	0xbdbb39ae	-0.09141861
12	0x3d3b7389	0.04576448
13	0x3cfad0ef	0.030617205
14	0xbdd8321e	-0.10556434
15	0x3d01f2f2	0.03172583
16	0xbcb4c1dd	-0.022065097
17	0x3ddd5a60	0.10808253
18	0x3dd35496	0.10318868
19	0x3d5031cf	0.05082875
20	0x3dcbcc2c	0.09951052
21	0x3d1e65dc	0.03867136
22	0x3ddffde3	0.10937097
23	0x3b135d9d	0.0022486218
24	0x3d0254ce	0.031819157
25	0xbcb617ef	-0.02222821
26	0xbb88df38	-0.0041770004
27	0xbcbfa5c4	-0.023394473
28	0xbd2f800a	-0.042846717
29	0x3d9ffbd6	0.07811706
30	0x3d58a6bf	0.052893396
31	0xbd222158	-0.03958258
32	0xbdd3de85	-0.103451766
33	0x3daac30d	0.08337984
34	0xbdbb967d	-0.09159563
35	0x3be18eb1	0.006883465
36	0xbdb3c1ee	-0.087772235
37	0x3db2c670	0.08729255
38	0x3dcfad5b	0.10140487
39	0xbda7b4e3	-0.08188798
40	0xbdbd930b	-0.09256562
41	0xbd59b0fd	-0.053147305
42	0x3d0cb403	0.03435136
43	0xbd725fc3	-0.059173357
44	0x3c1f2cc3	0.009715262
45	0xbcbf0f21	-0.023322644
46	0x3cf26d49	0.029593127
47	0xbd2ad540	-0.041707277
48	0x3d41e5fe	0.04733848
49	0xbd891fe9	-0.066955395
50	0xb9958c7a	-0.00028524158
51	0x3db98694	0.09058872
52	0xbd49d840	-0.049278498
53	0x3da58487	0.08081918
54	0x3d8866e7	0.06660252
55	0xbd247d33	-0.04015846
56	0x3d4f0bd7	0.0505484
57	0xbd86b079	-0.06576628
58	0x3ca167df	0.01970285
59	0x3ce9ab0e	0.028523948
60	0x3dccf5ea	0.10007842
61	0xbcd0a052	-0.025467072
62	0xbd618139	-0.055054877
63	0xbd57fe6e	-0.052732877

weight f4 [32, 64, 1, 1]
0	0xbdf4ddcc	-0.11956367
1	0x3d0140aa	0.03155581
2	0xbdbab121	-0.09115816
3	0xbd9ace9c	-0.07558939
4	0xbd448b98	-0.04798469
5	0x3cb3247b	0.021867981
6	0x3d0ffb99	0.03515205
7	0xbda5c629	-0.08094437
8	0xbcecc871	-0.028904172
9	0x3b043de5	0.0020178494
10	0xbd896873	-0.06709375
11	0x3ca7251f	0.020403443
12	0x3c9ae421	0.018907608
13	0xbd9dfa3d	-0.07713745
14	0x3dc97169	0.098360844
15	0x3dc2c2fc	0.095098466
16	0xbcd7652a	-0.026293356
17	0x3c644d77	0.013934485
18	0x3ca616b4	0.020274498
19	0xbb14ec7c	-0.0022723963
20	0xbd968144	-0.07348874
21	0x3de0d79f	0.109786265
22	0x3d91c06f	0.07116782
23	0xbe0b9324	-0.13630348
24	0xbdccaf8b	-0.0999442
25	0x3e015063	0.12628321
26	0x3c9673b0	0.018365711
27	0xbc7980d5	-0.01522847
28	0x3dc3e801	0.095657356
29	0x3d48ed03	0.049054157
30	0x3d46cbcf	0.04853421
31	0x3df83777	0.12119954
32	0xbb2846ea	-0.0025677034
33	0x3dc13ea6	0.09435777
34	0xbd988a63	-0.0744827
35	0xbd7ee117	-0.06222638
36	0x3cff4f68	0.031165794
37	0xbc0b8b85	-0.008517151
38	0x3daaa21b	0.083317004
39	0xbcabc9c2	-0.020970229
40	0x3d4117b5	0.04714175
41	0xbcd419c1	-0.025891187
42	0x3dca99c9	0.098926134
43	0xbc023851	-0.007947997
44	0x3d20a53d	0.039220084
45	0x3dd1d6cf	0.102460496
46	0x3e06e845	0.13174541
47	0x3e05dadb	0.13071768
48	0xbdf3e05f	-0.1190803
49	0xbd6212c4	-0.055193678
50	0xbc6f92a6	-0.014622366
51	0xbcc4837a	-0.023988474
52	0x3db0daed	0.08635507
53	0x3d7a7ca3	0.06115402
54	0xbc9e84a4	-0.019350357
55	0x3c3e0df1	0.011600004
56	0xbc36476e	-0.011125429
57	0x3df83d04	0.12121013
58	0x3da0192a	0.078173
59	0xbd75f720	-0.06005013
60	0xbdbe5bd3	-0.09294858
61	0x3d8f0044	0.069824725
62	0xba41b53f	-0.00073893735
63	0xbd8ef5be	-0.06980465
64	0xbe04e754	-0.1297887
65	0x3a9f88a0	0.0012171455
66	0xbd4218dc	-0.04738699
67	0xbda60699	-0.08106727
68	0x3c731db8	0.0148386285
69	0x3ddb853f	0.10718774
70	0x3dc82956	0.09773509
71	0x3d7ac4d1	0.061222855
72	0xbdd93b69	-0.10607035
73	0x3d765fc5	0.060149927
74	0x3d66c353	0.05633862
75	0x3d06abe7	0.032878783
76	0xbd34d64c	-0.044149682
77	0xbc822d8d	-0.01589086
78	0xbd8af209	-0.06784446
79	0xbd119995	-0.035546858
80	0xbcfc62bc	-0.030808799
81	0xbcc54d5d	-0.024084741
82	0xbe070670	-0.1318605
83	0x3cf5b61d	0.029994065
84	0xbde63d21	-0.11242128
85	0xbdd6c53b	-0.104868375
86	0x3d263449	0.040577207
87	0xbde829dc	-0.11336109
88	0x3de904bf	0.11377858
89	0x3de60a02	0.112323776
90	0xbd4cdc49	-0.050014768
91	0xbd0596fc	-0.032614693
92	0xbdd6c71c	-0.10487196
93	0xbbe531ff	-0.0069944854
94	0x3c051793	0.008123296
95	0xbd9c0eb0	-0.07619989
96	0x3cf95e18	0.030440375
97	0xbc878cfc	-0.016546719
98	0xbd41ec72	-0.047344632
99	0xbc430988	-0.011904128
100	0xbe079355	-0.13239796
101	0xbdc609da	-0.09669848
102	0x3bbacb63	0.005700515
103	0x3de1cb03	0.110250495
104	0xbdc37809	-0.09544379
105	0x3d92405d	0.071411826
106	0x3b8f9443	0.004381688
107	0xbd5c4748	-0.053778917
108	0xbcaa0fdd	-0.020759517
109	0x3d4e782f	0.050407585
110	0x3ba23b05	0.0049508833
111	0x3dcde834	0.10054055
112	0xbd069b68	-0.03286305
113	0xbdc4442a	-0.09583314
114	0x3dd10e66	0.102078244
115	0xbd269b91	-0.040675703
116	0x3d8b1a6a	0.067921475
117	0x3d957cd2	0.07299198
118	0x3c925d71	0.017866822
119	0xbde55402	-0.11197664
120	0xbe02f033	-0.12786941
121	0x3d471436	0.04860326
122	0x3c9a6f25	0.018851826
123	0x3d8060b9	0.062684484
124	0xbdef6fd8	-0.116912544
125	0xbd2a0739	-0.041510794
126	0x3dc867d2	0.09785427
127	0x3d647241	0.055773024
128	0x3dd44a3b	0.10365721
129	0x3ded2e5d	0.11581109
130	0xbc8cc8cf	-0.017185597
131	0xbe025007	-0.1272584
132	0xbd82caab	-0.06386312
133	0x3d69937b	0.057025414
134	0xbc53cc7a	-0.012927169
135	0x3c5473d1	0.012967066
136	0x3d01400f	0.03155523
137	0x3dbcc326	0.09216909
138	0x3d9dfb8a	0.07713993
139	0x3db3e303	0.087835334
140	0xbcdc9d9f	-0.026930628
141	0x3db5fd78	0.08886236
142	0xbd7012d5	-0.05861171
143	0xbd2c4ce7	-0.042065527
144	0xbbe12620	-0.006871
145	0xbd8c806d	-0.06860433
146	0x3df5aa8a	0.11995418
147	0xbb88e33a	-0.004177478
148	0x3d47c9c9	0.04877642
149	0x3bfeffda	0.0077819647
150	0x3c2601be	0.010132251
151	0xbdd2905c	-0.102814406
152	0xbc91d9b6	-0.017804008
153	0xbdd07012	-0.10177626
154	0xbd5d6a21	-0.05405629
155	0x3de2365c	0.110455245
156	0xbdd54531	-0.10413588
157	0x3d152c7f	0.036419388
158	0x3cf450f6	0.029823761
159	0xbdcaa606	-0.09894948
160	0x3d0b3e66	0.033995055
161	0x3d9db4f1	0.077005275
162	0x3dd7e66c	0.10541996
163	0x3d1b2a93	0.0378824
164	0x3de2c963	0.11073568
165	0x3c65a1e3	0.014015648
166	0x3d7b3334	0.061328128
167	0x3d50f13f	0.05101132
168	0xbdaad133	-0.08340683
169	0xbd77d689	-0.06050733
170	0xbda0c333	-0.07849731
171	0x3dc70170	0.09717071
172	0x3dda5f8b	0.106627546
173	0xbd2074ae	-0.039173774
174	0xbc251ff0	-0.010078415
175	0x3d3ef8bf	0.04662394
176	0xbdd23d70	-0.102656245
177	0x3ca0e98c	0.019642614
178	0x3d972ae9	0.07381231
179	0x3c90e625	0.017687866
180	0x3b632549	0.0034659675
181	0x3db5eaed	0.08882699
182	0x3d2a35bf	0.041555163
183	0xbdcbc16c	-0.09949002
184	0x3d10f5a5	0.035390515
185	0xbda9c960	-0.08290362
186	0x3dabf2a9	0.08395893
187	0x3de348e6	0.11097889
188	0xbc935007	-0.017982496
189	0x3b5e64d4	0.003393461
190	0xbd4e178f	-0.050315436
191	0xbd2c4915	-0.042061884
192	0xbccb45ba	-0.024813522
193	0xbd0cd5fe	-0.034383766
194	0x3e0bfffd	0.1367187
195	0xbdc5d822	-0.09660365
196	0x3d742dff	0.059614178
197	0xbdcf30b5	-0.10116712
198	0x3dbfcf88	0.09365755
199	0x3dee8e2d	0.11648212
200	0xbda6f30e	-0.08151828
201	0xbc904c9e	-0.017614659
202	0x3d0fcf61	0.03510988
203	0xbde42255	-0.11139361
204	0xbde6ac3f	-0.11263322
205	0x3d7b5239	0.06135771
206	0x3df121cb	0.117740236
207	0xbd009efb	-0.031401616
208	0x3c1e99dd	0.009680239
209	0xbdeefaa0	-0.11668897
210	0xbde9f18a	-0.11423023
211	0x3dfd436d	0.12366376
212	0x3dee5303	0.11636927
213	0xbcfbde4f	-0.030745653
214	0xbd23503f	-0.03987145
215	0xbd362b65	-0.044474978
216	0x3d50994d	0.05092745
217	0xbde7b8ce	-0.113145456
218	0xbd899c81	-0.06719304
219	0xbce53c22	-0.027982775
220	0xbd323dc3	-0.04351593
221	0x3c4948d6	0.012285432
222	0x3dc7e867	0.09761124
223	0x3c07c206	0.008286005
224	0xbdd913c2	-0.10599472
225	0x3e0b278a	0.13589302
226	0x3dea21e2	0.11432244
227	0x3d590ed6	0.052992664
228	0x3d9225c8	0.071361125
229	0x3d5acb28	0.0534164
230	0x3deb0b36	0.11476748
231	0xbddc6976	-0.107623026
232	0xbd918153	-0.07104745
233	0xbd4b4901	-0.04963017
234	0xbc551d85	-0.013007526
235	0xbdaa256f	-0.08307921
236	0xbdcc2877	-0.099686556
237	0xbdaca3f3	-0.08429708
238	0xbc14bb5b	-0.009077872
239	0x3deefd2a	0.11669381
240	0x3db3c622	0.08778025
241	0x3d54f409	0.051990543
242	0xbd832d18	-0.06405085
243	0xbd4698c9	-0.04848555
244	0x3cdbfe56	0.026854675
245	0xbde22c3b	-0.110435925
246	0xbc9ffa42	-0.019528512
247	0x3d0a1202	0.03370858
248	0x3d9730fb	0.07382389
249	0xbc92b35f	-0.017907796
250	0x3e0b33f9	0.13594045
251	0x3c573a53	0.013136464
252	0xbdecdb86	-0.11565308
253	0x3e275b16	0.1634334
254	0x3df670b2	0.12033214
255	0xbdb55ea1	-0.0885594

bias f4 [32]
0	0x3da2d9f7	0.0795173
1	0xbd6c5281	-0.05769587
2	0x3dad7268	0.08469087
3	0x3df11c08	0.11772925
4	0x3d755a62	0.05990065
5	0x3db58bb8	0.0886454
6	0xbd8b2c7f	-0.06795596
7	0x3ddf073d	0.108900525
8	0xbda62b38	-0.08113712
9	0x3da063de	0.07831548
10	0x3d34c1f8	0.044130296
11	0x3b94a9c2	0.0045368383
12	0x3cd61682	0.02613378
13	0xbe01e6a5	-0.1268564
14	0x3df06446	0.11737876
15	0xbc6f33c3	-0.014599743
16	0x3dd8e623	0.1059077
17	0xbba53f31	-0.0050429334
18	0xbd16341c	-0.03667079
19	0x3db891ab	0.09012159
20	0xbacf7ad6	-0.0015829455
21	0xbd8e8894	-0.06959644
22	0x3cd64124	0.026154108
23	0xbe06f20b	-0.1317827
24	0xbd8a6951	-0.06758369
25	0xbd71fb66	-0.059077643
26	0x3c7668ca	0.015039632
27	0xbda04b45	-0.078268565
28	0xbbae4000	-0.005317688
29	0xbda92db8	-0.08260673
30	0xbde85efa	-0.1134624
31	0xbcb13189	-0.021630066

weight f4 [1, 32, 5, 5]
0	0x3ba64ab2	0.0050748223
1	0x3cd7ff75	0.026366929
2	0xbc367beb	-0.011137943
3	0x3d0d940e	0.034565024
4	0xbcc7ab8c	-0.024373792
5	0x3c57c6d8	0.013169967
6	0xbcfccfb9	-0.030860769
7	0x3d06ba28	0.032892376
8	0xbc4b1dc7	-0.012397236
9	0x3ca86a0f	0.020558385
10	0x3b2ed657	0.002667805
11	0xbc58d9b2	-0.013235496
12	0xbbf3526f	-0.0074255983
13	0xbc485fb8	-0.012229852
14	0x3cb8e366	0.02256937
15	0x3cdb6c10	0.026784927
16	0x3d0dd792	0.034629412
17	0xbbf2c3ce	-0.0074085956
18	0xbc1eae9d	-0.009685186
19	0xbc89a959	-0.016804384
20	0xbabe3db4	-0.0014514239
21	0x3c1c3e39	0.009536319
22	0xbaf9dcfc	-0.0019063051
23	0xbcb32719	-0.02186923
24	0x3b68ddda	0.0035532624
25	0xb90bdb33	-0.00013337731
26	0xbce02109	-0.027359502
27	0xbc0e0526	-0.00866822
28	0xba0476f2	-0.00050531246
29	0xbd08c173	-0.033387613
30	0x3bbf4de7	0.005838144
31	0x3c2e322c	0.010632079
32	0xbb1ae569	-0.0023635274
33	0xbb8123af	-0.0039410214
34	0x3aec0e10	0.0018009562
35	0x3c2331e2	0.009960623
36	0xbc83015f	-0.015991865
37	0xbb1802f8	-0.002319513
38	0x3cae37ab	0.021266779
39	0xbc19e734	-0.009393502
40	0x3a6f309f	0.00091243716
41	0xbd02030c	-0.031741187
42	0xbcd46ae1	-0.02592987
43	0xbb1f1250	-0.002427239
44	0xbc380ce4	-0.011233542
45	0x3d104466	0.03522148
46	0xbbdc001c	-0.00671388
47	0xbcea575c	-0.02860611
48	0x3cfe390f	0.031033067
49	0xbcb3e4eb	-0.021959743
50	0x3cfa1577	0.030527813
51	0xbb1676ac	-0.0022958918
52	0x3c07c9b7	0.008287839
53	0xbd0893de	-0.033344142
54	0x3d08bed4	0.033385113
55	0x3a70547e	0.0009167864
56	0xbc863747	-0.01638378
57	0xbcc34353	-0.023835814
58	0x3bffb73d	0.007803826
59	0xbd03359f	-0.03203356
60	0x3ce1ebed	0.027578318
61	0x3caa2ba2	0.020772759
62	0x3d037021	0.032089356
63	0x3d06c403	0.032901775
64	0xbc9f3630	-0.019435018
65	0xbc06c463	-0.008225533
66	0x3cbcb244	0.023034222
67	0x3cc50328	0.024049357
68	0x3d137b60	0.03600633
69	0xbc58d986	-0.013235455
70	0x3bd1ee4f	0.0064065824
71	0x391cee24	0.00014966034
72	0x3cb24107	0.021759523
73	0xbc82a7e5	-0.015949199
74	0x3d089cf4	0.033352807
75	0xbc1ace73	-0.009448635
76	0x3c9854fc	0.018595211
77	0x3ce3288c	0.027729295
78	0xbd0c5981	-0.034265045
79	0x3bf9e8ae	0.0076266145
80	0xbcbe2f62	-0.023215953
81	0x3c93fdb9	0.01806532
82	0x3d006190	0.031343043
83	0xbc26b51d	-0.010175017
84	0xbcbb9f8b	-0.022903224
85	0xbc8ab88d	-0.016933704
86	0x3cea3aa4	0.028592415
87	0xbb985383	-0.0046486272
88	0xbccec514	-0.025240459
89	0x3cf5cd24	0.030005045
90	0x3cc641f1	0.024201365
91	0xbb367fe5	-0.0027847227
92	0x3ba85902	0.0051375637
93	0x3bb11eb6	0.0054052724
94	0x3d1047c7	0.035224702
95	0x3cb05340	0.021524072
96	0x3bf2cb21	0.0074094688
97	0x3af2c220	0.0018520989
98	0x3c4be034	0.012443591
99	0xbccd69ca	-0.025074858
100	0x3ca5e1b8	0.020249233
101	0x3c82b0a5	0.015953371
102	0x3baacd6e	0.0052124774
103	0x3cb13719	0.021632718
104	0xbbbb4c35	-0.0057158717
105	0xbcffce0d	-0.031226182
106	0xbce7f975	-0.028317193
107	0x3d0d27e3	0.034461867
108	0xbc2cb500	-0.010541201
109	0xbcca52de	-0.024697717
110	0x3d123d74	0.035703138
111	0xbcc38729	-0.02386816
112	0x3cf4c0b6	0.029877048
113	0x3d05a644	0.032629266
114	0xbb5c0a69	-0.003357554
115	0x3cb1a353	0.021684324
116	0x3ce6ce69	0.028174596
117	0xbd039b57	-0.032130565
118	0xbc91c61e	-0.017794665
119	0x3bbb8bf3	0.0057234704
120	0x3c477fd1	0.01217647
121	0xbcbca203	-0.023026472
122	0xbce53f91	-0.027984412
123	0x3d0f6365	0.0350069
124	0xbc7ea7bc	-0.015542921
125	0xbd092691	-0.033484045
126	0x3c879413	0.0165501
127	0xbc8c6dec	-0.017142259
128	0xbc396eb4	-0.011317898
129	0xbc3a5884	-0.011373643
130	0x3d09d910	0.033654273
131	0x3c6d76a4	0.014493618
132	0x3d124089	0.035706077
133	0xbc3b89fb	-0.011446471
134	0x3cda9124	0.026680537
135	0xbce28cba	-0.027654994
136	0x3cb80f92	0.022468362
137	0x3b25ed26	0.0025318353
138	0x3b1ce06f	0.0023937484
139	0x3cff844e	0.031191017
140	0x3b732b65	0.0037104723
141	0xbc658f89	-0.014011272
142	0xbc971cad	-0.01844629
143	0x3bddf092	0.006773063
144	0xbc308ee4	-0.010776255
145	0x3c9a71fd	0.018853182
146	0xbce9bc2c	-0.02853211
147	0xbcba3fb3	-0.022735452
148	0x3d027513	0.031849932
149	0xbc4f719a	-0.012661362
150	0xbd08796c	-0.033318922
151	0x3cd774f0	0.026300877
152	0xbc1635d3	-0.009168106
153	0xbb24e4d6	-0.002516081
154	0x3c9da12f	0.019241897
155	0x3c7f2659	0.015573108
156	0xbcf719be	-0.030163642
157	0x3c23c248	0.009995051
158	0x3d10cf1c	0.035353765
159	0xba808869	-0.0009806278
160	0x3cf5a409	0.029985445
161	0x3d10a0f7	0.035309758
162	0x3c8e78a9	0.01739152
163	0xbcf0accd	-0.029379273
164	0x3d08feee	0.033446245
165	0x3d036ebe	0.032088034
166	0x3c737c58	0.014861189
167	0x3ab8e614	0.0014106655
168	0xbcac870f	-0.021060495
169	0x3c319260	0.010838121
170	0xbc08af90	-0.008342639
171	0x3d126011	0.035736147
172	0xbcfee1f3	-0.0311136
173	0x3c2db57d	0.010602352
174	0x3b03d55b	0.0020116183
175	0x3a422998	0.00074067106
176	0xbb74eac7	-0.0037371384
177	0x3c7ffc8b	0.015624176
178	0xbcf36770	-0.029712409
179	0x3c0764a4	0.008263741
180	0xbcbb766a	-0.022883613
181	0x3c4343b6	0.011917999
182	0xbb18975f	-0.0023283584
183	0x3ba8889c	0.005143238
184	0x3ca8c2ca	0.020600695
185	0xbc5af0a3	-0.013363036
186	0xbce34bec	-0.027746163
187	0xbc8146d8	-0.015780851
188	0x3cf1c419	0.029512452
189	0xbce610a8	-0.028084114
190	0x3cbd6c1f	0.023122845
191	0xbc40c228	-0.01176504
192	0x3b2953f8	0.0025837403
193	0x3c78c102	0.015182735
194	0xbc40d05f	-0.01176843
195	0xbcc1eb34	-0.023671724
196	0x3c4f898a	0.012667069
197	0x3cb4b362	0.022058193
198	0x3c62fdc0	0.013854444
199	0xba12fd33	-0.00056071876
200	0x3b721643	0.0036939539
201	0x3c73d21b	0.014881636
202	0x3c3b13b4	0.011418272
203	0xbc8e10e8	-0.017342046
204	0x3cd0d43d	0.025491828
205	0xbb9bb49d	-0.0047517554
206	0xbc640619	-0.013917469
207	0xbc2cc3a2	-0.010544689
208	0x3b9ea745	0.0048417174
209	0xbc963ad5	-0.0183386
210	0xbcc894b2	-0.024484966
211	0x3cac1f03	0.021010881
212	0x3cf64302	0.030061249
213	0xbd0af3f7	-0.03392407
214	0x3cf02760	0.02931565
215	0xbca20d49	-0.019781725
216	0x3c190655	0.009339889
217	0x3d09d317	0.033648577
218	0xbcad7839	-0.02117549
219	0xbc5fb50c	-0.013654005
220	0x3c3183ca	0.010834644
221	0xbcafd17d	-0.021462196
222	0xbc57200b	-0.013130198
223	0xbced7f50	-0.028991371
224	0x3b9abba7	0.004722077
225	0x3cbd26de	0.023089822
226	0x3c2be03f	0.010490476
227	0xbbac4868	-0.005257655
228	0x3d0d7c6b	0.034542482
229	0x3cea7619	0.028620766
230	0xbc952f09	-0.018210905
231	0x3cae1e93	0.021254813
232	0xbbe78bbb	-0.0070662177
233	0x3c4bd878	0.012441747
234	0x3b9fdaa4	0.004878359
235	0x3c873ab0	0.016507477
236	0xbc8acbff	-0.016942976
237	0xbc82ed70	-0.01598236
238	0xbc9c8af4	-0.019109227
239	0xbcb2e999	-0.021839904
240	0xbc6905ec	-0.014222603
241	0x3c1bf494	0.009518761
242	0x3c36187b	0.011114235
243	0x3bfdd382	0.007746161
244	0x3ce0175d	0.02735489
245	0x3ce49b1f	0.027905999
246	0x3cf22622	0.029559199
247	0x3cbcd57c	0.023051016
248	0x3a48a4af	0.00076539343
249	0x3c2464c3	0.010033789
250	0xbc875fbc	-0.016525142
251	0x3afce7f3	0.00192952
252	0x3b855e7a	0.0040701004
253	0xbce1cbda	-0.027563024
254	0x3cf7172a	0.030162413
255	0xbbd4fa2a	-0.0064995484
